HloModule jit_fn_jit, entry_computation_layout={(f32[1000,1000]{1,0})->f32[1000,1000]{1,0}}

fn_jit.1 {
  Arg_0.1 = f32[1000,1000]{1,0} parameter(0)
  sin.5050 = f32[1000,1000]{1,0} sine(Arg_0.1)
  cos.5050 = f32[1000,1000]{1,0} cosine(Arg_0.1)
  add.199 = f32[1000,1000]{1,0} add(sin.5050, cos.5050)
  sin.5051 = f32[1000,1000]{1,0} sine(Arg_0.1)
  sin.5052 = f32[1000,1000]{1,0} sine(sin.5051)
  cos.5051 = f32[1000,1000]{1,0} cosine(Arg_0.1)
  cos.5052 = f32[1000,1000]{1,0} cosine(cos.5051)
  add.200 = f32[1000,1000]{1,0} add(sin.5052, cos.5052)
  add.201 = f32[1000,1000]{1,0} add(add.199, add.200)
  sin.5053 = f32[1000,1000]{1,0} sine(Arg_0.1)
  sin.5054 = f32[1000,1000]{1,0} sine(sin.5053)
  sin.5055 = f32[1000,1000]{1,0} sine(sin.5054)
  cos.5053 = f32[1000,1000]{1,0} cosine(Arg_0.1)
  cos.5054 = f32[1000,1000]{1,0} cosine(cos.5053)
  cos.5055 = f32[1000,1000]{1,0} cosine(cos.5054)
  add.202 = f32[1000,1000]{1,0} add(sin.5055, cos.5055)
  add.203 = f32[1000,1000]{1,0} add(add.201, add.202)
  sin.5056 = f32[1000,1000]{1,0} sine(Arg_0.1)
  sin.5057 = f32[1000,1000]{1,0} sine(sin.5056)
  sin.5058 = f32[1000,1000]{1,0} sine(sin.5057)
  sin.5059 = f32[1000,1000]{1,0} sine(sin.5058)
  cos.5056 = f32[1000,1000]{1,0} cosine(Arg_0.1)
  cos.5057 = f32[1000,1000]{1,0} cosine(cos.5056)
  cos.5058 = f32[1000,1000]{1,0} cosine(cos.5057)
  cos.5059 = f32[1000,1000]{1,0} cosine(cos.5058)
  add.204 = f32[1000,1000]{1,0} add(sin.5059, cos.5059)
  add.205 = f32[1000,1000]{1,0} add(add.203, add.204)
  sin.5060 = f32[1000,1000]{1,0} sine(Arg_0.1)
  sin.5061 = f32[1000,1000]{1,0} sine(sin.5060)
  sin.5062 = f32[1000,1000]{1,0} sine(sin.5061)
  sin.5063 = f32[1000,1000]{1,0} sine(sin.5062)
  sin.5064 = f32[1000,1000]{1,0} sine(sin.5063)
  cos.5060 = f32[1000,1000]{1,0} cosine(Arg_0.1)
  cos.5061 = f32[1000,1000]{1,0} cosine(cos.5060)
  cos.5062 = f32[1000,1000]{1,0} cosine(cos.5061)
  cos.5063 = f32[1000,1000]{1,0} cosine(cos.5062)
  cos.5064 = f32[1000,1000]{1,0} cosine(cos.5063)
  add.206 = f32[1000,1000]{1,0} add(sin.5064, cos.5064)
  add.207 = f32[1000,1000]{1,0} add(add.205, add.206)
  sin.5065 = f32[1000,1000]{1,0} sine(Arg_0.1)
  sin.5066 = f32[1000,1000]{1,0} sine(sin.5065)
  sin.5067 = f32[1000,1000]{1,0} sine(sin.5066)
  sin.5068 = f32[1000,1000]{1,0} sine(sin.5067)
  sin.5069 = f32[1000,1000]{1,0} sine(sin.5068)
  sin.5070 = f32[1000,1000]{1,0} sine(sin.5069)
  cos.5065 = f32[1000,1000]{1,0} cosine(Arg_0.1)
  cos.5066 = f32[1000,1000]{1,0} cosine(cos.5065)
  cos.5067 = f32[1000,1000]{1,0} cosine(cos.5066)
  cos.5068 = f32[1000,1000]{1,0} cosine(cos.5067)
  cos.5069 = f32[1000,1000]{1,0} cosine(cos.5068)
  cos.5070 = f32[1000,1000]{1,0} cosine(cos.5069)
  add.208 = f32[1000,1000]{1,0} add(sin.5070, cos.5070)
  add.209 = f32[1000,1000]{1,0} add(add.207, add.208)
  sin.5071 = f32[1000,1000]{1,0} sine(Arg_0.1)
  sin.5072 = f32[1000,1000]{1,0} sine(sin.5071)
  sin.5073 = f32[1000,1000]{1,0} sine(sin.5072)
  sin.5074 = f32[1000,1000]{1,0} sine(sin.5073)
  sin.5075 = f32[1000,1000]{1,0} sine(sin.5074)
  sin.5076 = f32[1000,1000]{1,0} sine(sin.5075)
  sin.5077 = f32[1000,1000]{1,0} sine(sin.5076)
  cos.5071 = f32[1000,1000]{1,0} cosine(Arg_0.1)
  cos.5072 = f32[1000,1000]{1,0} cosine(cos.5071)
  cos.5073 = f32[1000,1000]{1,0} cosine(cos.5072)
  cos.5074 = f32[1000,1000]{1,0} cosine(cos.5073)
  cos.5075 = f32[1000,1000]{1,0} cosine(cos.5074)
  cos.5076 = f32[1000,1000]{1,0} cosine(cos.5075)
  cos.5077 = f32[1000,1000]{1,0} cosine(cos.5076)
  add.210 = f32[1000,1000]{1,0} add(sin.5077, cos.5077)
  add.211 = f32[1000,1000]{1,0} add(add.209, add.210)
  sin.5078 = f32[1000,1000]{1,0} sine(Arg_0.1)
  sin.5079 = f32[1000,1000]{1,0} sine(sin.5078)
  sin.5080 = f32[1000,1000]{1,0} sine(sin.5079)
  sin.5081 = f32[1000,1000]{1,0} sine(sin.5080)
  sin.5082 = f32[1000,1000]{1,0} sine(sin.5081)
  sin.5083 = f32[1000,1000]{1,0} sine(sin.5082)
  sin.5084 = f32[1000,1000]{1,0} sine(sin.5083)
  sin.5085 = f32[1000,1000]{1,0} sine(sin.5084)
  cos.5078 = f32[1000,1000]{1,0} cosine(Arg_0.1)
  cos.5079 = f32[1000,1000]{1,0} cosine(cos.5078)
  cos.5080 = f32[1000,1000]{1,0} cosine(cos.5079)
  cos.5081 = f32[1000,1000]{1,0} cosine(cos.5080)
  cos.5082 = f32[1000,1000]{1,0} cosine(cos.5081)
  cos.5083 = f32[1000,1000]{1,0} cosine(cos.5082)
  cos.5084 = f32[1000,1000]{1,0} cosine(cos.5083)
  cos.5085 = f32[1000,1000]{1,0} cosine(cos.5084)
  add.212 = f32[1000,1000]{1,0} add(sin.5085, cos.5085)
  add.213 = f32[1000,1000]{1,0} add(add.211, add.212)
  sin.5086 = f32[1000,1000]{1,0} sine(Arg_0.1)
  sin.5087 = f32[1000,1000]{1,0} sine(sin.5086)
  sin.5088 = f32[1000,1000]{1,0} sine(sin.5087)
  sin.5089 = f32[1000,1000]{1,0} sine(sin.5088)
  sin.5090 = f32[1000,1000]{1,0} sine(sin.5089)
  sin.5091 = f32[1000,1000]{1,0} sine(sin.5090)
  sin.5092 = f32[1000,1000]{1,0} sine(sin.5091)
  sin.5093 = f32[1000,1000]{1,0} sine(sin.5092)
  sin.5094 = f32[1000,1000]{1,0} sine(sin.5093)
  cos.5086 = f32[1000,1000]{1,0} cosine(Arg_0.1)
  cos.5087 = f32[1000,1000]{1,0} cosine(cos.5086)
  cos.5088 = f32[1000,1000]{1,0} cosine(cos.5087)
  cos.5089 = f32[1000,1000]{1,0} cosine(cos.5088)
  cos.5090 = f32[1000,1000]{1,0} cosine(cos.5089)
  cos.5091 = f32[1000,1000]{1,0} cosine(cos.5090)
  cos.5092 = f32[1000,1000]{1,0} cosine(cos.5091)
  cos.5093 = f32[1000,1000]{1,0} cosine(cos.5092)
  cos.5094 = f32[1000,1000]{1,0} cosine(cos.5093)
  add.214 = f32[1000,1000]{1,0} add(sin.5094, cos.5094)
  add.215 = f32[1000,1000]{1,0} add(add.213, add.214)
  sin.5095 = f32[1000,1000]{1,0} sine(Arg_0.1)
  sin.5096 = f32[1000,1000]{1,0} sine(sin.5095)
  sin.5097 = f32[1000,1000]{1,0} sine(sin.5096)
  sin.5098 = f32[1000,1000]{1,0} sine(sin.5097)
  sin.5099 = f32[1000,1000]{1,0} sine(sin.5098)
  sin.5100 = f32[1000,1000]{1,0} sine(sin.5099)
  sin.5101 = f32[1000,1000]{1,0} sine(sin.5100)
  sin.5102 = f32[1000,1000]{1,0} sine(sin.5101)
  sin.5103 = f32[1000,1000]{1,0} sine(sin.5102)
  sin.5104 = f32[1000,1000]{1,0} sine(sin.5103)
  cos.5095 = f32[1000,1000]{1,0} cosine(Arg_0.1)
  cos.5096 = f32[1000,1000]{1,0} cosine(cos.5095)
  cos.5097 = f32[1000,1000]{1,0} cosine(cos.5096)
  cos.5098 = f32[1000,1000]{1,0} cosine(cos.5097)
  cos.5099 = f32[1000,1000]{1,0} cosine(cos.5098)
  cos.5100 = f32[1000,1000]{1,0} cosine(cos.5099)
  cos.5101 = f32[1000,1000]{1,0} cosine(cos.5100)
  cos.5102 = f32[1000,1000]{1,0} cosine(cos.5101)
  cos.5103 = f32[1000,1000]{1,0} cosine(cos.5102)
  cos.5104 = f32[1000,1000]{1,0} cosine(cos.5103)
  add.216 = f32[1000,1000]{1,0} add(sin.5104, cos.5104)
  add.217 = f32[1000,1000]{1,0} add(add.215, add.216)
  sin.5105 = f32[1000,1000]{1,0} sine(Arg_0.1)
  sin.5106 = f32[1000,1000]{1,0} sine(sin.5105)
  sin.5107 = f32[1000,1000]{1,0} sine(sin.5106)
  sin.5108 = f32[1000,1000]{1,0} sine(sin.5107)
  sin.5109 = f32[1000,1000]{1,0} sine(sin.5108)
  sin.5110 = f32[1000,1000]{1,0} sine(sin.5109)
  sin.5111 = f32[1000,1000]{1,0} sine(sin.5110)
  sin.5112 = f32[1000,1000]{1,0} sine(sin.5111)
  sin.5113 = f32[1000,1000]{1,0} sine(sin.5112)
  sin.5114 = f32[1000,1000]{1,0} sine(sin.5113)
  sin.5115 = f32[1000,1000]{1,0} sine(sin.5114)
  cos.5105 = f32[1000,1000]{1,0} cosine(Arg_0.1)
  cos.5106 = f32[1000,1000]{1,0} cosine(cos.5105)
  cos.5107 = f32[1000,1000]{1,0} cosine(cos.5106)
  cos.5108 = f32[1000,1000]{1,0} cosine(cos.5107)
  cos.5109 = f32[1000,1000]{1,0} cosine(cos.5108)
  cos.5110 = f32[1000,1000]{1,0} cosine(cos.5109)
  cos.5111 = f32[1000,1000]{1,0} cosine(cos.5110)
  cos.5112 = f32[1000,1000]{1,0} cosine(cos.5111)
  cos.5113 = f32[1000,1000]{1,0} cosine(cos.5112)
  cos.5114 = f32[1000,1000]{1,0} cosine(cos.5113)
  cos.5115 = f32[1000,1000]{1,0} cosine(cos.5114)
  add.218 = f32[1000,1000]{1,0} add(sin.5115, cos.5115)
  add.219 = f32[1000,1000]{1,0} add(add.217, add.218)
  sin.5116 = f32[1000,1000]{1,0} sine(Arg_0.1)
  sin.5117 = f32[1000,1000]{1,0} sine(sin.5116)
  sin.5118 = f32[1000,1000]{1,0} sine(sin.5117)
  sin.5119 = f32[1000,1000]{1,0} sine(sin.5118)
  sin.5120 = f32[1000,1000]{1,0} sine(sin.5119)
  sin.5121 = f32[1000,1000]{1,0} sine(sin.5120)
  sin.5122 = f32[1000,1000]{1,0} sine(sin.5121)
  sin.5123 = f32[1000,1000]{1,0} sine(sin.5122)
  sin.5124 = f32[1000,1000]{1,0} sine(sin.5123)
  sin.5125 = f32[1000,1000]{1,0} sine(sin.5124)
  sin.5126 = f32[1000,1000]{1,0} sine(sin.5125)
  sin.5127 = f32[1000,1000]{1,0} sine(sin.5126)
  cos.5116 = f32[1000,1000]{1,0} cosine(Arg_0.1)
  cos.5117 = f32[1000,1000]{1,0} cosine(cos.5116)
  cos.5118 = f32[1000,1000]{1,0} cosine(cos.5117)
  cos.5119 = f32[1000,1000]{1,0} cosine(cos.5118)
  cos.5120 = f32[1000,1000]{1,0} cosine(cos.5119)
  cos.5121 = f32[1000,1000]{1,0} cosine(cos.5120)
  cos.5122 = f32[1000,1000]{1,0} cosine(cos.5121)
  cos.5123 = f32[1000,1000]{1,0} cosine(cos.5122)
  cos.5124 = f32[1000,1000]{1,0} cosine(cos.5123)
  cos.5125 = f32[1000,1000]{1,0} cosine(cos.5124)
  cos.5126 = f32[1000,1000]{1,0} cosine(cos.5125)
  cos.5127 = f32[1000,1000]{1,0} cosine(cos.5126)
  add.220 = f32[1000,1000]{1,0} add(sin.5127, cos.5127)
  add.221 = f32[1000,1000]{1,0} add(add.219, add.220)
  sin.5128 = f32[1000,1000]{1,0} sine(Arg_0.1)
  sin.5129 = f32[1000,1000]{1,0} sine(sin.5128)
  sin.5130 = f32[1000,1000]{1,0} sine(sin.5129)
  sin.5131 = f32[1000,1000]{1,0} sine(sin.5130)
  sin.5132 = f32[1000,1000]{1,0} sine(sin.5131)
  sin.5133 = f32[1000,1000]{1,0} sine(sin.5132)
  sin.5134 = f32[1000,1000]{1,0} sine(sin.5133)
  sin.5135 = f32[1000,1000]{1,0} sine(sin.5134)
  sin.5136 = f32[1000,1000]{1,0} sine(sin.5135)
  sin.5137 = f32[1000,1000]{1,0} sine(sin.5136)
  sin.5138 = f32[1000,1000]{1,0} sine(sin.5137)
  sin.5139 = f32[1000,1000]{1,0} sine(sin.5138)
  sin.5140 = f32[1000,1000]{1,0} sine(sin.5139)
  cos.5128 = f32[1000,1000]{1,0} cosine(Arg_0.1)
  cos.5129 = f32[1000,1000]{1,0} cosine(cos.5128)
  cos.5130 = f32[1000,1000]{1,0} cosine(cos.5129)
  cos.5131 = f32[1000,1000]{1,0} cosine(cos.5130)
  cos.5132 = f32[1000,1000]{1,0} cosine(cos.5131)
  cos.5133 = f32[1000,1000]{1,0} cosine(cos.5132)
  cos.5134 = f32[1000,1000]{1,0} cosine(cos.5133)
  cos.5135 = f32[1000,1000]{1,0} cosine(cos.5134)
  cos.5136 = f32[1000,1000]{1,0} cosine(cos.5135)
  cos.5137 = f32[1000,1000]{1,0} cosine(cos.5136)
  cos.5138 = f32[1000,1000]{1,0} cosine(cos.5137)
  cos.5139 = f32[1000,1000]{1,0} cosine(cos.5138)
  cos.5140 = f32[1000,1000]{1,0} cosine(cos.5139)
  add.222 = f32[1000,1000]{1,0} add(sin.5140, cos.5140)
  add.223 = f32[1000,1000]{1,0} add(add.221, add.222)
  sin.5141 = f32[1000,1000]{1,0} sine(Arg_0.1)
  sin.5142 = f32[1000,1000]{1,0} sine(sin.5141)
  sin.5143 = f32[1000,1000]{1,0} sine(sin.5142)
  sin.5144 = f32[1000,1000]{1,0} sine(sin.5143)
  sin.5145 = f32[1000,1000]{1,0} sine(sin.5144)
  sin.5146 = f32[1000,1000]{1,0} sine(sin.5145)
  sin.5147 = f32[1000,1000]{1,0} sine(sin.5146)
  sin.5148 = f32[1000,1000]{1,0} sine(sin.5147)
  sin.5149 = f32[1000,1000]{1,0} sine(sin.5148)
  sin.5150 = f32[1000,1000]{1,0} sine(sin.5149)
  sin.5151 = f32[1000,1000]{1,0} sine(sin.5150)
  sin.5152 = f32[1000,1000]{1,0} sine(sin.5151)
  sin.5153 = f32[1000,1000]{1,0} sine(sin.5152)
  sin.5154 = f32[1000,1000]{1,0} sine(sin.5153)
  cos.5141 = f32[1000,1000]{1,0} cosine(Arg_0.1)
  cos.5142 = f32[1000,1000]{1,0} cosine(cos.5141)
  cos.5143 = f32[1000,1000]{1,0} cosine(cos.5142)
  cos.5144 = f32[1000,1000]{1,0} cosine(cos.5143)
  cos.5145 = f32[1000,1000]{1,0} cosine(cos.5144)
  cos.5146 = f32[1000,1000]{1,0} cosine(cos.5145)
  cos.5147 = f32[1000,1000]{1,0} cosine(cos.5146)
  cos.5148 = f32[1000,1000]{1,0} cosine(cos.5147)
  cos.5149 = f32[1000,1000]{1,0} cosine(cos.5148)
  cos.5150 = f32[1000,1000]{1,0} cosine(cos.5149)
  cos.5151 = f32[1000,1000]{1,0} cosine(cos.5150)
  cos.5152 = f32[1000,1000]{1,0} cosine(cos.5151)
  cos.5153 = f32[1000,1000]{1,0} cosine(cos.5152)
  cos.5154 = f32[1000,1000]{1,0} cosine(cos.5153)
  add.224 = f32[1000,1000]{1,0} add(sin.5154, cos.5154)
  add.225 = f32[1000,1000]{1,0} add(add.223, add.224)
  sin.5155 = f32[1000,1000]{1,0} sine(Arg_0.1)
  sin.5156 = f32[1000,1000]{1,0} sine(sin.5155)
  sin.5157 = f32[1000,1000]{1,0} sine(sin.5156)
  sin.5158 = f32[1000,1000]{1,0} sine(sin.5157)
  sin.5159 = f32[1000,1000]{1,0} sine(sin.5158)
  sin.5160 = f32[1000,1000]{1,0} sine(sin.5159)
  sin.5161 = f32[1000,1000]{1,0} sine(sin.5160)
  sin.5162 = f32[1000,1000]{1,0} sine(sin.5161)
  sin.5163 = f32[1000,1000]{1,0} sine(sin.5162)
  sin.5164 = f32[1000,1000]{1,0} sine(sin.5163)
  sin.5165 = f32[1000,1000]{1,0} sine(sin.5164)
  sin.5166 = f32[1000,1000]{1,0} sine(sin.5165)
  sin.5167 = f32[1000,1000]{1,0} sine(sin.5166)
  sin.5168 = f32[1000,1000]{1,0} sine(sin.5167)
  sin.5169 = f32[1000,1000]{1,0} sine(sin.5168)
  cos.5155 = f32[1000,1000]{1,0} cosine(Arg_0.1)
  cos.5156 = f32[1000,1000]{1,0} cosine(cos.5155)
  cos.5157 = f32[1000,1000]{1,0} cosine(cos.5156)
  cos.5158 = f32[1000,1000]{1,0} cosine(cos.5157)
  cos.5159 = f32[1000,1000]{1,0} cosine(cos.5158)
  cos.5160 = f32[1000,1000]{1,0} cosine(cos.5159)
  cos.5161 = f32[1000,1000]{1,0} cosine(cos.5160)
  cos.5162 = f32[1000,1000]{1,0} cosine(cos.5161)
  cos.5163 = f32[1000,1000]{1,0} cosine(cos.5162)
  cos.5164 = f32[1000,1000]{1,0} cosine(cos.5163)
  cos.5165 = f32[1000,1000]{1,0} cosine(cos.5164)
  cos.5166 = f32[1000,1000]{1,0} cosine(cos.5165)
  cos.5167 = f32[1000,1000]{1,0} cosine(cos.5166)
  cos.5168 = f32[1000,1000]{1,0} cosine(cos.5167)
  cos.5169 = f32[1000,1000]{1,0} cosine(cos.5168)
  add.226 = f32[1000,1000]{1,0} add(sin.5169, cos.5169)
  add.227 = f32[1000,1000]{1,0} add(add.225, add.226)
  sin.5170 = f32[1000,1000]{1,0} sine(Arg_0.1)
  sin.5171 = f32[1000,1000]{1,0} sine(sin.5170)
  sin.5172 = f32[1000,1000]{1,0} sine(sin.5171)
  sin.5173 = f32[1000,1000]{1,0} sine(sin.5172)
  sin.5174 = f32[1000,1000]{1,0} sine(sin.5173)
  sin.5175 = f32[1000,1000]{1,0} sine(sin.5174)
  sin.5176 = f32[1000,1000]{1,0} sine(sin.5175)
  sin.5177 = f32[1000,1000]{1,0} sine(sin.5176)
  sin.5178 = f32[1000,1000]{1,0} sine(sin.5177)
  sin.5179 = f32[1000,1000]{1,0} sine(sin.5178)
  sin.5180 = f32[1000,1000]{1,0} sine(sin.5179)
  sin.5181 = f32[1000,1000]{1,0} sine(sin.5180)
  sin.5182 = f32[1000,1000]{1,0} sine(sin.5181)
  sin.5183 = f32[1000,1000]{1,0} sine(sin.5182)
  sin.5184 = f32[1000,1000]{1,0} sine(sin.5183)
  sin.5185 = f32[1000,1000]{1,0} sine(sin.5184)
  cos.5170 = f32[1000,1000]{1,0} cosine(Arg_0.1)
  cos.5171 = f32[1000,1000]{1,0} cosine(cos.5170)
  cos.5172 = f32[1000,1000]{1,0} cosine(cos.5171)
  cos.5173 = f32[1000,1000]{1,0} cosine(cos.5172)
  cos.5174 = f32[1000,1000]{1,0} cosine(cos.5173)
  cos.5175 = f32[1000,1000]{1,0} cosine(cos.5174)
  cos.5176 = f32[1000,1000]{1,0} cosine(cos.5175)
  cos.5177 = f32[1000,1000]{1,0} cosine(cos.5176)
  cos.5178 = f32[1000,1000]{1,0} cosine(cos.5177)
  cos.5179 = f32[1000,1000]{1,0} cosine(cos.5178)
  cos.5180 = f32[1000,1000]{1,0} cosine(cos.5179)
  cos.5181 = f32[1000,1000]{1,0} cosine(cos.5180)
  cos.5182 = f32[1000,1000]{1,0} cosine(cos.5181)
  cos.5183 = f32[1000,1000]{1,0} cosine(cos.5182)
  cos.5184 = f32[1000,1000]{1,0} cosine(cos.5183)
  cos.5185 = f32[1000,1000]{1,0} cosine(cos.5184)
  add.228 = f32[1000,1000]{1,0} add(sin.5185, cos.5185)
  add.229 = f32[1000,1000]{1,0} add(add.227, add.228)
  sin.5186 = f32[1000,1000]{1,0} sine(Arg_0.1)
  sin.5187 = f32[1000,1000]{1,0} sine(sin.5186)
  sin.5188 = f32[1000,1000]{1,0} sine(sin.5187)
  sin.5189 = f32[1000,1000]{1,0} sine(sin.5188)
  sin.5190 = f32[1000,1000]{1,0} sine(sin.5189)
  sin.5191 = f32[1000,1000]{1,0} sine(sin.5190)
  sin.5192 = f32[1000,1000]{1,0} sine(sin.5191)
  sin.5193 = f32[1000,1000]{1,0} sine(sin.5192)
  sin.5194 = f32[1000,1000]{1,0} sine(sin.5193)
  sin.5195 = f32[1000,1000]{1,0} sine(sin.5194)
  sin.5196 = f32[1000,1000]{1,0} sine(sin.5195)
  sin.5197 = f32[1000,1000]{1,0} sine(sin.5196)
  sin.5198 = f32[1000,1000]{1,0} sine(sin.5197)
  sin.5199 = f32[1000,1000]{1,0} sine(sin.5198)
  sin.5200 = f32[1000,1000]{1,0} sine(sin.5199)
  sin.5201 = f32[1000,1000]{1,0} sine(sin.5200)
  sin.5202 = f32[1000,1000]{1,0} sine(sin.5201)
  cos.5186 = f32[1000,1000]{1,0} cosine(Arg_0.1)
  cos.5187 = f32[1000,1000]{1,0} cosine(cos.5186)
  cos.5188 = f32[1000,1000]{1,0} cosine(cos.5187)
  cos.5189 = f32[1000,1000]{1,0} cosine(cos.5188)
  cos.5190 = f32[1000,1000]{1,0} cosine(cos.5189)
  cos.5191 = f32[1000,1000]{1,0} cosine(cos.5190)
  cos.5192 = f32[1000,1000]{1,0} cosine(cos.5191)
  cos.5193 = f32[1000,1000]{1,0} cosine(cos.5192)
  cos.5194 = f32[1000,1000]{1,0} cosine(cos.5193)
  cos.5195 = f32[1000,1000]{1,0} cosine(cos.5194)
  cos.5196 = f32[1000,1000]{1,0} cosine(cos.5195)
  cos.5197 = f32[1000,1000]{1,0} cosine(cos.5196)
  cos.5198 = f32[1000,1000]{1,0} cosine(cos.5197)
  cos.5199 = f32[1000,1000]{1,0} cosine(cos.5198)
  cos.5200 = f32[1000,1000]{1,0} cosine(cos.5199)
  cos.5201 = f32[1000,1000]{1,0} cosine(cos.5200)
  cos.5202 = f32[1000,1000]{1,0} cosine(cos.5201)
  add.230 = f32[1000,1000]{1,0} add(sin.5202, cos.5202)
  add.231 = f32[1000,1000]{1,0} add(add.229, add.230)
  sin.5203 = f32[1000,1000]{1,0} sine(Arg_0.1)
  sin.5204 = f32[1000,1000]{1,0} sine(sin.5203)
  sin.5205 = f32[1000,1000]{1,0} sine(sin.5204)
  sin.5206 = f32[1000,1000]{1,0} sine(sin.5205)
  sin.5207 = f32[1000,1000]{1,0} sine(sin.5206)
  sin.5208 = f32[1000,1000]{1,0} sine(sin.5207)
  sin.5209 = f32[1000,1000]{1,0} sine(sin.5208)
  sin.5210 = f32[1000,1000]{1,0} sine(sin.5209)
  sin.5211 = f32[1000,1000]{1,0} sine(sin.5210)
  sin.5212 = f32[1000,1000]{1,0} sine(sin.5211)
  sin.5213 = f32[1000,1000]{1,0} sine(sin.5212)
  sin.5214 = f32[1000,1000]{1,0} sine(sin.5213)
  sin.5215 = f32[1000,1000]{1,0} sine(sin.5214)
  sin.5216 = f32[1000,1000]{1,0} sine(sin.5215)
  sin.5217 = f32[1000,1000]{1,0} sine(sin.5216)
  sin.5218 = f32[1000,1000]{1,0} sine(sin.5217)
  sin.5219 = f32[1000,1000]{1,0} sine(sin.5218)
  sin.5220 = f32[1000,1000]{1,0} sine(sin.5219)
  cos.5203 = f32[1000,1000]{1,0} cosine(Arg_0.1)
  cos.5204 = f32[1000,1000]{1,0} cosine(cos.5203)
  cos.5205 = f32[1000,1000]{1,0} cosine(cos.5204)
  cos.5206 = f32[1000,1000]{1,0} cosine(cos.5205)
  cos.5207 = f32[1000,1000]{1,0} cosine(cos.5206)
  cos.5208 = f32[1000,1000]{1,0} cosine(cos.5207)
  cos.5209 = f32[1000,1000]{1,0} cosine(cos.5208)
  cos.5210 = f32[1000,1000]{1,0} cosine(cos.5209)
  cos.5211 = f32[1000,1000]{1,0} cosine(cos.5210)
  cos.5212 = f32[1000,1000]{1,0} cosine(cos.5211)
  cos.5213 = f32[1000,1000]{1,0} cosine(cos.5212)
  cos.5214 = f32[1000,1000]{1,0} cosine(cos.5213)
  cos.5215 = f32[1000,1000]{1,0} cosine(cos.5214)
  cos.5216 = f32[1000,1000]{1,0} cosine(cos.5215)
  cos.5217 = f32[1000,1000]{1,0} cosine(cos.5216)
  cos.5218 = f32[1000,1000]{1,0} cosine(cos.5217)
  cos.5219 = f32[1000,1000]{1,0} cosine(cos.5218)
  cos.5220 = f32[1000,1000]{1,0} cosine(cos.5219)
  add.232 = f32[1000,1000]{1,0} add(sin.5220, cos.5220)
  add.233 = f32[1000,1000]{1,0} add(add.231, add.232)
  sin.5221 = f32[1000,1000]{1,0} sine(Arg_0.1)
  sin.5222 = f32[1000,1000]{1,0} sine(sin.5221)
  sin.5223 = f32[1000,1000]{1,0} sine(sin.5222)
  sin.5224 = f32[1000,1000]{1,0} sine(sin.5223)
  sin.5225 = f32[1000,1000]{1,0} sine(sin.5224)
  sin.5226 = f32[1000,1000]{1,0} sine(sin.5225)
  sin.5227 = f32[1000,1000]{1,0} sine(sin.5226)
  sin.5228 = f32[1000,1000]{1,0} sine(sin.5227)
  sin.5229 = f32[1000,1000]{1,0} sine(sin.5228)
  sin.5230 = f32[1000,1000]{1,0} sine(sin.5229)
  sin.5231 = f32[1000,1000]{1,0} sine(sin.5230)
  sin.5232 = f32[1000,1000]{1,0} sine(sin.5231)
  sin.5233 = f32[1000,1000]{1,0} sine(sin.5232)
  sin.5234 = f32[1000,1000]{1,0} sine(sin.5233)
  sin.5235 = f32[1000,1000]{1,0} sine(sin.5234)
  sin.5236 = f32[1000,1000]{1,0} sine(sin.5235)
  sin.5237 = f32[1000,1000]{1,0} sine(sin.5236)
  sin.5238 = f32[1000,1000]{1,0} sine(sin.5237)
  sin.5239 = f32[1000,1000]{1,0} sine(sin.5238)
  cos.5221 = f32[1000,1000]{1,0} cosine(Arg_0.1)
  cos.5222 = f32[1000,1000]{1,0} cosine(cos.5221)
  cos.5223 = f32[1000,1000]{1,0} cosine(cos.5222)
  cos.5224 = f32[1000,1000]{1,0} cosine(cos.5223)
  cos.5225 = f32[1000,1000]{1,0} cosine(cos.5224)
  cos.5226 = f32[1000,1000]{1,0} cosine(cos.5225)
  cos.5227 = f32[1000,1000]{1,0} cosine(cos.5226)
  cos.5228 = f32[1000,1000]{1,0} cosine(cos.5227)
  cos.5229 = f32[1000,1000]{1,0} cosine(cos.5228)
  cos.5230 = f32[1000,1000]{1,0} cosine(cos.5229)
  cos.5231 = f32[1000,1000]{1,0} cosine(cos.5230)
  cos.5232 = f32[1000,1000]{1,0} cosine(cos.5231)
  cos.5233 = f32[1000,1000]{1,0} cosine(cos.5232)
  cos.5234 = f32[1000,1000]{1,0} cosine(cos.5233)
  cos.5235 = f32[1000,1000]{1,0} cosine(cos.5234)
  cos.5236 = f32[1000,1000]{1,0} cosine(cos.5235)
  cos.5237 = f32[1000,1000]{1,0} cosine(cos.5236)
  cos.5238 = f32[1000,1000]{1,0} cosine(cos.5237)
  cos.5239 = f32[1000,1000]{1,0} cosine(cos.5238)
  add.234 = f32[1000,1000]{1,0} add(sin.5239, cos.5239)
  add.235 = f32[1000,1000]{1,0} add(add.233, add.234)
  sin.5240 = f32[1000,1000]{1,0} sine(Arg_0.1)
  sin.5241 = f32[1000,1000]{1,0} sine(sin.5240)
  sin.5242 = f32[1000,1000]{1,0} sine(sin.5241)
  sin.5243 = f32[1000,1000]{1,0} sine(sin.5242)
  sin.5244 = f32[1000,1000]{1,0} sine(sin.5243)
  sin.5245 = f32[1000,1000]{1,0} sine(sin.5244)
  sin.5246 = f32[1000,1000]{1,0} sine(sin.5245)
  sin.5247 = f32[1000,1000]{1,0} sine(sin.5246)
  sin.5248 = f32[1000,1000]{1,0} sine(sin.5247)
  sin.5249 = f32[1000,1000]{1,0} sine(sin.5248)
  sin.5250 = f32[1000,1000]{1,0} sine(sin.5249)
  sin.5251 = f32[1000,1000]{1,0} sine(sin.5250)
  sin.5252 = f32[1000,1000]{1,0} sine(sin.5251)
  sin.5253 = f32[1000,1000]{1,0} sine(sin.5252)
  sin.5254 = f32[1000,1000]{1,0} sine(sin.5253)
  sin.5255 = f32[1000,1000]{1,0} sine(sin.5254)
  sin.5256 = f32[1000,1000]{1,0} sine(sin.5255)
  sin.5257 = f32[1000,1000]{1,0} sine(sin.5256)
  sin.5258 = f32[1000,1000]{1,0} sine(sin.5257)
  sin.5259 = f32[1000,1000]{1,0} sine(sin.5258)
  cos.5240 = f32[1000,1000]{1,0} cosine(Arg_0.1)
  cos.5241 = f32[1000,1000]{1,0} cosine(cos.5240)
  cos.5242 = f32[1000,1000]{1,0} cosine(cos.5241)
  cos.5243 = f32[1000,1000]{1,0} cosine(cos.5242)
  cos.5244 = f32[1000,1000]{1,0} cosine(cos.5243)
  cos.5245 = f32[1000,1000]{1,0} cosine(cos.5244)
  cos.5246 = f32[1000,1000]{1,0} cosine(cos.5245)
  cos.5247 = f32[1000,1000]{1,0} cosine(cos.5246)
  cos.5248 = f32[1000,1000]{1,0} cosine(cos.5247)
  cos.5249 = f32[1000,1000]{1,0} cosine(cos.5248)
  cos.5250 = f32[1000,1000]{1,0} cosine(cos.5249)
  cos.5251 = f32[1000,1000]{1,0} cosine(cos.5250)
  cos.5252 = f32[1000,1000]{1,0} cosine(cos.5251)
  cos.5253 = f32[1000,1000]{1,0} cosine(cos.5252)
  cos.5254 = f32[1000,1000]{1,0} cosine(cos.5253)
  cos.5255 = f32[1000,1000]{1,0} cosine(cos.5254)
  cos.5256 = f32[1000,1000]{1,0} cosine(cos.5255)
  cos.5257 = f32[1000,1000]{1,0} cosine(cos.5256)
  cos.5258 = f32[1000,1000]{1,0} cosine(cos.5257)
  cos.5259 = f32[1000,1000]{1,0} cosine(cos.5258)
  add.236 = f32[1000,1000]{1,0} add(sin.5259, cos.5259)
  add.237 = f32[1000,1000]{1,0} add(add.235, add.236)
  sin.5260 = f32[1000,1000]{1,0} sine(Arg_0.1)
  sin.5261 = f32[1000,1000]{1,0} sine(sin.5260)
  sin.5262 = f32[1000,1000]{1,0} sine(sin.5261)
  sin.5263 = f32[1000,1000]{1,0} sine(sin.5262)
  sin.5264 = f32[1000,1000]{1,0} sine(sin.5263)
  sin.5265 = f32[1000,1000]{1,0} sine(sin.5264)
  sin.5266 = f32[1000,1000]{1,0} sine(sin.5265)
  sin.5267 = f32[1000,1000]{1,0} sine(sin.5266)
  sin.5268 = f32[1000,1000]{1,0} sine(sin.5267)
  sin.5269 = f32[1000,1000]{1,0} sine(sin.5268)
  sin.5270 = f32[1000,1000]{1,0} sine(sin.5269)
  sin.5271 = f32[1000,1000]{1,0} sine(sin.5270)
  sin.5272 = f32[1000,1000]{1,0} sine(sin.5271)
  sin.5273 = f32[1000,1000]{1,0} sine(sin.5272)
  sin.5274 = f32[1000,1000]{1,0} sine(sin.5273)
  sin.5275 = f32[1000,1000]{1,0} sine(sin.5274)
  sin.5276 = f32[1000,1000]{1,0} sine(sin.5275)
  sin.5277 = f32[1000,1000]{1,0} sine(sin.5276)
  sin.5278 = f32[1000,1000]{1,0} sine(sin.5277)
  sin.5279 = f32[1000,1000]{1,0} sine(sin.5278)
  sin.5280 = f32[1000,1000]{1,0} sine(sin.5279)
  cos.5260 = f32[1000,1000]{1,0} cosine(Arg_0.1)
  cos.5261 = f32[1000,1000]{1,0} cosine(cos.5260)
  cos.5262 = f32[1000,1000]{1,0} cosine(cos.5261)
  cos.5263 = f32[1000,1000]{1,0} cosine(cos.5262)
  cos.5264 = f32[1000,1000]{1,0} cosine(cos.5263)
  cos.5265 = f32[1000,1000]{1,0} cosine(cos.5264)
  cos.5266 = f32[1000,1000]{1,0} cosine(cos.5265)
  cos.5267 = f32[1000,1000]{1,0} cosine(cos.5266)
  cos.5268 = f32[1000,1000]{1,0} cosine(cos.5267)
  cos.5269 = f32[1000,1000]{1,0} cosine(cos.5268)
  cos.5270 = f32[1000,1000]{1,0} cosine(cos.5269)
  cos.5271 = f32[1000,1000]{1,0} cosine(cos.5270)
  cos.5272 = f32[1000,1000]{1,0} cosine(cos.5271)
  cos.5273 = f32[1000,1000]{1,0} cosine(cos.5272)
  cos.5274 = f32[1000,1000]{1,0} cosine(cos.5273)
  cos.5275 = f32[1000,1000]{1,0} cosine(cos.5274)
  cos.5276 = f32[1000,1000]{1,0} cosine(cos.5275)
  cos.5277 = f32[1000,1000]{1,0} cosine(cos.5276)
  cos.5278 = f32[1000,1000]{1,0} cosine(cos.5277)
  cos.5279 = f32[1000,1000]{1,0} cosine(cos.5278)
  cos.5280 = f32[1000,1000]{1,0} cosine(cos.5279)
  add.238 = f32[1000,1000]{1,0} add(sin.5280, cos.5280)
  add.239 = f32[1000,1000]{1,0} add(add.237, add.238)
  sin.5281 = f32[1000,1000]{1,0} sine(Arg_0.1)
  sin.5282 = f32[1000,1000]{1,0} sine(sin.5281)
  sin.5283 = f32[1000,1000]{1,0} sine(sin.5282)
  sin.5284 = f32[1000,1000]{1,0} sine(sin.5283)
  sin.5285 = f32[1000,1000]{1,0} sine(sin.5284)
  sin.5286 = f32[1000,1000]{1,0} sine(sin.5285)
  sin.5287 = f32[1000,1000]{1,0} sine(sin.5286)
  sin.5288 = f32[1000,1000]{1,0} sine(sin.5287)
  sin.5289 = f32[1000,1000]{1,0} sine(sin.5288)
  sin.5290 = f32[1000,1000]{1,0} sine(sin.5289)
  sin.5291 = f32[1000,1000]{1,0} sine(sin.5290)
  sin.5292 = f32[1000,1000]{1,0} sine(sin.5291)
  sin.5293 = f32[1000,1000]{1,0} sine(sin.5292)
  sin.5294 = f32[1000,1000]{1,0} sine(sin.5293)
  sin.5295 = f32[1000,1000]{1,0} sine(sin.5294)
  sin.5296 = f32[1000,1000]{1,0} sine(sin.5295)
  sin.5297 = f32[1000,1000]{1,0} sine(sin.5296)
  sin.5298 = f32[1000,1000]{1,0} sine(sin.5297)
  sin.5299 = f32[1000,1000]{1,0} sine(sin.5298)
  sin.5300 = f32[1000,1000]{1,0} sine(sin.5299)
  sin.5301 = f32[1000,1000]{1,0} sine(sin.5300)
  sin.5302 = f32[1000,1000]{1,0} sine(sin.5301)
  cos.5281 = f32[1000,1000]{1,0} cosine(Arg_0.1)
  cos.5282 = f32[1000,1000]{1,0} cosine(cos.5281)
  cos.5283 = f32[1000,1000]{1,0} cosine(cos.5282)
  cos.5284 = f32[1000,1000]{1,0} cosine(cos.5283)
  cos.5285 = f32[1000,1000]{1,0} cosine(cos.5284)
  cos.5286 = f32[1000,1000]{1,0} cosine(cos.5285)
  cos.5287 = f32[1000,1000]{1,0} cosine(cos.5286)
  cos.5288 = f32[1000,1000]{1,0} cosine(cos.5287)
  cos.5289 = f32[1000,1000]{1,0} cosine(cos.5288)
  cos.5290 = f32[1000,1000]{1,0} cosine(cos.5289)
  cos.5291 = f32[1000,1000]{1,0} cosine(cos.5290)
  cos.5292 = f32[1000,1000]{1,0} cosine(cos.5291)
  cos.5293 = f32[1000,1000]{1,0} cosine(cos.5292)
  cos.5294 = f32[1000,1000]{1,0} cosine(cos.5293)
  cos.5295 = f32[1000,1000]{1,0} cosine(cos.5294)
  cos.5296 = f32[1000,1000]{1,0} cosine(cos.5295)
  cos.5297 = f32[1000,1000]{1,0} cosine(cos.5296)
  cos.5298 = f32[1000,1000]{1,0} cosine(cos.5297)
  cos.5299 = f32[1000,1000]{1,0} cosine(cos.5298)
  cos.5300 = f32[1000,1000]{1,0} cosine(cos.5299)
  cos.5301 = f32[1000,1000]{1,0} cosine(cos.5300)
  cos.5302 = f32[1000,1000]{1,0} cosine(cos.5301)
  add.240 = f32[1000,1000]{1,0} add(sin.5302, cos.5302)
  add.241 = f32[1000,1000]{1,0} add(add.239, add.240)
  sin.5303 = f32[1000,1000]{1,0} sine(Arg_0.1)
  sin.5304 = f32[1000,1000]{1,0} sine(sin.5303)
  sin.5305 = f32[1000,1000]{1,0} sine(sin.5304)
  sin.5306 = f32[1000,1000]{1,0} sine(sin.5305)
  sin.5307 = f32[1000,1000]{1,0} sine(sin.5306)
  sin.5308 = f32[1000,1000]{1,0} sine(sin.5307)
  sin.5309 = f32[1000,1000]{1,0} sine(sin.5308)
  sin.5310 = f32[1000,1000]{1,0} sine(sin.5309)
  sin.5311 = f32[1000,1000]{1,0} sine(sin.5310)
  sin.5312 = f32[1000,1000]{1,0} sine(sin.5311)
  sin.5313 = f32[1000,1000]{1,0} sine(sin.5312)
  sin.5314 = f32[1000,1000]{1,0} sine(sin.5313)
  sin.5315 = f32[1000,1000]{1,0} sine(sin.5314)
  sin.5316 = f32[1000,1000]{1,0} sine(sin.5315)
  sin.5317 = f32[1000,1000]{1,0} sine(sin.5316)
  sin.5318 = f32[1000,1000]{1,0} sine(sin.5317)
  sin.5319 = f32[1000,1000]{1,0} sine(sin.5318)
  sin.5320 = f32[1000,1000]{1,0} sine(sin.5319)
  sin.5321 = f32[1000,1000]{1,0} sine(sin.5320)
  sin.5322 = f32[1000,1000]{1,0} sine(sin.5321)
  sin.5323 = f32[1000,1000]{1,0} sine(sin.5322)
  sin.5324 = f32[1000,1000]{1,0} sine(sin.5323)
  sin.5325 = f32[1000,1000]{1,0} sine(sin.5324)
  cos.5303 = f32[1000,1000]{1,0} cosine(Arg_0.1)
  cos.5304 = f32[1000,1000]{1,0} cosine(cos.5303)
  cos.5305 = f32[1000,1000]{1,0} cosine(cos.5304)
  cos.5306 = f32[1000,1000]{1,0} cosine(cos.5305)
  cos.5307 = f32[1000,1000]{1,0} cosine(cos.5306)
  cos.5308 = f32[1000,1000]{1,0} cosine(cos.5307)
  cos.5309 = f32[1000,1000]{1,0} cosine(cos.5308)
  cos.5310 = f32[1000,1000]{1,0} cosine(cos.5309)
  cos.5311 = f32[1000,1000]{1,0} cosine(cos.5310)
  cos.5312 = f32[1000,1000]{1,0} cosine(cos.5311)
  cos.5313 = f32[1000,1000]{1,0} cosine(cos.5312)
  cos.5314 = f32[1000,1000]{1,0} cosine(cos.5313)
  cos.5315 = f32[1000,1000]{1,0} cosine(cos.5314)
  cos.5316 = f32[1000,1000]{1,0} cosine(cos.5315)
  cos.5317 = f32[1000,1000]{1,0} cosine(cos.5316)
  cos.5318 = f32[1000,1000]{1,0} cosine(cos.5317)
  cos.5319 = f32[1000,1000]{1,0} cosine(cos.5318)
  cos.5320 = f32[1000,1000]{1,0} cosine(cos.5319)
  cos.5321 = f32[1000,1000]{1,0} cosine(cos.5320)
  cos.5322 = f32[1000,1000]{1,0} cosine(cos.5321)
  cos.5323 = f32[1000,1000]{1,0} cosine(cos.5322)
  cos.5324 = f32[1000,1000]{1,0} cosine(cos.5323)
  cos.5325 = f32[1000,1000]{1,0} cosine(cos.5324)
  add.242 = f32[1000,1000]{1,0} add(sin.5325, cos.5325)
  add.243 = f32[1000,1000]{1,0} add(add.241, add.242)
  sin.5326 = f32[1000,1000]{1,0} sine(Arg_0.1)
  sin.5327 = f32[1000,1000]{1,0} sine(sin.5326)
  sin.5328 = f32[1000,1000]{1,0} sine(sin.5327)
  sin.5329 = f32[1000,1000]{1,0} sine(sin.5328)
  sin.5330 = f32[1000,1000]{1,0} sine(sin.5329)
  sin.5331 = f32[1000,1000]{1,0} sine(sin.5330)
  sin.5332 = f32[1000,1000]{1,0} sine(sin.5331)
  sin.5333 = f32[1000,1000]{1,0} sine(sin.5332)
  sin.5334 = f32[1000,1000]{1,0} sine(sin.5333)
  sin.5335 = f32[1000,1000]{1,0} sine(sin.5334)
  sin.5336 = f32[1000,1000]{1,0} sine(sin.5335)
  sin.5337 = f32[1000,1000]{1,0} sine(sin.5336)
  sin.5338 = f32[1000,1000]{1,0} sine(sin.5337)
  sin.5339 = f32[1000,1000]{1,0} sine(sin.5338)
  sin.5340 = f32[1000,1000]{1,0} sine(sin.5339)
  sin.5341 = f32[1000,1000]{1,0} sine(sin.5340)
  sin.5342 = f32[1000,1000]{1,0} sine(sin.5341)
  sin.5343 = f32[1000,1000]{1,0} sine(sin.5342)
  sin.5344 = f32[1000,1000]{1,0} sine(sin.5343)
  sin.5345 = f32[1000,1000]{1,0} sine(sin.5344)
  sin.5346 = f32[1000,1000]{1,0} sine(sin.5345)
  sin.5347 = f32[1000,1000]{1,0} sine(sin.5346)
  sin.5348 = f32[1000,1000]{1,0} sine(sin.5347)
  sin.5349 = f32[1000,1000]{1,0} sine(sin.5348)
  cos.5326 = f32[1000,1000]{1,0} cosine(Arg_0.1)
  cos.5327 = f32[1000,1000]{1,0} cosine(cos.5326)
  cos.5328 = f32[1000,1000]{1,0} cosine(cos.5327)
  cos.5329 = f32[1000,1000]{1,0} cosine(cos.5328)
  cos.5330 = f32[1000,1000]{1,0} cosine(cos.5329)
  cos.5331 = f32[1000,1000]{1,0} cosine(cos.5330)
  cos.5332 = f32[1000,1000]{1,0} cosine(cos.5331)
  cos.5333 = f32[1000,1000]{1,0} cosine(cos.5332)
  cos.5334 = f32[1000,1000]{1,0} cosine(cos.5333)
  cos.5335 = f32[1000,1000]{1,0} cosine(cos.5334)
  cos.5336 = f32[1000,1000]{1,0} cosine(cos.5335)
  cos.5337 = f32[1000,1000]{1,0} cosine(cos.5336)
  cos.5338 = f32[1000,1000]{1,0} cosine(cos.5337)
  cos.5339 = f32[1000,1000]{1,0} cosine(cos.5338)
  cos.5340 = f32[1000,1000]{1,0} cosine(cos.5339)
  cos.5341 = f32[1000,1000]{1,0} cosine(cos.5340)
  cos.5342 = f32[1000,1000]{1,0} cosine(cos.5341)
  cos.5343 = f32[1000,1000]{1,0} cosine(cos.5342)
  cos.5344 = f32[1000,1000]{1,0} cosine(cos.5343)
  cos.5345 = f32[1000,1000]{1,0} cosine(cos.5344)
  cos.5346 = f32[1000,1000]{1,0} cosine(cos.5345)
  cos.5347 = f32[1000,1000]{1,0} cosine(cos.5346)
  cos.5348 = f32[1000,1000]{1,0} cosine(cos.5347)
  cos.5349 = f32[1000,1000]{1,0} cosine(cos.5348)
  add.244 = f32[1000,1000]{1,0} add(sin.5349, cos.5349)
  add.245 = f32[1000,1000]{1,0} add(add.243, add.244)
  sin.5350 = f32[1000,1000]{1,0} sine(Arg_0.1)
  sin.5351 = f32[1000,1000]{1,0} sine(sin.5350)
  sin.5352 = f32[1000,1000]{1,0} sine(sin.5351)
  sin.5353 = f32[1000,1000]{1,0} sine(sin.5352)
  sin.5354 = f32[1000,1000]{1,0} sine(sin.5353)
  sin.5355 = f32[1000,1000]{1,0} sine(sin.5354)
  sin.5356 = f32[1000,1000]{1,0} sine(sin.5355)
  sin.5357 = f32[1000,1000]{1,0} sine(sin.5356)
  sin.5358 = f32[1000,1000]{1,0} sine(sin.5357)
  sin.5359 = f32[1000,1000]{1,0} sine(sin.5358)
  sin.5360 = f32[1000,1000]{1,0} sine(sin.5359)
  sin.5361 = f32[1000,1000]{1,0} sine(sin.5360)
  sin.5362 = f32[1000,1000]{1,0} sine(sin.5361)
  sin.5363 = f32[1000,1000]{1,0} sine(sin.5362)
  sin.5364 = f32[1000,1000]{1,0} sine(sin.5363)
  sin.5365 = f32[1000,1000]{1,0} sine(sin.5364)
  sin.5366 = f32[1000,1000]{1,0} sine(sin.5365)
  sin.5367 = f32[1000,1000]{1,0} sine(sin.5366)
  sin.5368 = f32[1000,1000]{1,0} sine(sin.5367)
  sin.5369 = f32[1000,1000]{1,0} sine(sin.5368)
  sin.5370 = f32[1000,1000]{1,0} sine(sin.5369)
  sin.5371 = f32[1000,1000]{1,0} sine(sin.5370)
  sin.5372 = f32[1000,1000]{1,0} sine(sin.5371)
  sin.5373 = f32[1000,1000]{1,0} sine(sin.5372)
  sin.5374 = f32[1000,1000]{1,0} sine(sin.5373)
  cos.5350 = f32[1000,1000]{1,0} cosine(Arg_0.1)
  cos.5351 = f32[1000,1000]{1,0} cosine(cos.5350)
  cos.5352 = f32[1000,1000]{1,0} cosine(cos.5351)
  cos.5353 = f32[1000,1000]{1,0} cosine(cos.5352)
  cos.5354 = f32[1000,1000]{1,0} cosine(cos.5353)
  cos.5355 = f32[1000,1000]{1,0} cosine(cos.5354)
  cos.5356 = f32[1000,1000]{1,0} cosine(cos.5355)
  cos.5357 = f32[1000,1000]{1,0} cosine(cos.5356)
  cos.5358 = f32[1000,1000]{1,0} cosine(cos.5357)
  cos.5359 = f32[1000,1000]{1,0} cosine(cos.5358)
  cos.5360 = f32[1000,1000]{1,0} cosine(cos.5359)
  cos.5361 = f32[1000,1000]{1,0} cosine(cos.5360)
  cos.5362 = f32[1000,1000]{1,0} cosine(cos.5361)
  cos.5363 = f32[1000,1000]{1,0} cosine(cos.5362)
  cos.5364 = f32[1000,1000]{1,0} cosine(cos.5363)
  cos.5365 = f32[1000,1000]{1,0} cosine(cos.5364)
  cos.5366 = f32[1000,1000]{1,0} cosine(cos.5365)
  cos.5367 = f32[1000,1000]{1,0} cosine(cos.5366)
  cos.5368 = f32[1000,1000]{1,0} cosine(cos.5367)
  cos.5369 = f32[1000,1000]{1,0} cosine(cos.5368)
  cos.5370 = f32[1000,1000]{1,0} cosine(cos.5369)
  cos.5371 = f32[1000,1000]{1,0} cosine(cos.5370)
  cos.5372 = f32[1000,1000]{1,0} cosine(cos.5371)
  cos.5373 = f32[1000,1000]{1,0} cosine(cos.5372)
  cos.5374 = f32[1000,1000]{1,0} cosine(cos.5373)
  add.246 = f32[1000,1000]{1,0} add(sin.5374, cos.5374)
  add.247 = f32[1000,1000]{1,0} add(add.245, add.246)
  sin.5375 = f32[1000,1000]{1,0} sine(Arg_0.1)
  sin.5376 = f32[1000,1000]{1,0} sine(sin.5375)
  sin.5377 = f32[1000,1000]{1,0} sine(sin.5376)
  sin.5378 = f32[1000,1000]{1,0} sine(sin.5377)
  sin.5379 = f32[1000,1000]{1,0} sine(sin.5378)
  sin.5380 = f32[1000,1000]{1,0} sine(sin.5379)
  sin.5381 = f32[1000,1000]{1,0} sine(sin.5380)
  sin.5382 = f32[1000,1000]{1,0} sine(sin.5381)
  sin.5383 = f32[1000,1000]{1,0} sine(sin.5382)
  sin.5384 = f32[1000,1000]{1,0} sine(sin.5383)
  sin.5385 = f32[1000,1000]{1,0} sine(sin.5384)
  sin.5386 = f32[1000,1000]{1,0} sine(sin.5385)
  sin.5387 = f32[1000,1000]{1,0} sine(sin.5386)
  sin.5388 = f32[1000,1000]{1,0} sine(sin.5387)
  sin.5389 = f32[1000,1000]{1,0} sine(sin.5388)
  sin.5390 = f32[1000,1000]{1,0} sine(sin.5389)
  sin.5391 = f32[1000,1000]{1,0} sine(sin.5390)
  sin.5392 = f32[1000,1000]{1,0} sine(sin.5391)
  sin.5393 = f32[1000,1000]{1,0} sine(sin.5392)
  sin.5394 = f32[1000,1000]{1,0} sine(sin.5393)
  sin.5395 = f32[1000,1000]{1,0} sine(sin.5394)
  sin.5396 = f32[1000,1000]{1,0} sine(sin.5395)
  sin.5397 = f32[1000,1000]{1,0} sine(sin.5396)
  sin.5398 = f32[1000,1000]{1,0} sine(sin.5397)
  sin.5399 = f32[1000,1000]{1,0} sine(sin.5398)
  sin.5400 = f32[1000,1000]{1,0} sine(sin.5399)
  cos.5375 = f32[1000,1000]{1,0} cosine(Arg_0.1)
  cos.5376 = f32[1000,1000]{1,0} cosine(cos.5375)
  cos.5377 = f32[1000,1000]{1,0} cosine(cos.5376)
  cos.5378 = f32[1000,1000]{1,0} cosine(cos.5377)
  cos.5379 = f32[1000,1000]{1,0} cosine(cos.5378)
  cos.5380 = f32[1000,1000]{1,0} cosine(cos.5379)
  cos.5381 = f32[1000,1000]{1,0} cosine(cos.5380)
  cos.5382 = f32[1000,1000]{1,0} cosine(cos.5381)
  cos.5383 = f32[1000,1000]{1,0} cosine(cos.5382)
  cos.5384 = f32[1000,1000]{1,0} cosine(cos.5383)
  cos.5385 = f32[1000,1000]{1,0} cosine(cos.5384)
  cos.5386 = f32[1000,1000]{1,0} cosine(cos.5385)
  cos.5387 = f32[1000,1000]{1,0} cosine(cos.5386)
  cos.5388 = f32[1000,1000]{1,0} cosine(cos.5387)
  cos.5389 = f32[1000,1000]{1,0} cosine(cos.5388)
  cos.5390 = f32[1000,1000]{1,0} cosine(cos.5389)
  cos.5391 = f32[1000,1000]{1,0} cosine(cos.5390)
  cos.5392 = f32[1000,1000]{1,0} cosine(cos.5391)
  cos.5393 = f32[1000,1000]{1,0} cosine(cos.5392)
  cos.5394 = f32[1000,1000]{1,0} cosine(cos.5393)
  cos.5395 = f32[1000,1000]{1,0} cosine(cos.5394)
  cos.5396 = f32[1000,1000]{1,0} cosine(cos.5395)
  cos.5397 = f32[1000,1000]{1,0} cosine(cos.5396)
  cos.5398 = f32[1000,1000]{1,0} cosine(cos.5397)
  cos.5399 = f32[1000,1000]{1,0} cosine(cos.5398)
  cos.5400 = f32[1000,1000]{1,0} cosine(cos.5399)
  add.248 = f32[1000,1000]{1,0} add(sin.5400, cos.5400)
  add.249 = f32[1000,1000]{1,0} add(add.247, add.248)
  sin.5401 = f32[1000,1000]{1,0} sine(Arg_0.1)
  sin.5402 = f32[1000,1000]{1,0} sine(sin.5401)
  sin.5403 = f32[1000,1000]{1,0} sine(sin.5402)
  sin.5404 = f32[1000,1000]{1,0} sine(sin.5403)
  sin.5405 = f32[1000,1000]{1,0} sine(sin.5404)
  sin.5406 = f32[1000,1000]{1,0} sine(sin.5405)
  sin.5407 = f32[1000,1000]{1,0} sine(sin.5406)
  sin.5408 = f32[1000,1000]{1,0} sine(sin.5407)
  sin.5409 = f32[1000,1000]{1,0} sine(sin.5408)
  sin.5410 = f32[1000,1000]{1,0} sine(sin.5409)
  sin.5411 = f32[1000,1000]{1,0} sine(sin.5410)
  sin.5412 = f32[1000,1000]{1,0} sine(sin.5411)
  sin.5413 = f32[1000,1000]{1,0} sine(sin.5412)
  sin.5414 = f32[1000,1000]{1,0} sine(sin.5413)
  sin.5415 = f32[1000,1000]{1,0} sine(sin.5414)
  sin.5416 = f32[1000,1000]{1,0} sine(sin.5415)
  sin.5417 = f32[1000,1000]{1,0} sine(sin.5416)
  sin.5418 = f32[1000,1000]{1,0} sine(sin.5417)
  sin.5419 = f32[1000,1000]{1,0} sine(sin.5418)
  sin.5420 = f32[1000,1000]{1,0} sine(sin.5419)
  sin.5421 = f32[1000,1000]{1,0} sine(sin.5420)
  sin.5422 = f32[1000,1000]{1,0} sine(sin.5421)
  sin.5423 = f32[1000,1000]{1,0} sine(sin.5422)
  sin.5424 = f32[1000,1000]{1,0} sine(sin.5423)
  sin.5425 = f32[1000,1000]{1,0} sine(sin.5424)
  sin.5426 = f32[1000,1000]{1,0} sine(sin.5425)
  sin.5427 = f32[1000,1000]{1,0} sine(sin.5426)
  cos.5401 = f32[1000,1000]{1,0} cosine(Arg_0.1)
  cos.5402 = f32[1000,1000]{1,0} cosine(cos.5401)
  cos.5403 = f32[1000,1000]{1,0} cosine(cos.5402)
  cos.5404 = f32[1000,1000]{1,0} cosine(cos.5403)
  cos.5405 = f32[1000,1000]{1,0} cosine(cos.5404)
  cos.5406 = f32[1000,1000]{1,0} cosine(cos.5405)
  cos.5407 = f32[1000,1000]{1,0} cosine(cos.5406)
  cos.5408 = f32[1000,1000]{1,0} cosine(cos.5407)
  cos.5409 = f32[1000,1000]{1,0} cosine(cos.5408)
  cos.5410 = f32[1000,1000]{1,0} cosine(cos.5409)
  cos.5411 = f32[1000,1000]{1,0} cosine(cos.5410)
  cos.5412 = f32[1000,1000]{1,0} cosine(cos.5411)
  cos.5413 = f32[1000,1000]{1,0} cosine(cos.5412)
  cos.5414 = f32[1000,1000]{1,0} cosine(cos.5413)
  cos.5415 = f32[1000,1000]{1,0} cosine(cos.5414)
  cos.5416 = f32[1000,1000]{1,0} cosine(cos.5415)
  cos.5417 = f32[1000,1000]{1,0} cosine(cos.5416)
  cos.5418 = f32[1000,1000]{1,0} cosine(cos.5417)
  cos.5419 = f32[1000,1000]{1,0} cosine(cos.5418)
  cos.5420 = f32[1000,1000]{1,0} cosine(cos.5419)
  cos.5421 = f32[1000,1000]{1,0} cosine(cos.5420)
  cos.5422 = f32[1000,1000]{1,0} cosine(cos.5421)
  cos.5423 = f32[1000,1000]{1,0} cosine(cos.5422)
  cos.5424 = f32[1000,1000]{1,0} cosine(cos.5423)
  cos.5425 = f32[1000,1000]{1,0} cosine(cos.5424)
  cos.5426 = f32[1000,1000]{1,0} cosine(cos.5425)
  cos.5427 = f32[1000,1000]{1,0} cosine(cos.5426)
  add.250 = f32[1000,1000]{1,0} add(sin.5427, cos.5427)
  add.251 = f32[1000,1000]{1,0} add(add.249, add.250)
  sin.5428 = f32[1000,1000]{1,0} sine(Arg_0.1)
  sin.5429 = f32[1000,1000]{1,0} sine(sin.5428)
  sin.5430 = f32[1000,1000]{1,0} sine(sin.5429)
  sin.5431 = f32[1000,1000]{1,0} sine(sin.5430)
  sin.5432 = f32[1000,1000]{1,0} sine(sin.5431)
  sin.5433 = f32[1000,1000]{1,0} sine(sin.5432)
  sin.5434 = f32[1000,1000]{1,0} sine(sin.5433)
  sin.5435 = f32[1000,1000]{1,0} sine(sin.5434)
  sin.5436 = f32[1000,1000]{1,0} sine(sin.5435)
  sin.5437 = f32[1000,1000]{1,0} sine(sin.5436)
  sin.5438 = f32[1000,1000]{1,0} sine(sin.5437)
  sin.5439 = f32[1000,1000]{1,0} sine(sin.5438)
  sin.5440 = f32[1000,1000]{1,0} sine(sin.5439)
  sin.5441 = f32[1000,1000]{1,0} sine(sin.5440)
  sin.5442 = f32[1000,1000]{1,0} sine(sin.5441)
  sin.5443 = f32[1000,1000]{1,0} sine(sin.5442)
  sin.5444 = f32[1000,1000]{1,0} sine(sin.5443)
  sin.5445 = f32[1000,1000]{1,0} sine(sin.5444)
  sin.5446 = f32[1000,1000]{1,0} sine(sin.5445)
  sin.5447 = f32[1000,1000]{1,0} sine(sin.5446)
  sin.5448 = f32[1000,1000]{1,0} sine(sin.5447)
  sin.5449 = f32[1000,1000]{1,0} sine(sin.5448)
  sin.5450 = f32[1000,1000]{1,0} sine(sin.5449)
  sin.5451 = f32[1000,1000]{1,0} sine(sin.5450)
  sin.5452 = f32[1000,1000]{1,0} sine(sin.5451)
  sin.5453 = f32[1000,1000]{1,0} sine(sin.5452)
  sin.5454 = f32[1000,1000]{1,0} sine(sin.5453)
  sin.5455 = f32[1000,1000]{1,0} sine(sin.5454)
  cos.5428 = f32[1000,1000]{1,0} cosine(Arg_0.1)
  cos.5429 = f32[1000,1000]{1,0} cosine(cos.5428)
  cos.5430 = f32[1000,1000]{1,0} cosine(cos.5429)
  cos.5431 = f32[1000,1000]{1,0} cosine(cos.5430)
  cos.5432 = f32[1000,1000]{1,0} cosine(cos.5431)
  cos.5433 = f32[1000,1000]{1,0} cosine(cos.5432)
  cos.5434 = f32[1000,1000]{1,0} cosine(cos.5433)
  cos.5435 = f32[1000,1000]{1,0} cosine(cos.5434)
  cos.5436 = f32[1000,1000]{1,0} cosine(cos.5435)
  cos.5437 = f32[1000,1000]{1,0} cosine(cos.5436)
  cos.5438 = f32[1000,1000]{1,0} cosine(cos.5437)
  cos.5439 = f32[1000,1000]{1,0} cosine(cos.5438)
  cos.5440 = f32[1000,1000]{1,0} cosine(cos.5439)
  cos.5441 = f32[1000,1000]{1,0} cosine(cos.5440)
  cos.5442 = f32[1000,1000]{1,0} cosine(cos.5441)
  cos.5443 = f32[1000,1000]{1,0} cosine(cos.5442)
  cos.5444 = f32[1000,1000]{1,0} cosine(cos.5443)
  cos.5445 = f32[1000,1000]{1,0} cosine(cos.5444)
  cos.5446 = f32[1000,1000]{1,0} cosine(cos.5445)
  cos.5447 = f32[1000,1000]{1,0} cosine(cos.5446)
  cos.5448 = f32[1000,1000]{1,0} cosine(cos.5447)
  cos.5449 = f32[1000,1000]{1,0} cosine(cos.5448)
  cos.5450 = f32[1000,1000]{1,0} cosine(cos.5449)
  cos.5451 = f32[1000,1000]{1,0} cosine(cos.5450)
  cos.5452 = f32[1000,1000]{1,0} cosine(cos.5451)
  cos.5453 = f32[1000,1000]{1,0} cosine(cos.5452)
  cos.5454 = f32[1000,1000]{1,0} cosine(cos.5453)
  cos.5455 = f32[1000,1000]{1,0} cosine(cos.5454)
  add.252 = f32[1000,1000]{1,0} add(sin.5455, cos.5455)
  add.253 = f32[1000,1000]{1,0} add(add.251, add.252)
  sin.5456 = f32[1000,1000]{1,0} sine(Arg_0.1)
  sin.5457 = f32[1000,1000]{1,0} sine(sin.5456)
  sin.5458 = f32[1000,1000]{1,0} sine(sin.5457)
  sin.5459 = f32[1000,1000]{1,0} sine(sin.5458)
  sin.5460 = f32[1000,1000]{1,0} sine(sin.5459)
  sin.5461 = f32[1000,1000]{1,0} sine(sin.5460)
  sin.5462 = f32[1000,1000]{1,0} sine(sin.5461)
  sin.5463 = f32[1000,1000]{1,0} sine(sin.5462)
  sin.5464 = f32[1000,1000]{1,0} sine(sin.5463)
  sin.5465 = f32[1000,1000]{1,0} sine(sin.5464)
  sin.5466 = f32[1000,1000]{1,0} sine(sin.5465)
  sin.5467 = f32[1000,1000]{1,0} sine(sin.5466)
  sin.5468 = f32[1000,1000]{1,0} sine(sin.5467)
  sin.5469 = f32[1000,1000]{1,0} sine(sin.5468)
  sin.5470 = f32[1000,1000]{1,0} sine(sin.5469)
  sin.5471 = f32[1000,1000]{1,0} sine(sin.5470)
  sin.5472 = f32[1000,1000]{1,0} sine(sin.5471)
  sin.5473 = f32[1000,1000]{1,0} sine(sin.5472)
  sin.5474 = f32[1000,1000]{1,0} sine(sin.5473)
  sin.5475 = f32[1000,1000]{1,0} sine(sin.5474)
  sin.5476 = f32[1000,1000]{1,0} sine(sin.5475)
  sin.5477 = f32[1000,1000]{1,0} sine(sin.5476)
  sin.5478 = f32[1000,1000]{1,0} sine(sin.5477)
  sin.5479 = f32[1000,1000]{1,0} sine(sin.5478)
  sin.5480 = f32[1000,1000]{1,0} sine(sin.5479)
  sin.5481 = f32[1000,1000]{1,0} sine(sin.5480)
  sin.5482 = f32[1000,1000]{1,0} sine(sin.5481)
  sin.5483 = f32[1000,1000]{1,0} sine(sin.5482)
  sin.5484 = f32[1000,1000]{1,0} sine(sin.5483)
  cos.5456 = f32[1000,1000]{1,0} cosine(Arg_0.1)
  cos.5457 = f32[1000,1000]{1,0} cosine(cos.5456)
  cos.5458 = f32[1000,1000]{1,0} cosine(cos.5457)
  cos.5459 = f32[1000,1000]{1,0} cosine(cos.5458)
  cos.5460 = f32[1000,1000]{1,0} cosine(cos.5459)
  cos.5461 = f32[1000,1000]{1,0} cosine(cos.5460)
  cos.5462 = f32[1000,1000]{1,0} cosine(cos.5461)
  cos.5463 = f32[1000,1000]{1,0} cosine(cos.5462)
  cos.5464 = f32[1000,1000]{1,0} cosine(cos.5463)
  cos.5465 = f32[1000,1000]{1,0} cosine(cos.5464)
  cos.5466 = f32[1000,1000]{1,0} cosine(cos.5465)
  cos.5467 = f32[1000,1000]{1,0} cosine(cos.5466)
  cos.5468 = f32[1000,1000]{1,0} cosine(cos.5467)
  cos.5469 = f32[1000,1000]{1,0} cosine(cos.5468)
  cos.5470 = f32[1000,1000]{1,0} cosine(cos.5469)
  cos.5471 = f32[1000,1000]{1,0} cosine(cos.5470)
  cos.5472 = f32[1000,1000]{1,0} cosine(cos.5471)
  cos.5473 = f32[1000,1000]{1,0} cosine(cos.5472)
  cos.5474 = f32[1000,1000]{1,0} cosine(cos.5473)
  cos.5475 = f32[1000,1000]{1,0} cosine(cos.5474)
  cos.5476 = f32[1000,1000]{1,0} cosine(cos.5475)
  cos.5477 = f32[1000,1000]{1,0} cosine(cos.5476)
  cos.5478 = f32[1000,1000]{1,0} cosine(cos.5477)
  cos.5479 = f32[1000,1000]{1,0} cosine(cos.5478)
  cos.5480 = f32[1000,1000]{1,0} cosine(cos.5479)
  cos.5481 = f32[1000,1000]{1,0} cosine(cos.5480)
  cos.5482 = f32[1000,1000]{1,0} cosine(cos.5481)
  cos.5483 = f32[1000,1000]{1,0} cosine(cos.5482)
  cos.5484 = f32[1000,1000]{1,0} cosine(cos.5483)
  add.254 = f32[1000,1000]{1,0} add(sin.5484, cos.5484)
  add.255 = f32[1000,1000]{1,0} add(add.253, add.254)
  sin.5485 = f32[1000,1000]{1,0} sine(Arg_0.1)
  sin.5486 = f32[1000,1000]{1,0} sine(sin.5485)
  sin.5487 = f32[1000,1000]{1,0} sine(sin.5486)
  sin.5488 = f32[1000,1000]{1,0} sine(sin.5487)
  sin.5489 = f32[1000,1000]{1,0} sine(sin.5488)
  sin.5490 = f32[1000,1000]{1,0} sine(sin.5489)
  sin.5491 = f32[1000,1000]{1,0} sine(sin.5490)
  sin.5492 = f32[1000,1000]{1,0} sine(sin.5491)
  sin.5493 = f32[1000,1000]{1,0} sine(sin.5492)
  sin.5494 = f32[1000,1000]{1,0} sine(sin.5493)
  sin.5495 = f32[1000,1000]{1,0} sine(sin.5494)
  sin.5496 = f32[1000,1000]{1,0} sine(sin.5495)
  sin.5497 = f32[1000,1000]{1,0} sine(sin.5496)
  sin.5498 = f32[1000,1000]{1,0} sine(sin.5497)
  sin.5499 = f32[1000,1000]{1,0} sine(sin.5498)
  sin.5500 = f32[1000,1000]{1,0} sine(sin.5499)
  sin.5501 = f32[1000,1000]{1,0} sine(sin.5500)
  sin.5502 = f32[1000,1000]{1,0} sine(sin.5501)
  sin.5503 = f32[1000,1000]{1,0} sine(sin.5502)
  sin.5504 = f32[1000,1000]{1,0} sine(sin.5503)
  sin.5505 = f32[1000,1000]{1,0} sine(sin.5504)
  sin.5506 = f32[1000,1000]{1,0} sine(sin.5505)
  sin.5507 = f32[1000,1000]{1,0} sine(sin.5506)
  sin.5508 = f32[1000,1000]{1,0} sine(sin.5507)
  sin.5509 = f32[1000,1000]{1,0} sine(sin.5508)
  sin.5510 = f32[1000,1000]{1,0} sine(sin.5509)
  sin.5511 = f32[1000,1000]{1,0} sine(sin.5510)
  sin.5512 = f32[1000,1000]{1,0} sine(sin.5511)
  sin.5513 = f32[1000,1000]{1,0} sine(sin.5512)
  sin.5514 = f32[1000,1000]{1,0} sine(sin.5513)
  cos.5485 = f32[1000,1000]{1,0} cosine(Arg_0.1)
  cos.5486 = f32[1000,1000]{1,0} cosine(cos.5485)
  cos.5487 = f32[1000,1000]{1,0} cosine(cos.5486)
  cos.5488 = f32[1000,1000]{1,0} cosine(cos.5487)
  cos.5489 = f32[1000,1000]{1,0} cosine(cos.5488)
  cos.5490 = f32[1000,1000]{1,0} cosine(cos.5489)
  cos.5491 = f32[1000,1000]{1,0} cosine(cos.5490)
  cos.5492 = f32[1000,1000]{1,0} cosine(cos.5491)
  cos.5493 = f32[1000,1000]{1,0} cosine(cos.5492)
  cos.5494 = f32[1000,1000]{1,0} cosine(cos.5493)
  cos.5495 = f32[1000,1000]{1,0} cosine(cos.5494)
  cos.5496 = f32[1000,1000]{1,0} cosine(cos.5495)
  cos.5497 = f32[1000,1000]{1,0} cosine(cos.5496)
  cos.5498 = f32[1000,1000]{1,0} cosine(cos.5497)
  cos.5499 = f32[1000,1000]{1,0} cosine(cos.5498)
  cos.5500 = f32[1000,1000]{1,0} cosine(cos.5499)
  cos.5501 = f32[1000,1000]{1,0} cosine(cos.5500)
  cos.5502 = f32[1000,1000]{1,0} cosine(cos.5501)
  cos.5503 = f32[1000,1000]{1,0} cosine(cos.5502)
  cos.5504 = f32[1000,1000]{1,0} cosine(cos.5503)
  cos.5505 = f32[1000,1000]{1,0} cosine(cos.5504)
  cos.5506 = f32[1000,1000]{1,0} cosine(cos.5505)
  cos.5507 = f32[1000,1000]{1,0} cosine(cos.5506)
  cos.5508 = f32[1000,1000]{1,0} cosine(cos.5507)
  cos.5509 = f32[1000,1000]{1,0} cosine(cos.5508)
  cos.5510 = f32[1000,1000]{1,0} cosine(cos.5509)
  cos.5511 = f32[1000,1000]{1,0} cosine(cos.5510)
  cos.5512 = f32[1000,1000]{1,0} cosine(cos.5511)
  cos.5513 = f32[1000,1000]{1,0} cosine(cos.5512)
  cos.5514 = f32[1000,1000]{1,0} cosine(cos.5513)
  add.256 = f32[1000,1000]{1,0} add(sin.5514, cos.5514)
  add.257 = f32[1000,1000]{1,0} add(add.255, add.256)
  sin.5515 = f32[1000,1000]{1,0} sine(Arg_0.1)
  sin.5516 = f32[1000,1000]{1,0} sine(sin.5515)
  sin.5517 = f32[1000,1000]{1,0} sine(sin.5516)
  sin.5518 = f32[1000,1000]{1,0} sine(sin.5517)
  sin.5519 = f32[1000,1000]{1,0} sine(sin.5518)
  sin.5520 = f32[1000,1000]{1,0} sine(sin.5519)
  sin.5521 = f32[1000,1000]{1,0} sine(sin.5520)
  sin.5522 = f32[1000,1000]{1,0} sine(sin.5521)
  sin.5523 = f32[1000,1000]{1,0} sine(sin.5522)
  sin.5524 = f32[1000,1000]{1,0} sine(sin.5523)
  sin.5525 = f32[1000,1000]{1,0} sine(sin.5524)
  sin.5526 = f32[1000,1000]{1,0} sine(sin.5525)
  sin.5527 = f32[1000,1000]{1,0} sine(sin.5526)
  sin.5528 = f32[1000,1000]{1,0} sine(sin.5527)
  sin.5529 = f32[1000,1000]{1,0} sine(sin.5528)
  sin.5530 = f32[1000,1000]{1,0} sine(sin.5529)
  sin.5531 = f32[1000,1000]{1,0} sine(sin.5530)
  sin.5532 = f32[1000,1000]{1,0} sine(sin.5531)
  sin.5533 = f32[1000,1000]{1,0} sine(sin.5532)
  sin.5534 = f32[1000,1000]{1,0} sine(sin.5533)
  sin.5535 = f32[1000,1000]{1,0} sine(sin.5534)
  sin.5536 = f32[1000,1000]{1,0} sine(sin.5535)
  sin.5537 = f32[1000,1000]{1,0} sine(sin.5536)
  sin.5538 = f32[1000,1000]{1,0} sine(sin.5537)
  sin.5539 = f32[1000,1000]{1,0} sine(sin.5538)
  sin.5540 = f32[1000,1000]{1,0} sine(sin.5539)
  sin.5541 = f32[1000,1000]{1,0} sine(sin.5540)
  sin.5542 = f32[1000,1000]{1,0} sine(sin.5541)
  sin.5543 = f32[1000,1000]{1,0} sine(sin.5542)
  sin.5544 = f32[1000,1000]{1,0} sine(sin.5543)
  sin.5545 = f32[1000,1000]{1,0} sine(sin.5544)
  cos.5515 = f32[1000,1000]{1,0} cosine(Arg_0.1)
  cos.5516 = f32[1000,1000]{1,0} cosine(cos.5515)
  cos.5517 = f32[1000,1000]{1,0} cosine(cos.5516)
  cos.5518 = f32[1000,1000]{1,0} cosine(cos.5517)
  cos.5519 = f32[1000,1000]{1,0} cosine(cos.5518)
  cos.5520 = f32[1000,1000]{1,0} cosine(cos.5519)
  cos.5521 = f32[1000,1000]{1,0} cosine(cos.5520)
  cos.5522 = f32[1000,1000]{1,0} cosine(cos.5521)
  cos.5523 = f32[1000,1000]{1,0} cosine(cos.5522)
  cos.5524 = f32[1000,1000]{1,0} cosine(cos.5523)
  cos.5525 = f32[1000,1000]{1,0} cosine(cos.5524)
  cos.5526 = f32[1000,1000]{1,0} cosine(cos.5525)
  cos.5527 = f32[1000,1000]{1,0} cosine(cos.5526)
  cos.5528 = f32[1000,1000]{1,0} cosine(cos.5527)
  cos.5529 = f32[1000,1000]{1,0} cosine(cos.5528)
  cos.5530 = f32[1000,1000]{1,0} cosine(cos.5529)
  cos.5531 = f32[1000,1000]{1,0} cosine(cos.5530)
  cos.5532 = f32[1000,1000]{1,0} cosine(cos.5531)
  cos.5533 = f32[1000,1000]{1,0} cosine(cos.5532)
  cos.5534 = f32[1000,1000]{1,0} cosine(cos.5533)
  cos.5535 = f32[1000,1000]{1,0} cosine(cos.5534)
  cos.5536 = f32[1000,1000]{1,0} cosine(cos.5535)
  cos.5537 = f32[1000,1000]{1,0} cosine(cos.5536)
  cos.5538 = f32[1000,1000]{1,0} cosine(cos.5537)
  cos.5539 = f32[1000,1000]{1,0} cosine(cos.5538)
  cos.5540 = f32[1000,1000]{1,0} cosine(cos.5539)
  cos.5541 = f32[1000,1000]{1,0} cosine(cos.5540)
  cos.5542 = f32[1000,1000]{1,0} cosine(cos.5541)
  cos.5543 = f32[1000,1000]{1,0} cosine(cos.5542)
  cos.5544 = f32[1000,1000]{1,0} cosine(cos.5543)
  cos.5545 = f32[1000,1000]{1,0} cosine(cos.5544)
  add.258 = f32[1000,1000]{1,0} add(sin.5545, cos.5545)
  add.259 = f32[1000,1000]{1,0} add(add.257, add.258)
  sin.5546 = f32[1000,1000]{1,0} sine(Arg_0.1)
  sin.5547 = f32[1000,1000]{1,0} sine(sin.5546)
  sin.5548 = f32[1000,1000]{1,0} sine(sin.5547)
  sin.5549 = f32[1000,1000]{1,0} sine(sin.5548)
  sin.5550 = f32[1000,1000]{1,0} sine(sin.5549)
  sin.5551 = f32[1000,1000]{1,0} sine(sin.5550)
  sin.5552 = f32[1000,1000]{1,0} sine(sin.5551)
  sin.5553 = f32[1000,1000]{1,0} sine(sin.5552)
  sin.5554 = f32[1000,1000]{1,0} sine(sin.5553)
  sin.5555 = f32[1000,1000]{1,0} sine(sin.5554)
  sin.5556 = f32[1000,1000]{1,0} sine(sin.5555)
  sin.5557 = f32[1000,1000]{1,0} sine(sin.5556)
  sin.5558 = f32[1000,1000]{1,0} sine(sin.5557)
  sin.5559 = f32[1000,1000]{1,0} sine(sin.5558)
  sin.5560 = f32[1000,1000]{1,0} sine(sin.5559)
  sin.5561 = f32[1000,1000]{1,0} sine(sin.5560)
  sin.5562 = f32[1000,1000]{1,0} sine(sin.5561)
  sin.5563 = f32[1000,1000]{1,0} sine(sin.5562)
  sin.5564 = f32[1000,1000]{1,0} sine(sin.5563)
  sin.5565 = f32[1000,1000]{1,0} sine(sin.5564)
  sin.5566 = f32[1000,1000]{1,0} sine(sin.5565)
  sin.5567 = f32[1000,1000]{1,0} sine(sin.5566)
  sin.5568 = f32[1000,1000]{1,0} sine(sin.5567)
  sin.5569 = f32[1000,1000]{1,0} sine(sin.5568)
  sin.5570 = f32[1000,1000]{1,0} sine(sin.5569)
  sin.5571 = f32[1000,1000]{1,0} sine(sin.5570)
  sin.5572 = f32[1000,1000]{1,0} sine(sin.5571)
  sin.5573 = f32[1000,1000]{1,0} sine(sin.5572)
  sin.5574 = f32[1000,1000]{1,0} sine(sin.5573)
  sin.5575 = f32[1000,1000]{1,0} sine(sin.5574)
  sin.5576 = f32[1000,1000]{1,0} sine(sin.5575)
  sin.5577 = f32[1000,1000]{1,0} sine(sin.5576)
  cos.5546 = f32[1000,1000]{1,0} cosine(Arg_0.1)
  cos.5547 = f32[1000,1000]{1,0} cosine(cos.5546)
  cos.5548 = f32[1000,1000]{1,0} cosine(cos.5547)
  cos.5549 = f32[1000,1000]{1,0} cosine(cos.5548)
  cos.5550 = f32[1000,1000]{1,0} cosine(cos.5549)
  cos.5551 = f32[1000,1000]{1,0} cosine(cos.5550)
  cos.5552 = f32[1000,1000]{1,0} cosine(cos.5551)
  cos.5553 = f32[1000,1000]{1,0} cosine(cos.5552)
  cos.5554 = f32[1000,1000]{1,0} cosine(cos.5553)
  cos.5555 = f32[1000,1000]{1,0} cosine(cos.5554)
  cos.5556 = f32[1000,1000]{1,0} cosine(cos.5555)
  cos.5557 = f32[1000,1000]{1,0} cosine(cos.5556)
  cos.5558 = f32[1000,1000]{1,0} cosine(cos.5557)
  cos.5559 = f32[1000,1000]{1,0} cosine(cos.5558)
  cos.5560 = f32[1000,1000]{1,0} cosine(cos.5559)
  cos.5561 = f32[1000,1000]{1,0} cosine(cos.5560)
  cos.5562 = f32[1000,1000]{1,0} cosine(cos.5561)
  cos.5563 = f32[1000,1000]{1,0} cosine(cos.5562)
  cos.5564 = f32[1000,1000]{1,0} cosine(cos.5563)
  cos.5565 = f32[1000,1000]{1,0} cosine(cos.5564)
  cos.5566 = f32[1000,1000]{1,0} cosine(cos.5565)
  cos.5567 = f32[1000,1000]{1,0} cosine(cos.5566)
  cos.5568 = f32[1000,1000]{1,0} cosine(cos.5567)
  cos.5569 = f32[1000,1000]{1,0} cosine(cos.5568)
  cos.5570 = f32[1000,1000]{1,0} cosine(cos.5569)
  cos.5571 = f32[1000,1000]{1,0} cosine(cos.5570)
  cos.5572 = f32[1000,1000]{1,0} cosine(cos.5571)
  cos.5573 = f32[1000,1000]{1,0} cosine(cos.5572)
  cos.5574 = f32[1000,1000]{1,0} cosine(cos.5573)
  cos.5575 = f32[1000,1000]{1,0} cosine(cos.5574)
  cos.5576 = f32[1000,1000]{1,0} cosine(cos.5575)
  cos.5577 = f32[1000,1000]{1,0} cosine(cos.5576)
  add.260 = f32[1000,1000]{1,0} add(sin.5577, cos.5577)
  add.261 = f32[1000,1000]{1,0} add(add.259, add.260)
  sin.5578 = f32[1000,1000]{1,0} sine(Arg_0.1)
  sin.5579 = f32[1000,1000]{1,0} sine(sin.5578)
  sin.5580 = f32[1000,1000]{1,0} sine(sin.5579)
  sin.5581 = f32[1000,1000]{1,0} sine(sin.5580)
  sin.5582 = f32[1000,1000]{1,0} sine(sin.5581)
  sin.5583 = f32[1000,1000]{1,0} sine(sin.5582)
  sin.5584 = f32[1000,1000]{1,0} sine(sin.5583)
  sin.5585 = f32[1000,1000]{1,0} sine(sin.5584)
  sin.5586 = f32[1000,1000]{1,0} sine(sin.5585)
  sin.5587 = f32[1000,1000]{1,0} sine(sin.5586)
  sin.5588 = f32[1000,1000]{1,0} sine(sin.5587)
  sin.5589 = f32[1000,1000]{1,0} sine(sin.5588)
  sin.5590 = f32[1000,1000]{1,0} sine(sin.5589)
  sin.5591 = f32[1000,1000]{1,0} sine(sin.5590)
  sin.5592 = f32[1000,1000]{1,0} sine(sin.5591)
  sin.5593 = f32[1000,1000]{1,0} sine(sin.5592)
  sin.5594 = f32[1000,1000]{1,0} sine(sin.5593)
  sin.5595 = f32[1000,1000]{1,0} sine(sin.5594)
  sin.5596 = f32[1000,1000]{1,0} sine(sin.5595)
  sin.5597 = f32[1000,1000]{1,0} sine(sin.5596)
  sin.5598 = f32[1000,1000]{1,0} sine(sin.5597)
  sin.5599 = f32[1000,1000]{1,0} sine(sin.5598)
  sin.5600 = f32[1000,1000]{1,0} sine(sin.5599)
  sin.5601 = f32[1000,1000]{1,0} sine(sin.5600)
  sin.5602 = f32[1000,1000]{1,0} sine(sin.5601)
  sin.5603 = f32[1000,1000]{1,0} sine(sin.5602)
  sin.5604 = f32[1000,1000]{1,0} sine(sin.5603)
  sin.5605 = f32[1000,1000]{1,0} sine(sin.5604)
  sin.5606 = f32[1000,1000]{1,0} sine(sin.5605)
  sin.5607 = f32[1000,1000]{1,0} sine(sin.5606)
  sin.5608 = f32[1000,1000]{1,0} sine(sin.5607)
  sin.5609 = f32[1000,1000]{1,0} sine(sin.5608)
  sin.5610 = f32[1000,1000]{1,0} sine(sin.5609)
  cos.5578 = f32[1000,1000]{1,0} cosine(Arg_0.1)
  cos.5579 = f32[1000,1000]{1,0} cosine(cos.5578)
  cos.5580 = f32[1000,1000]{1,0} cosine(cos.5579)
  cos.5581 = f32[1000,1000]{1,0} cosine(cos.5580)
  cos.5582 = f32[1000,1000]{1,0} cosine(cos.5581)
  cos.5583 = f32[1000,1000]{1,0} cosine(cos.5582)
  cos.5584 = f32[1000,1000]{1,0} cosine(cos.5583)
  cos.5585 = f32[1000,1000]{1,0} cosine(cos.5584)
  cos.5586 = f32[1000,1000]{1,0} cosine(cos.5585)
  cos.5587 = f32[1000,1000]{1,0} cosine(cos.5586)
  cos.5588 = f32[1000,1000]{1,0} cosine(cos.5587)
  cos.5589 = f32[1000,1000]{1,0} cosine(cos.5588)
  cos.5590 = f32[1000,1000]{1,0} cosine(cos.5589)
  cos.5591 = f32[1000,1000]{1,0} cosine(cos.5590)
  cos.5592 = f32[1000,1000]{1,0} cosine(cos.5591)
  cos.5593 = f32[1000,1000]{1,0} cosine(cos.5592)
  cos.5594 = f32[1000,1000]{1,0} cosine(cos.5593)
  cos.5595 = f32[1000,1000]{1,0} cosine(cos.5594)
  cos.5596 = f32[1000,1000]{1,0} cosine(cos.5595)
  cos.5597 = f32[1000,1000]{1,0} cosine(cos.5596)
  cos.5598 = f32[1000,1000]{1,0} cosine(cos.5597)
  cos.5599 = f32[1000,1000]{1,0} cosine(cos.5598)
  cos.5600 = f32[1000,1000]{1,0} cosine(cos.5599)
  cos.5601 = f32[1000,1000]{1,0} cosine(cos.5600)
  cos.5602 = f32[1000,1000]{1,0} cosine(cos.5601)
  cos.5603 = f32[1000,1000]{1,0} cosine(cos.5602)
  cos.5604 = f32[1000,1000]{1,0} cosine(cos.5603)
  cos.5605 = f32[1000,1000]{1,0} cosine(cos.5604)
  cos.5606 = f32[1000,1000]{1,0} cosine(cos.5605)
  cos.5607 = f32[1000,1000]{1,0} cosine(cos.5606)
  cos.5608 = f32[1000,1000]{1,0} cosine(cos.5607)
  cos.5609 = f32[1000,1000]{1,0} cosine(cos.5608)
  cos.5610 = f32[1000,1000]{1,0} cosine(cos.5609)
  add.262 = f32[1000,1000]{1,0} add(sin.5610, cos.5610)
  add.263 = f32[1000,1000]{1,0} add(add.261, add.262)
  sin.5611 = f32[1000,1000]{1,0} sine(Arg_0.1)
  sin.5612 = f32[1000,1000]{1,0} sine(sin.5611)
  sin.5613 = f32[1000,1000]{1,0} sine(sin.5612)
  sin.5614 = f32[1000,1000]{1,0} sine(sin.5613)
  sin.5615 = f32[1000,1000]{1,0} sine(sin.5614)
  sin.5616 = f32[1000,1000]{1,0} sine(sin.5615)
  sin.5617 = f32[1000,1000]{1,0} sine(sin.5616)
  sin.5618 = f32[1000,1000]{1,0} sine(sin.5617)
  sin.5619 = f32[1000,1000]{1,0} sine(sin.5618)
  sin.5620 = f32[1000,1000]{1,0} sine(sin.5619)
  sin.5621 = f32[1000,1000]{1,0} sine(sin.5620)
  sin.5622 = f32[1000,1000]{1,0} sine(sin.5621)
  sin.5623 = f32[1000,1000]{1,0} sine(sin.5622)
  sin.5624 = f32[1000,1000]{1,0} sine(sin.5623)
  sin.5625 = f32[1000,1000]{1,0} sine(sin.5624)
  sin.5626 = f32[1000,1000]{1,0} sine(sin.5625)
  sin.5627 = f32[1000,1000]{1,0} sine(sin.5626)
  sin.5628 = f32[1000,1000]{1,0} sine(sin.5627)
  sin.5629 = f32[1000,1000]{1,0} sine(sin.5628)
  sin.5630 = f32[1000,1000]{1,0} sine(sin.5629)
  sin.5631 = f32[1000,1000]{1,0} sine(sin.5630)
  sin.5632 = f32[1000,1000]{1,0} sine(sin.5631)
  sin.5633 = f32[1000,1000]{1,0} sine(sin.5632)
  sin.5634 = f32[1000,1000]{1,0} sine(sin.5633)
  sin.5635 = f32[1000,1000]{1,0} sine(sin.5634)
  sin.5636 = f32[1000,1000]{1,0} sine(sin.5635)
  sin.5637 = f32[1000,1000]{1,0} sine(sin.5636)
  sin.5638 = f32[1000,1000]{1,0} sine(sin.5637)
  sin.5639 = f32[1000,1000]{1,0} sine(sin.5638)
  sin.5640 = f32[1000,1000]{1,0} sine(sin.5639)
  sin.5641 = f32[1000,1000]{1,0} sine(sin.5640)
  sin.5642 = f32[1000,1000]{1,0} sine(sin.5641)
  sin.5643 = f32[1000,1000]{1,0} sine(sin.5642)
  sin.5644 = f32[1000,1000]{1,0} sine(sin.5643)
  cos.5611 = f32[1000,1000]{1,0} cosine(Arg_0.1)
  cos.5612 = f32[1000,1000]{1,0} cosine(cos.5611)
  cos.5613 = f32[1000,1000]{1,0} cosine(cos.5612)
  cos.5614 = f32[1000,1000]{1,0} cosine(cos.5613)
  cos.5615 = f32[1000,1000]{1,0} cosine(cos.5614)
  cos.5616 = f32[1000,1000]{1,0} cosine(cos.5615)
  cos.5617 = f32[1000,1000]{1,0} cosine(cos.5616)
  cos.5618 = f32[1000,1000]{1,0} cosine(cos.5617)
  cos.5619 = f32[1000,1000]{1,0} cosine(cos.5618)
  cos.5620 = f32[1000,1000]{1,0} cosine(cos.5619)
  cos.5621 = f32[1000,1000]{1,0} cosine(cos.5620)
  cos.5622 = f32[1000,1000]{1,0} cosine(cos.5621)
  cos.5623 = f32[1000,1000]{1,0} cosine(cos.5622)
  cos.5624 = f32[1000,1000]{1,0} cosine(cos.5623)
  cos.5625 = f32[1000,1000]{1,0} cosine(cos.5624)
  cos.5626 = f32[1000,1000]{1,0} cosine(cos.5625)
  cos.5627 = f32[1000,1000]{1,0} cosine(cos.5626)
  cos.5628 = f32[1000,1000]{1,0} cosine(cos.5627)
  cos.5629 = f32[1000,1000]{1,0} cosine(cos.5628)
  cos.5630 = f32[1000,1000]{1,0} cosine(cos.5629)
  cos.5631 = f32[1000,1000]{1,0} cosine(cos.5630)
  cos.5632 = f32[1000,1000]{1,0} cosine(cos.5631)
  cos.5633 = f32[1000,1000]{1,0} cosine(cos.5632)
  cos.5634 = f32[1000,1000]{1,0} cosine(cos.5633)
  cos.5635 = f32[1000,1000]{1,0} cosine(cos.5634)
  cos.5636 = f32[1000,1000]{1,0} cosine(cos.5635)
  cos.5637 = f32[1000,1000]{1,0} cosine(cos.5636)
  cos.5638 = f32[1000,1000]{1,0} cosine(cos.5637)
  cos.5639 = f32[1000,1000]{1,0} cosine(cos.5638)
  cos.5640 = f32[1000,1000]{1,0} cosine(cos.5639)
  cos.5641 = f32[1000,1000]{1,0} cosine(cos.5640)
  cos.5642 = f32[1000,1000]{1,0} cosine(cos.5641)
  cos.5643 = f32[1000,1000]{1,0} cosine(cos.5642)
  cos.5644 = f32[1000,1000]{1,0} cosine(cos.5643)
  add.264 = f32[1000,1000]{1,0} add(sin.5644, cos.5644)
  add.265 = f32[1000,1000]{1,0} add(add.263, add.264)
  sin.5645 = f32[1000,1000]{1,0} sine(Arg_0.1)
  sin.5646 = f32[1000,1000]{1,0} sine(sin.5645)
  sin.5647 = f32[1000,1000]{1,0} sine(sin.5646)
  sin.5648 = f32[1000,1000]{1,0} sine(sin.5647)
  sin.5649 = f32[1000,1000]{1,0} sine(sin.5648)
  sin.5650 = f32[1000,1000]{1,0} sine(sin.5649)
  sin.5651 = f32[1000,1000]{1,0} sine(sin.5650)
  sin.5652 = f32[1000,1000]{1,0} sine(sin.5651)
  sin.5653 = f32[1000,1000]{1,0} sine(sin.5652)
  sin.5654 = f32[1000,1000]{1,0} sine(sin.5653)
  sin.5655 = f32[1000,1000]{1,0} sine(sin.5654)
  sin.5656 = f32[1000,1000]{1,0} sine(sin.5655)
  sin.5657 = f32[1000,1000]{1,0} sine(sin.5656)
  sin.5658 = f32[1000,1000]{1,0} sine(sin.5657)
  sin.5659 = f32[1000,1000]{1,0} sine(sin.5658)
  sin.5660 = f32[1000,1000]{1,0} sine(sin.5659)
  sin.5661 = f32[1000,1000]{1,0} sine(sin.5660)
  sin.5662 = f32[1000,1000]{1,0} sine(sin.5661)
  sin.5663 = f32[1000,1000]{1,0} sine(sin.5662)
  sin.5664 = f32[1000,1000]{1,0} sine(sin.5663)
  sin.5665 = f32[1000,1000]{1,0} sine(sin.5664)
  sin.5666 = f32[1000,1000]{1,0} sine(sin.5665)
  sin.5667 = f32[1000,1000]{1,0} sine(sin.5666)
  sin.5668 = f32[1000,1000]{1,0} sine(sin.5667)
  sin.5669 = f32[1000,1000]{1,0} sine(sin.5668)
  sin.5670 = f32[1000,1000]{1,0} sine(sin.5669)
  sin.5671 = f32[1000,1000]{1,0} sine(sin.5670)
  sin.5672 = f32[1000,1000]{1,0} sine(sin.5671)
  sin.5673 = f32[1000,1000]{1,0} sine(sin.5672)
  sin.5674 = f32[1000,1000]{1,0} sine(sin.5673)
  sin.5675 = f32[1000,1000]{1,0} sine(sin.5674)
  sin.5676 = f32[1000,1000]{1,0} sine(sin.5675)
  sin.5677 = f32[1000,1000]{1,0} sine(sin.5676)
  sin.5678 = f32[1000,1000]{1,0} sine(sin.5677)
  sin.5679 = f32[1000,1000]{1,0} sine(sin.5678)
  cos.5645 = f32[1000,1000]{1,0} cosine(Arg_0.1)
  cos.5646 = f32[1000,1000]{1,0} cosine(cos.5645)
  cos.5647 = f32[1000,1000]{1,0} cosine(cos.5646)
  cos.5648 = f32[1000,1000]{1,0} cosine(cos.5647)
  cos.5649 = f32[1000,1000]{1,0} cosine(cos.5648)
  cos.5650 = f32[1000,1000]{1,0} cosine(cos.5649)
  cos.5651 = f32[1000,1000]{1,0} cosine(cos.5650)
  cos.5652 = f32[1000,1000]{1,0} cosine(cos.5651)
  cos.5653 = f32[1000,1000]{1,0} cosine(cos.5652)
  cos.5654 = f32[1000,1000]{1,0} cosine(cos.5653)
  cos.5655 = f32[1000,1000]{1,0} cosine(cos.5654)
  cos.5656 = f32[1000,1000]{1,0} cosine(cos.5655)
  cos.5657 = f32[1000,1000]{1,0} cosine(cos.5656)
  cos.5658 = f32[1000,1000]{1,0} cosine(cos.5657)
  cos.5659 = f32[1000,1000]{1,0} cosine(cos.5658)
  cos.5660 = f32[1000,1000]{1,0} cosine(cos.5659)
  cos.5661 = f32[1000,1000]{1,0} cosine(cos.5660)
  cos.5662 = f32[1000,1000]{1,0} cosine(cos.5661)
  cos.5663 = f32[1000,1000]{1,0} cosine(cos.5662)
  cos.5664 = f32[1000,1000]{1,0} cosine(cos.5663)
  cos.5665 = f32[1000,1000]{1,0} cosine(cos.5664)
  cos.5666 = f32[1000,1000]{1,0} cosine(cos.5665)
  cos.5667 = f32[1000,1000]{1,0} cosine(cos.5666)
  cos.5668 = f32[1000,1000]{1,0} cosine(cos.5667)
  cos.5669 = f32[1000,1000]{1,0} cosine(cos.5668)
  cos.5670 = f32[1000,1000]{1,0} cosine(cos.5669)
  cos.5671 = f32[1000,1000]{1,0} cosine(cos.5670)
  cos.5672 = f32[1000,1000]{1,0} cosine(cos.5671)
  cos.5673 = f32[1000,1000]{1,0} cosine(cos.5672)
  cos.5674 = f32[1000,1000]{1,0} cosine(cos.5673)
  cos.5675 = f32[1000,1000]{1,0} cosine(cos.5674)
  cos.5676 = f32[1000,1000]{1,0} cosine(cos.5675)
  cos.5677 = f32[1000,1000]{1,0} cosine(cos.5676)
  cos.5678 = f32[1000,1000]{1,0} cosine(cos.5677)
  cos.5679 = f32[1000,1000]{1,0} cosine(cos.5678)
  add.266 = f32[1000,1000]{1,0} add(sin.5679, cos.5679)
  add.267 = f32[1000,1000]{1,0} add(add.265, add.266)
  sin.5680 = f32[1000,1000]{1,0} sine(Arg_0.1)
  sin.5681 = f32[1000,1000]{1,0} sine(sin.5680)
  sin.5682 = f32[1000,1000]{1,0} sine(sin.5681)
  sin.5683 = f32[1000,1000]{1,0} sine(sin.5682)
  sin.5684 = f32[1000,1000]{1,0} sine(sin.5683)
  sin.5685 = f32[1000,1000]{1,0} sine(sin.5684)
  sin.5686 = f32[1000,1000]{1,0} sine(sin.5685)
  sin.5687 = f32[1000,1000]{1,0} sine(sin.5686)
  sin.5688 = f32[1000,1000]{1,0} sine(sin.5687)
  sin.5689 = f32[1000,1000]{1,0} sine(sin.5688)
  sin.5690 = f32[1000,1000]{1,0} sine(sin.5689)
  sin.5691 = f32[1000,1000]{1,0} sine(sin.5690)
  sin.5692 = f32[1000,1000]{1,0} sine(sin.5691)
  sin.5693 = f32[1000,1000]{1,0} sine(sin.5692)
  sin.5694 = f32[1000,1000]{1,0} sine(sin.5693)
  sin.5695 = f32[1000,1000]{1,0} sine(sin.5694)
  sin.5696 = f32[1000,1000]{1,0} sine(sin.5695)
  sin.5697 = f32[1000,1000]{1,0} sine(sin.5696)
  sin.5698 = f32[1000,1000]{1,0} sine(sin.5697)
  sin.5699 = f32[1000,1000]{1,0} sine(sin.5698)
  sin.5700 = f32[1000,1000]{1,0} sine(sin.5699)
  sin.5701 = f32[1000,1000]{1,0} sine(sin.5700)
  sin.5702 = f32[1000,1000]{1,0} sine(sin.5701)
  sin.5703 = f32[1000,1000]{1,0} sine(sin.5702)
  sin.5704 = f32[1000,1000]{1,0} sine(sin.5703)
  sin.5705 = f32[1000,1000]{1,0} sine(sin.5704)
  sin.5706 = f32[1000,1000]{1,0} sine(sin.5705)
  sin.5707 = f32[1000,1000]{1,0} sine(sin.5706)
  sin.5708 = f32[1000,1000]{1,0} sine(sin.5707)
  sin.5709 = f32[1000,1000]{1,0} sine(sin.5708)
  sin.5710 = f32[1000,1000]{1,0} sine(sin.5709)
  sin.5711 = f32[1000,1000]{1,0} sine(sin.5710)
  sin.5712 = f32[1000,1000]{1,0} sine(sin.5711)
  sin.5713 = f32[1000,1000]{1,0} sine(sin.5712)
  sin.5714 = f32[1000,1000]{1,0} sine(sin.5713)
  sin.5715 = f32[1000,1000]{1,0} sine(sin.5714)
  cos.5680 = f32[1000,1000]{1,0} cosine(Arg_0.1)
  cos.5681 = f32[1000,1000]{1,0} cosine(cos.5680)
  cos.5682 = f32[1000,1000]{1,0} cosine(cos.5681)
  cos.5683 = f32[1000,1000]{1,0} cosine(cos.5682)
  cos.5684 = f32[1000,1000]{1,0} cosine(cos.5683)
  cos.5685 = f32[1000,1000]{1,0} cosine(cos.5684)
  cos.5686 = f32[1000,1000]{1,0} cosine(cos.5685)
  cos.5687 = f32[1000,1000]{1,0} cosine(cos.5686)
  cos.5688 = f32[1000,1000]{1,0} cosine(cos.5687)
  cos.5689 = f32[1000,1000]{1,0} cosine(cos.5688)
  cos.5690 = f32[1000,1000]{1,0} cosine(cos.5689)
  cos.5691 = f32[1000,1000]{1,0} cosine(cos.5690)
  cos.5692 = f32[1000,1000]{1,0} cosine(cos.5691)
  cos.5693 = f32[1000,1000]{1,0} cosine(cos.5692)
  cos.5694 = f32[1000,1000]{1,0} cosine(cos.5693)
  cos.5695 = f32[1000,1000]{1,0} cosine(cos.5694)
  cos.5696 = f32[1000,1000]{1,0} cosine(cos.5695)
  cos.5697 = f32[1000,1000]{1,0} cosine(cos.5696)
  cos.5698 = f32[1000,1000]{1,0} cosine(cos.5697)
  cos.5699 = f32[1000,1000]{1,0} cosine(cos.5698)
  cos.5700 = f32[1000,1000]{1,0} cosine(cos.5699)
  cos.5701 = f32[1000,1000]{1,0} cosine(cos.5700)
  cos.5702 = f32[1000,1000]{1,0} cosine(cos.5701)
  cos.5703 = f32[1000,1000]{1,0} cosine(cos.5702)
  cos.5704 = f32[1000,1000]{1,0} cosine(cos.5703)
  cos.5705 = f32[1000,1000]{1,0} cosine(cos.5704)
  cos.5706 = f32[1000,1000]{1,0} cosine(cos.5705)
  cos.5707 = f32[1000,1000]{1,0} cosine(cos.5706)
  cos.5708 = f32[1000,1000]{1,0} cosine(cos.5707)
  cos.5709 = f32[1000,1000]{1,0} cosine(cos.5708)
  cos.5710 = f32[1000,1000]{1,0} cosine(cos.5709)
  cos.5711 = f32[1000,1000]{1,0} cosine(cos.5710)
  cos.5712 = f32[1000,1000]{1,0} cosine(cos.5711)
  cos.5713 = f32[1000,1000]{1,0} cosine(cos.5712)
  cos.5714 = f32[1000,1000]{1,0} cosine(cos.5713)
  cos.5715 = f32[1000,1000]{1,0} cosine(cos.5714)
  add.268 = f32[1000,1000]{1,0} add(sin.5715, cos.5715)
  add.269 = f32[1000,1000]{1,0} add(add.267, add.268)
  sin.5716 = f32[1000,1000]{1,0} sine(Arg_0.1)
  sin.5717 = f32[1000,1000]{1,0} sine(sin.5716)
  sin.5718 = f32[1000,1000]{1,0} sine(sin.5717)
  sin.5719 = f32[1000,1000]{1,0} sine(sin.5718)
  sin.5720 = f32[1000,1000]{1,0} sine(sin.5719)
  sin.5721 = f32[1000,1000]{1,0} sine(sin.5720)
  sin.5722 = f32[1000,1000]{1,0} sine(sin.5721)
  sin.5723 = f32[1000,1000]{1,0} sine(sin.5722)
  sin.5724 = f32[1000,1000]{1,0} sine(sin.5723)
  sin.5725 = f32[1000,1000]{1,0} sine(sin.5724)
  sin.5726 = f32[1000,1000]{1,0} sine(sin.5725)
  sin.5727 = f32[1000,1000]{1,0} sine(sin.5726)
  sin.5728 = f32[1000,1000]{1,0} sine(sin.5727)
  sin.5729 = f32[1000,1000]{1,0} sine(sin.5728)
  sin.5730 = f32[1000,1000]{1,0} sine(sin.5729)
  sin.5731 = f32[1000,1000]{1,0} sine(sin.5730)
  sin.5732 = f32[1000,1000]{1,0} sine(sin.5731)
  sin.5733 = f32[1000,1000]{1,0} sine(sin.5732)
  sin.5734 = f32[1000,1000]{1,0} sine(sin.5733)
  sin.5735 = f32[1000,1000]{1,0} sine(sin.5734)
  sin.5736 = f32[1000,1000]{1,0} sine(sin.5735)
  sin.5737 = f32[1000,1000]{1,0} sine(sin.5736)
  sin.5738 = f32[1000,1000]{1,0} sine(sin.5737)
  sin.5739 = f32[1000,1000]{1,0} sine(sin.5738)
  sin.5740 = f32[1000,1000]{1,0} sine(sin.5739)
  sin.5741 = f32[1000,1000]{1,0} sine(sin.5740)
  sin.5742 = f32[1000,1000]{1,0} sine(sin.5741)
  sin.5743 = f32[1000,1000]{1,0} sine(sin.5742)
  sin.5744 = f32[1000,1000]{1,0} sine(sin.5743)
  sin.5745 = f32[1000,1000]{1,0} sine(sin.5744)
  sin.5746 = f32[1000,1000]{1,0} sine(sin.5745)
  sin.5747 = f32[1000,1000]{1,0} sine(sin.5746)
  sin.5748 = f32[1000,1000]{1,0} sine(sin.5747)
  sin.5749 = f32[1000,1000]{1,0} sine(sin.5748)
  sin.5750 = f32[1000,1000]{1,0} sine(sin.5749)
  sin.5751 = f32[1000,1000]{1,0} sine(sin.5750)
  sin.5752 = f32[1000,1000]{1,0} sine(sin.5751)
  cos.5716 = f32[1000,1000]{1,0} cosine(Arg_0.1)
  cos.5717 = f32[1000,1000]{1,0} cosine(cos.5716)
  cos.5718 = f32[1000,1000]{1,0} cosine(cos.5717)
  cos.5719 = f32[1000,1000]{1,0} cosine(cos.5718)
  cos.5720 = f32[1000,1000]{1,0} cosine(cos.5719)
  cos.5721 = f32[1000,1000]{1,0} cosine(cos.5720)
  cos.5722 = f32[1000,1000]{1,0} cosine(cos.5721)
  cos.5723 = f32[1000,1000]{1,0} cosine(cos.5722)
  cos.5724 = f32[1000,1000]{1,0} cosine(cos.5723)
  cos.5725 = f32[1000,1000]{1,0} cosine(cos.5724)
  cos.5726 = f32[1000,1000]{1,0} cosine(cos.5725)
  cos.5727 = f32[1000,1000]{1,0} cosine(cos.5726)
  cos.5728 = f32[1000,1000]{1,0} cosine(cos.5727)
  cos.5729 = f32[1000,1000]{1,0} cosine(cos.5728)
  cos.5730 = f32[1000,1000]{1,0} cosine(cos.5729)
  cos.5731 = f32[1000,1000]{1,0} cosine(cos.5730)
  cos.5732 = f32[1000,1000]{1,0} cosine(cos.5731)
  cos.5733 = f32[1000,1000]{1,0} cosine(cos.5732)
  cos.5734 = f32[1000,1000]{1,0} cosine(cos.5733)
  cos.5735 = f32[1000,1000]{1,0} cosine(cos.5734)
  cos.5736 = f32[1000,1000]{1,0} cosine(cos.5735)
  cos.5737 = f32[1000,1000]{1,0} cosine(cos.5736)
  cos.5738 = f32[1000,1000]{1,0} cosine(cos.5737)
  cos.5739 = f32[1000,1000]{1,0} cosine(cos.5738)
  cos.5740 = f32[1000,1000]{1,0} cosine(cos.5739)
  cos.5741 = f32[1000,1000]{1,0} cosine(cos.5740)
  cos.5742 = f32[1000,1000]{1,0} cosine(cos.5741)
  cos.5743 = f32[1000,1000]{1,0} cosine(cos.5742)
  cos.5744 = f32[1000,1000]{1,0} cosine(cos.5743)
  cos.5745 = f32[1000,1000]{1,0} cosine(cos.5744)
  cos.5746 = f32[1000,1000]{1,0} cosine(cos.5745)
  cos.5747 = f32[1000,1000]{1,0} cosine(cos.5746)
  cos.5748 = f32[1000,1000]{1,0} cosine(cos.5747)
  cos.5749 = f32[1000,1000]{1,0} cosine(cos.5748)
  cos.5750 = f32[1000,1000]{1,0} cosine(cos.5749)
  cos.5751 = f32[1000,1000]{1,0} cosine(cos.5750)
  cos.5752 = f32[1000,1000]{1,0} cosine(cos.5751)
  add.270 = f32[1000,1000]{1,0} add(sin.5752, cos.5752)
  add.271 = f32[1000,1000]{1,0} add(add.269, add.270)
  sin.5753 = f32[1000,1000]{1,0} sine(Arg_0.1)
  sin.5754 = f32[1000,1000]{1,0} sine(sin.5753)
  sin.5755 = f32[1000,1000]{1,0} sine(sin.5754)
  sin.5756 = f32[1000,1000]{1,0} sine(sin.5755)
  sin.5757 = f32[1000,1000]{1,0} sine(sin.5756)
  sin.5758 = f32[1000,1000]{1,0} sine(sin.5757)
  sin.5759 = f32[1000,1000]{1,0} sine(sin.5758)
  sin.5760 = f32[1000,1000]{1,0} sine(sin.5759)
  sin.5761 = f32[1000,1000]{1,0} sine(sin.5760)
  sin.5762 = f32[1000,1000]{1,0} sine(sin.5761)
  sin.5763 = f32[1000,1000]{1,0} sine(sin.5762)
  sin.5764 = f32[1000,1000]{1,0} sine(sin.5763)
  sin.5765 = f32[1000,1000]{1,0} sine(sin.5764)
  sin.5766 = f32[1000,1000]{1,0} sine(sin.5765)
  sin.5767 = f32[1000,1000]{1,0} sine(sin.5766)
  sin.5768 = f32[1000,1000]{1,0} sine(sin.5767)
  sin.5769 = f32[1000,1000]{1,0} sine(sin.5768)
  sin.5770 = f32[1000,1000]{1,0} sine(sin.5769)
  sin.5771 = f32[1000,1000]{1,0} sine(sin.5770)
  sin.5772 = f32[1000,1000]{1,0} sine(sin.5771)
  sin.5773 = f32[1000,1000]{1,0} sine(sin.5772)
  sin.5774 = f32[1000,1000]{1,0} sine(sin.5773)
  sin.5775 = f32[1000,1000]{1,0} sine(sin.5774)
  sin.5776 = f32[1000,1000]{1,0} sine(sin.5775)
  sin.5777 = f32[1000,1000]{1,0} sine(sin.5776)
  sin.5778 = f32[1000,1000]{1,0} sine(sin.5777)
  sin.5779 = f32[1000,1000]{1,0} sine(sin.5778)
  sin.5780 = f32[1000,1000]{1,0} sine(sin.5779)
  sin.5781 = f32[1000,1000]{1,0} sine(sin.5780)
  sin.5782 = f32[1000,1000]{1,0} sine(sin.5781)
  sin.5783 = f32[1000,1000]{1,0} sine(sin.5782)
  sin.5784 = f32[1000,1000]{1,0} sine(sin.5783)
  sin.5785 = f32[1000,1000]{1,0} sine(sin.5784)
  sin.5786 = f32[1000,1000]{1,0} sine(sin.5785)
  sin.5787 = f32[1000,1000]{1,0} sine(sin.5786)
  sin.5788 = f32[1000,1000]{1,0} sine(sin.5787)
  sin.5789 = f32[1000,1000]{1,0} sine(sin.5788)
  sin.5790 = f32[1000,1000]{1,0} sine(sin.5789)
  cos.5753 = f32[1000,1000]{1,0} cosine(Arg_0.1)
  cos.5754 = f32[1000,1000]{1,0} cosine(cos.5753)
  cos.5755 = f32[1000,1000]{1,0} cosine(cos.5754)
  cos.5756 = f32[1000,1000]{1,0} cosine(cos.5755)
  cos.5757 = f32[1000,1000]{1,0} cosine(cos.5756)
  cos.5758 = f32[1000,1000]{1,0} cosine(cos.5757)
  cos.5759 = f32[1000,1000]{1,0} cosine(cos.5758)
  cos.5760 = f32[1000,1000]{1,0} cosine(cos.5759)
  cos.5761 = f32[1000,1000]{1,0} cosine(cos.5760)
  cos.5762 = f32[1000,1000]{1,0} cosine(cos.5761)
  cos.5763 = f32[1000,1000]{1,0} cosine(cos.5762)
  cos.5764 = f32[1000,1000]{1,0} cosine(cos.5763)
  cos.5765 = f32[1000,1000]{1,0} cosine(cos.5764)
  cos.5766 = f32[1000,1000]{1,0} cosine(cos.5765)
  cos.5767 = f32[1000,1000]{1,0} cosine(cos.5766)
  cos.5768 = f32[1000,1000]{1,0} cosine(cos.5767)
  cos.5769 = f32[1000,1000]{1,0} cosine(cos.5768)
  cos.5770 = f32[1000,1000]{1,0} cosine(cos.5769)
  cos.5771 = f32[1000,1000]{1,0} cosine(cos.5770)
  cos.5772 = f32[1000,1000]{1,0} cosine(cos.5771)
  cos.5773 = f32[1000,1000]{1,0} cosine(cos.5772)
  cos.5774 = f32[1000,1000]{1,0} cosine(cos.5773)
  cos.5775 = f32[1000,1000]{1,0} cosine(cos.5774)
  cos.5776 = f32[1000,1000]{1,0} cosine(cos.5775)
  cos.5777 = f32[1000,1000]{1,0} cosine(cos.5776)
  cos.5778 = f32[1000,1000]{1,0} cosine(cos.5777)
  cos.5779 = f32[1000,1000]{1,0} cosine(cos.5778)
  cos.5780 = f32[1000,1000]{1,0} cosine(cos.5779)
  cos.5781 = f32[1000,1000]{1,0} cosine(cos.5780)
  cos.5782 = f32[1000,1000]{1,0} cosine(cos.5781)
  cos.5783 = f32[1000,1000]{1,0} cosine(cos.5782)
  cos.5784 = f32[1000,1000]{1,0} cosine(cos.5783)
  cos.5785 = f32[1000,1000]{1,0} cosine(cos.5784)
  cos.5786 = f32[1000,1000]{1,0} cosine(cos.5785)
  cos.5787 = f32[1000,1000]{1,0} cosine(cos.5786)
  cos.5788 = f32[1000,1000]{1,0} cosine(cos.5787)
  cos.5789 = f32[1000,1000]{1,0} cosine(cos.5788)
  cos.5790 = f32[1000,1000]{1,0} cosine(cos.5789)
  add.272 = f32[1000,1000]{1,0} add(sin.5790, cos.5790)
  add.273 = f32[1000,1000]{1,0} add(add.271, add.272)
  sin.5791 = f32[1000,1000]{1,0} sine(Arg_0.1)
  sin.5792 = f32[1000,1000]{1,0} sine(sin.5791)
  sin.5793 = f32[1000,1000]{1,0} sine(sin.5792)
  sin.5794 = f32[1000,1000]{1,0} sine(sin.5793)
  sin.5795 = f32[1000,1000]{1,0} sine(sin.5794)
  sin.5796 = f32[1000,1000]{1,0} sine(sin.5795)
  sin.5797 = f32[1000,1000]{1,0} sine(sin.5796)
  sin.5798 = f32[1000,1000]{1,0} sine(sin.5797)
  sin.5799 = f32[1000,1000]{1,0} sine(sin.5798)
  sin.5800 = f32[1000,1000]{1,0} sine(sin.5799)
  sin.5801 = f32[1000,1000]{1,0} sine(sin.5800)
  sin.5802 = f32[1000,1000]{1,0} sine(sin.5801)
  sin.5803 = f32[1000,1000]{1,0} sine(sin.5802)
  sin.5804 = f32[1000,1000]{1,0} sine(sin.5803)
  sin.5805 = f32[1000,1000]{1,0} sine(sin.5804)
  sin.5806 = f32[1000,1000]{1,0} sine(sin.5805)
  sin.5807 = f32[1000,1000]{1,0} sine(sin.5806)
  sin.5808 = f32[1000,1000]{1,0} sine(sin.5807)
  sin.5809 = f32[1000,1000]{1,0} sine(sin.5808)
  sin.5810 = f32[1000,1000]{1,0} sine(sin.5809)
  sin.5811 = f32[1000,1000]{1,0} sine(sin.5810)
  sin.5812 = f32[1000,1000]{1,0} sine(sin.5811)
  sin.5813 = f32[1000,1000]{1,0} sine(sin.5812)
  sin.5814 = f32[1000,1000]{1,0} sine(sin.5813)
  sin.5815 = f32[1000,1000]{1,0} sine(sin.5814)
  sin.5816 = f32[1000,1000]{1,0} sine(sin.5815)
  sin.5817 = f32[1000,1000]{1,0} sine(sin.5816)
  sin.5818 = f32[1000,1000]{1,0} sine(sin.5817)
  sin.5819 = f32[1000,1000]{1,0} sine(sin.5818)
  sin.5820 = f32[1000,1000]{1,0} sine(sin.5819)
  sin.5821 = f32[1000,1000]{1,0} sine(sin.5820)
  sin.5822 = f32[1000,1000]{1,0} sine(sin.5821)
  sin.5823 = f32[1000,1000]{1,0} sine(sin.5822)
  sin.5824 = f32[1000,1000]{1,0} sine(sin.5823)
  sin.5825 = f32[1000,1000]{1,0} sine(sin.5824)
  sin.5826 = f32[1000,1000]{1,0} sine(sin.5825)
  sin.5827 = f32[1000,1000]{1,0} sine(sin.5826)
  sin.5828 = f32[1000,1000]{1,0} sine(sin.5827)
  sin.5829 = f32[1000,1000]{1,0} sine(sin.5828)
  cos.5791 = f32[1000,1000]{1,0} cosine(Arg_0.1)
  cos.5792 = f32[1000,1000]{1,0} cosine(cos.5791)
  cos.5793 = f32[1000,1000]{1,0} cosine(cos.5792)
  cos.5794 = f32[1000,1000]{1,0} cosine(cos.5793)
  cos.5795 = f32[1000,1000]{1,0} cosine(cos.5794)
  cos.5796 = f32[1000,1000]{1,0} cosine(cos.5795)
  cos.5797 = f32[1000,1000]{1,0} cosine(cos.5796)
  cos.5798 = f32[1000,1000]{1,0} cosine(cos.5797)
  cos.5799 = f32[1000,1000]{1,0} cosine(cos.5798)
  cos.5800 = f32[1000,1000]{1,0} cosine(cos.5799)
  cos.5801 = f32[1000,1000]{1,0} cosine(cos.5800)
  cos.5802 = f32[1000,1000]{1,0} cosine(cos.5801)
  cos.5803 = f32[1000,1000]{1,0} cosine(cos.5802)
  cos.5804 = f32[1000,1000]{1,0} cosine(cos.5803)
  cos.5805 = f32[1000,1000]{1,0} cosine(cos.5804)
  cos.5806 = f32[1000,1000]{1,0} cosine(cos.5805)
  cos.5807 = f32[1000,1000]{1,0} cosine(cos.5806)
  cos.5808 = f32[1000,1000]{1,0} cosine(cos.5807)
  cos.5809 = f32[1000,1000]{1,0} cosine(cos.5808)
  cos.5810 = f32[1000,1000]{1,0} cosine(cos.5809)
  cos.5811 = f32[1000,1000]{1,0} cosine(cos.5810)
  cos.5812 = f32[1000,1000]{1,0} cosine(cos.5811)
  cos.5813 = f32[1000,1000]{1,0} cosine(cos.5812)
  cos.5814 = f32[1000,1000]{1,0} cosine(cos.5813)
  cos.5815 = f32[1000,1000]{1,0} cosine(cos.5814)
  cos.5816 = f32[1000,1000]{1,0} cosine(cos.5815)
  cos.5817 = f32[1000,1000]{1,0} cosine(cos.5816)
  cos.5818 = f32[1000,1000]{1,0} cosine(cos.5817)
  cos.5819 = f32[1000,1000]{1,0} cosine(cos.5818)
  cos.5820 = f32[1000,1000]{1,0} cosine(cos.5819)
  cos.5821 = f32[1000,1000]{1,0} cosine(cos.5820)
  cos.5822 = f32[1000,1000]{1,0} cosine(cos.5821)
  cos.5823 = f32[1000,1000]{1,0} cosine(cos.5822)
  cos.5824 = f32[1000,1000]{1,0} cosine(cos.5823)
  cos.5825 = f32[1000,1000]{1,0} cosine(cos.5824)
  cos.5826 = f32[1000,1000]{1,0} cosine(cos.5825)
  cos.5827 = f32[1000,1000]{1,0} cosine(cos.5826)
  cos.5828 = f32[1000,1000]{1,0} cosine(cos.5827)
  cos.5829 = f32[1000,1000]{1,0} cosine(cos.5828)
  add.274 = f32[1000,1000]{1,0} add(sin.5829, cos.5829)
  add.275 = f32[1000,1000]{1,0} add(add.273, add.274)
  sin.5830 = f32[1000,1000]{1,0} sine(Arg_0.1)
  sin.5831 = f32[1000,1000]{1,0} sine(sin.5830)
  sin.5832 = f32[1000,1000]{1,0} sine(sin.5831)
  sin.5833 = f32[1000,1000]{1,0} sine(sin.5832)
  sin.5834 = f32[1000,1000]{1,0} sine(sin.5833)
  sin.5835 = f32[1000,1000]{1,0} sine(sin.5834)
  sin.5836 = f32[1000,1000]{1,0} sine(sin.5835)
  sin.5837 = f32[1000,1000]{1,0} sine(sin.5836)
  sin.5838 = f32[1000,1000]{1,0} sine(sin.5837)
  sin.5839 = f32[1000,1000]{1,0} sine(sin.5838)
  sin.5840 = f32[1000,1000]{1,0} sine(sin.5839)
  sin.5841 = f32[1000,1000]{1,0} sine(sin.5840)
  sin.5842 = f32[1000,1000]{1,0} sine(sin.5841)
  sin.5843 = f32[1000,1000]{1,0} sine(sin.5842)
  sin.5844 = f32[1000,1000]{1,0} sine(sin.5843)
  sin.5845 = f32[1000,1000]{1,0} sine(sin.5844)
  sin.5846 = f32[1000,1000]{1,0} sine(sin.5845)
  sin.5847 = f32[1000,1000]{1,0} sine(sin.5846)
  sin.5848 = f32[1000,1000]{1,0} sine(sin.5847)
  sin.5849 = f32[1000,1000]{1,0} sine(sin.5848)
  sin.5850 = f32[1000,1000]{1,0} sine(sin.5849)
  sin.5851 = f32[1000,1000]{1,0} sine(sin.5850)
  sin.5852 = f32[1000,1000]{1,0} sine(sin.5851)
  sin.5853 = f32[1000,1000]{1,0} sine(sin.5852)
  sin.5854 = f32[1000,1000]{1,0} sine(sin.5853)
  sin.5855 = f32[1000,1000]{1,0} sine(sin.5854)
  sin.5856 = f32[1000,1000]{1,0} sine(sin.5855)
  sin.5857 = f32[1000,1000]{1,0} sine(sin.5856)
  sin.5858 = f32[1000,1000]{1,0} sine(sin.5857)
  sin.5859 = f32[1000,1000]{1,0} sine(sin.5858)
  sin.5860 = f32[1000,1000]{1,0} sine(sin.5859)
  sin.5861 = f32[1000,1000]{1,0} sine(sin.5860)
  sin.5862 = f32[1000,1000]{1,0} sine(sin.5861)
  sin.5863 = f32[1000,1000]{1,0} sine(sin.5862)
  sin.5864 = f32[1000,1000]{1,0} sine(sin.5863)
  sin.5865 = f32[1000,1000]{1,0} sine(sin.5864)
  sin.5866 = f32[1000,1000]{1,0} sine(sin.5865)
  sin.5867 = f32[1000,1000]{1,0} sine(sin.5866)
  sin.5868 = f32[1000,1000]{1,0} sine(sin.5867)
  sin.5869 = f32[1000,1000]{1,0} sine(sin.5868)
  cos.5830 = f32[1000,1000]{1,0} cosine(Arg_0.1)
  cos.5831 = f32[1000,1000]{1,0} cosine(cos.5830)
  cos.5832 = f32[1000,1000]{1,0} cosine(cos.5831)
  cos.5833 = f32[1000,1000]{1,0} cosine(cos.5832)
  cos.5834 = f32[1000,1000]{1,0} cosine(cos.5833)
  cos.5835 = f32[1000,1000]{1,0} cosine(cos.5834)
  cos.5836 = f32[1000,1000]{1,0} cosine(cos.5835)
  cos.5837 = f32[1000,1000]{1,0} cosine(cos.5836)
  cos.5838 = f32[1000,1000]{1,0} cosine(cos.5837)
  cos.5839 = f32[1000,1000]{1,0} cosine(cos.5838)
  cos.5840 = f32[1000,1000]{1,0} cosine(cos.5839)
  cos.5841 = f32[1000,1000]{1,0} cosine(cos.5840)
  cos.5842 = f32[1000,1000]{1,0} cosine(cos.5841)
  cos.5843 = f32[1000,1000]{1,0} cosine(cos.5842)
  cos.5844 = f32[1000,1000]{1,0} cosine(cos.5843)
  cos.5845 = f32[1000,1000]{1,0} cosine(cos.5844)
  cos.5846 = f32[1000,1000]{1,0} cosine(cos.5845)
  cos.5847 = f32[1000,1000]{1,0} cosine(cos.5846)
  cos.5848 = f32[1000,1000]{1,0} cosine(cos.5847)
  cos.5849 = f32[1000,1000]{1,0} cosine(cos.5848)
  cos.5850 = f32[1000,1000]{1,0} cosine(cos.5849)
  cos.5851 = f32[1000,1000]{1,0} cosine(cos.5850)
  cos.5852 = f32[1000,1000]{1,0} cosine(cos.5851)
  cos.5853 = f32[1000,1000]{1,0} cosine(cos.5852)
  cos.5854 = f32[1000,1000]{1,0} cosine(cos.5853)
  cos.5855 = f32[1000,1000]{1,0} cosine(cos.5854)
  cos.5856 = f32[1000,1000]{1,0} cosine(cos.5855)
  cos.5857 = f32[1000,1000]{1,0} cosine(cos.5856)
  cos.5858 = f32[1000,1000]{1,0} cosine(cos.5857)
  cos.5859 = f32[1000,1000]{1,0} cosine(cos.5858)
  cos.5860 = f32[1000,1000]{1,0} cosine(cos.5859)
  cos.5861 = f32[1000,1000]{1,0} cosine(cos.5860)
  cos.5862 = f32[1000,1000]{1,0} cosine(cos.5861)
  cos.5863 = f32[1000,1000]{1,0} cosine(cos.5862)
  cos.5864 = f32[1000,1000]{1,0} cosine(cos.5863)
  cos.5865 = f32[1000,1000]{1,0} cosine(cos.5864)
  cos.5866 = f32[1000,1000]{1,0} cosine(cos.5865)
  cos.5867 = f32[1000,1000]{1,0} cosine(cos.5866)
  cos.5868 = f32[1000,1000]{1,0} cosine(cos.5867)
  cos.5869 = f32[1000,1000]{1,0} cosine(cos.5868)
  add.276 = f32[1000,1000]{1,0} add(sin.5869, cos.5869)
  add.277 = f32[1000,1000]{1,0} add(add.275, add.276)
  sin.5870 = f32[1000,1000]{1,0} sine(Arg_0.1)
  sin.5871 = f32[1000,1000]{1,0} sine(sin.5870)
  sin.5872 = f32[1000,1000]{1,0} sine(sin.5871)
  sin.5873 = f32[1000,1000]{1,0} sine(sin.5872)
  sin.5874 = f32[1000,1000]{1,0} sine(sin.5873)
  sin.5875 = f32[1000,1000]{1,0} sine(sin.5874)
  sin.5876 = f32[1000,1000]{1,0} sine(sin.5875)
  sin.5877 = f32[1000,1000]{1,0} sine(sin.5876)
  sin.5878 = f32[1000,1000]{1,0} sine(sin.5877)
  sin.5879 = f32[1000,1000]{1,0} sine(sin.5878)
  sin.5880 = f32[1000,1000]{1,0} sine(sin.5879)
  sin.5881 = f32[1000,1000]{1,0} sine(sin.5880)
  sin.5882 = f32[1000,1000]{1,0} sine(sin.5881)
  sin.5883 = f32[1000,1000]{1,0} sine(sin.5882)
  sin.5884 = f32[1000,1000]{1,0} sine(sin.5883)
  sin.5885 = f32[1000,1000]{1,0} sine(sin.5884)
  sin.5886 = f32[1000,1000]{1,0} sine(sin.5885)
  sin.5887 = f32[1000,1000]{1,0} sine(sin.5886)
  sin.5888 = f32[1000,1000]{1,0} sine(sin.5887)
  sin.5889 = f32[1000,1000]{1,0} sine(sin.5888)
  sin.5890 = f32[1000,1000]{1,0} sine(sin.5889)
  sin.5891 = f32[1000,1000]{1,0} sine(sin.5890)
  sin.5892 = f32[1000,1000]{1,0} sine(sin.5891)
  sin.5893 = f32[1000,1000]{1,0} sine(sin.5892)
  sin.5894 = f32[1000,1000]{1,0} sine(sin.5893)
  sin.5895 = f32[1000,1000]{1,0} sine(sin.5894)
  sin.5896 = f32[1000,1000]{1,0} sine(sin.5895)
  sin.5897 = f32[1000,1000]{1,0} sine(sin.5896)
  sin.5898 = f32[1000,1000]{1,0} sine(sin.5897)
  sin.5899 = f32[1000,1000]{1,0} sine(sin.5898)
  sin.5900 = f32[1000,1000]{1,0} sine(sin.5899)
  sin.5901 = f32[1000,1000]{1,0} sine(sin.5900)
  sin.5902 = f32[1000,1000]{1,0} sine(sin.5901)
  sin.5903 = f32[1000,1000]{1,0} sine(sin.5902)
  sin.5904 = f32[1000,1000]{1,0} sine(sin.5903)
  sin.5905 = f32[1000,1000]{1,0} sine(sin.5904)
  sin.5906 = f32[1000,1000]{1,0} sine(sin.5905)
  sin.5907 = f32[1000,1000]{1,0} sine(sin.5906)
  sin.5908 = f32[1000,1000]{1,0} sine(sin.5907)
  sin.5909 = f32[1000,1000]{1,0} sine(sin.5908)
  sin.5910 = f32[1000,1000]{1,0} sine(sin.5909)
  cos.5870 = f32[1000,1000]{1,0} cosine(Arg_0.1)
  cos.5871 = f32[1000,1000]{1,0} cosine(cos.5870)
  cos.5872 = f32[1000,1000]{1,0} cosine(cos.5871)
  cos.5873 = f32[1000,1000]{1,0} cosine(cos.5872)
  cos.5874 = f32[1000,1000]{1,0} cosine(cos.5873)
  cos.5875 = f32[1000,1000]{1,0} cosine(cos.5874)
  cos.5876 = f32[1000,1000]{1,0} cosine(cos.5875)
  cos.5877 = f32[1000,1000]{1,0} cosine(cos.5876)
  cos.5878 = f32[1000,1000]{1,0} cosine(cos.5877)
  cos.5879 = f32[1000,1000]{1,0} cosine(cos.5878)
  cos.5880 = f32[1000,1000]{1,0} cosine(cos.5879)
  cos.5881 = f32[1000,1000]{1,0} cosine(cos.5880)
  cos.5882 = f32[1000,1000]{1,0} cosine(cos.5881)
  cos.5883 = f32[1000,1000]{1,0} cosine(cos.5882)
  cos.5884 = f32[1000,1000]{1,0} cosine(cos.5883)
  cos.5885 = f32[1000,1000]{1,0} cosine(cos.5884)
  cos.5886 = f32[1000,1000]{1,0} cosine(cos.5885)
  cos.5887 = f32[1000,1000]{1,0} cosine(cos.5886)
  cos.5888 = f32[1000,1000]{1,0} cosine(cos.5887)
  cos.5889 = f32[1000,1000]{1,0} cosine(cos.5888)
  cos.5890 = f32[1000,1000]{1,0} cosine(cos.5889)
  cos.5891 = f32[1000,1000]{1,0} cosine(cos.5890)
  cos.5892 = f32[1000,1000]{1,0} cosine(cos.5891)
  cos.5893 = f32[1000,1000]{1,0} cosine(cos.5892)
  cos.5894 = f32[1000,1000]{1,0} cosine(cos.5893)
  cos.5895 = f32[1000,1000]{1,0} cosine(cos.5894)
  cos.5896 = f32[1000,1000]{1,0} cosine(cos.5895)
  cos.5897 = f32[1000,1000]{1,0} cosine(cos.5896)
  cos.5898 = f32[1000,1000]{1,0} cosine(cos.5897)
  cos.5899 = f32[1000,1000]{1,0} cosine(cos.5898)
  cos.5900 = f32[1000,1000]{1,0} cosine(cos.5899)
  cos.5901 = f32[1000,1000]{1,0} cosine(cos.5900)
  cos.5902 = f32[1000,1000]{1,0} cosine(cos.5901)
  cos.5903 = f32[1000,1000]{1,0} cosine(cos.5902)
  cos.5904 = f32[1000,1000]{1,0} cosine(cos.5903)
  cos.5905 = f32[1000,1000]{1,0} cosine(cos.5904)
  cos.5906 = f32[1000,1000]{1,0} cosine(cos.5905)
  cos.5907 = f32[1000,1000]{1,0} cosine(cos.5906)
  cos.5908 = f32[1000,1000]{1,0} cosine(cos.5907)
  cos.5909 = f32[1000,1000]{1,0} cosine(cos.5908)
  cos.5910 = f32[1000,1000]{1,0} cosine(cos.5909)
  add.278 = f32[1000,1000]{1,0} add(sin.5910, cos.5910)
  add.279 = f32[1000,1000]{1,0} add(add.277, add.278)
  sin.5911 = f32[1000,1000]{1,0} sine(Arg_0.1)
  sin.5912 = f32[1000,1000]{1,0} sine(sin.5911)
  sin.5913 = f32[1000,1000]{1,0} sine(sin.5912)
  sin.5914 = f32[1000,1000]{1,0} sine(sin.5913)
  sin.5915 = f32[1000,1000]{1,0} sine(sin.5914)
  sin.5916 = f32[1000,1000]{1,0} sine(sin.5915)
  sin.5917 = f32[1000,1000]{1,0} sine(sin.5916)
  sin.5918 = f32[1000,1000]{1,0} sine(sin.5917)
  sin.5919 = f32[1000,1000]{1,0} sine(sin.5918)
  sin.5920 = f32[1000,1000]{1,0} sine(sin.5919)
  sin.5921 = f32[1000,1000]{1,0} sine(sin.5920)
  sin.5922 = f32[1000,1000]{1,0} sine(sin.5921)
  sin.5923 = f32[1000,1000]{1,0} sine(sin.5922)
  sin.5924 = f32[1000,1000]{1,0} sine(sin.5923)
  sin.5925 = f32[1000,1000]{1,0} sine(sin.5924)
  sin.5926 = f32[1000,1000]{1,0} sine(sin.5925)
  sin.5927 = f32[1000,1000]{1,0} sine(sin.5926)
  sin.5928 = f32[1000,1000]{1,0} sine(sin.5927)
  sin.5929 = f32[1000,1000]{1,0} sine(sin.5928)
  sin.5930 = f32[1000,1000]{1,0} sine(sin.5929)
  sin.5931 = f32[1000,1000]{1,0} sine(sin.5930)
  sin.5932 = f32[1000,1000]{1,0} sine(sin.5931)
  sin.5933 = f32[1000,1000]{1,0} sine(sin.5932)
  sin.5934 = f32[1000,1000]{1,0} sine(sin.5933)
  sin.5935 = f32[1000,1000]{1,0} sine(sin.5934)
  sin.5936 = f32[1000,1000]{1,0} sine(sin.5935)
  sin.5937 = f32[1000,1000]{1,0} sine(sin.5936)
  sin.5938 = f32[1000,1000]{1,0} sine(sin.5937)
  sin.5939 = f32[1000,1000]{1,0} sine(sin.5938)
  sin.5940 = f32[1000,1000]{1,0} sine(sin.5939)
  sin.5941 = f32[1000,1000]{1,0} sine(sin.5940)
  sin.5942 = f32[1000,1000]{1,0} sine(sin.5941)
  sin.5943 = f32[1000,1000]{1,0} sine(sin.5942)
  sin.5944 = f32[1000,1000]{1,0} sine(sin.5943)
  sin.5945 = f32[1000,1000]{1,0} sine(sin.5944)
  sin.5946 = f32[1000,1000]{1,0} sine(sin.5945)
  sin.5947 = f32[1000,1000]{1,0} sine(sin.5946)
  sin.5948 = f32[1000,1000]{1,0} sine(sin.5947)
  sin.5949 = f32[1000,1000]{1,0} sine(sin.5948)
  sin.5950 = f32[1000,1000]{1,0} sine(sin.5949)
  sin.5951 = f32[1000,1000]{1,0} sine(sin.5950)
  sin.5952 = f32[1000,1000]{1,0} sine(sin.5951)
  cos.5911 = f32[1000,1000]{1,0} cosine(Arg_0.1)
  cos.5912 = f32[1000,1000]{1,0} cosine(cos.5911)
  cos.5913 = f32[1000,1000]{1,0} cosine(cos.5912)
  cos.5914 = f32[1000,1000]{1,0} cosine(cos.5913)
  cos.5915 = f32[1000,1000]{1,0} cosine(cos.5914)
  cos.5916 = f32[1000,1000]{1,0} cosine(cos.5915)
  cos.5917 = f32[1000,1000]{1,0} cosine(cos.5916)
  cos.5918 = f32[1000,1000]{1,0} cosine(cos.5917)
  cos.5919 = f32[1000,1000]{1,0} cosine(cos.5918)
  cos.5920 = f32[1000,1000]{1,0} cosine(cos.5919)
  cos.5921 = f32[1000,1000]{1,0} cosine(cos.5920)
  cos.5922 = f32[1000,1000]{1,0} cosine(cos.5921)
  cos.5923 = f32[1000,1000]{1,0} cosine(cos.5922)
  cos.5924 = f32[1000,1000]{1,0} cosine(cos.5923)
  cos.5925 = f32[1000,1000]{1,0} cosine(cos.5924)
  cos.5926 = f32[1000,1000]{1,0} cosine(cos.5925)
  cos.5927 = f32[1000,1000]{1,0} cosine(cos.5926)
  cos.5928 = f32[1000,1000]{1,0} cosine(cos.5927)
  cos.5929 = f32[1000,1000]{1,0} cosine(cos.5928)
  cos.5930 = f32[1000,1000]{1,0} cosine(cos.5929)
  cos.5931 = f32[1000,1000]{1,0} cosine(cos.5930)
  cos.5932 = f32[1000,1000]{1,0} cosine(cos.5931)
  cos.5933 = f32[1000,1000]{1,0} cosine(cos.5932)
  cos.5934 = f32[1000,1000]{1,0} cosine(cos.5933)
  cos.5935 = f32[1000,1000]{1,0} cosine(cos.5934)
  cos.5936 = f32[1000,1000]{1,0} cosine(cos.5935)
  cos.5937 = f32[1000,1000]{1,0} cosine(cos.5936)
  cos.5938 = f32[1000,1000]{1,0} cosine(cos.5937)
  cos.5939 = f32[1000,1000]{1,0} cosine(cos.5938)
  cos.5940 = f32[1000,1000]{1,0} cosine(cos.5939)
  cos.5941 = f32[1000,1000]{1,0} cosine(cos.5940)
  cos.5942 = f32[1000,1000]{1,0} cosine(cos.5941)
  cos.5943 = f32[1000,1000]{1,0} cosine(cos.5942)
  cos.5944 = f32[1000,1000]{1,0} cosine(cos.5943)
  cos.5945 = f32[1000,1000]{1,0} cosine(cos.5944)
  cos.5946 = f32[1000,1000]{1,0} cosine(cos.5945)
  cos.5947 = f32[1000,1000]{1,0} cosine(cos.5946)
  cos.5948 = f32[1000,1000]{1,0} cosine(cos.5947)
  cos.5949 = f32[1000,1000]{1,0} cosine(cos.5948)
  cos.5950 = f32[1000,1000]{1,0} cosine(cos.5949)
  cos.5951 = f32[1000,1000]{1,0} cosine(cos.5950)
  cos.5952 = f32[1000,1000]{1,0} cosine(cos.5951)
  add.280 = f32[1000,1000]{1,0} add(sin.5952, cos.5952)
  add.281 = f32[1000,1000]{1,0} add(add.279, add.280)
  sin.5953 = f32[1000,1000]{1,0} sine(Arg_0.1)
  sin.5954 = f32[1000,1000]{1,0} sine(sin.5953)
  sin.5955 = f32[1000,1000]{1,0} sine(sin.5954)
  sin.5956 = f32[1000,1000]{1,0} sine(sin.5955)
  sin.5957 = f32[1000,1000]{1,0} sine(sin.5956)
  sin.5958 = f32[1000,1000]{1,0} sine(sin.5957)
  sin.5959 = f32[1000,1000]{1,0} sine(sin.5958)
  sin.5960 = f32[1000,1000]{1,0} sine(sin.5959)
  sin.5961 = f32[1000,1000]{1,0} sine(sin.5960)
  sin.5962 = f32[1000,1000]{1,0} sine(sin.5961)
  sin.5963 = f32[1000,1000]{1,0} sine(sin.5962)
  sin.5964 = f32[1000,1000]{1,0} sine(sin.5963)
  sin.5965 = f32[1000,1000]{1,0} sine(sin.5964)
  sin.5966 = f32[1000,1000]{1,0} sine(sin.5965)
  sin.5967 = f32[1000,1000]{1,0} sine(sin.5966)
  sin.5968 = f32[1000,1000]{1,0} sine(sin.5967)
  sin.5969 = f32[1000,1000]{1,0} sine(sin.5968)
  sin.5970 = f32[1000,1000]{1,0} sine(sin.5969)
  sin.5971 = f32[1000,1000]{1,0} sine(sin.5970)
  sin.5972 = f32[1000,1000]{1,0} sine(sin.5971)
  sin.5973 = f32[1000,1000]{1,0} sine(sin.5972)
  sin.5974 = f32[1000,1000]{1,0} sine(sin.5973)
  sin.5975 = f32[1000,1000]{1,0} sine(sin.5974)
  sin.5976 = f32[1000,1000]{1,0} sine(sin.5975)
  sin.5977 = f32[1000,1000]{1,0} sine(sin.5976)
  sin.5978 = f32[1000,1000]{1,0} sine(sin.5977)
  sin.5979 = f32[1000,1000]{1,0} sine(sin.5978)
  sin.5980 = f32[1000,1000]{1,0} sine(sin.5979)
  sin.5981 = f32[1000,1000]{1,0} sine(sin.5980)
  sin.5982 = f32[1000,1000]{1,0} sine(sin.5981)
  sin.5983 = f32[1000,1000]{1,0} sine(sin.5982)
  sin.5984 = f32[1000,1000]{1,0} sine(sin.5983)
  sin.5985 = f32[1000,1000]{1,0} sine(sin.5984)
  sin.5986 = f32[1000,1000]{1,0} sine(sin.5985)
  sin.5987 = f32[1000,1000]{1,0} sine(sin.5986)
  sin.5988 = f32[1000,1000]{1,0} sine(sin.5987)
  sin.5989 = f32[1000,1000]{1,0} sine(sin.5988)
  sin.5990 = f32[1000,1000]{1,0} sine(sin.5989)
  sin.5991 = f32[1000,1000]{1,0} sine(sin.5990)
  sin.5992 = f32[1000,1000]{1,0} sine(sin.5991)
  sin.5993 = f32[1000,1000]{1,0} sine(sin.5992)
  sin.5994 = f32[1000,1000]{1,0} sine(sin.5993)
  sin.5995 = f32[1000,1000]{1,0} sine(sin.5994)
  cos.5953 = f32[1000,1000]{1,0} cosine(Arg_0.1)
  cos.5954 = f32[1000,1000]{1,0} cosine(cos.5953)
  cos.5955 = f32[1000,1000]{1,0} cosine(cos.5954)
  cos.5956 = f32[1000,1000]{1,0} cosine(cos.5955)
  cos.5957 = f32[1000,1000]{1,0} cosine(cos.5956)
  cos.5958 = f32[1000,1000]{1,0} cosine(cos.5957)
  cos.5959 = f32[1000,1000]{1,0} cosine(cos.5958)
  cos.5960 = f32[1000,1000]{1,0} cosine(cos.5959)
  cos.5961 = f32[1000,1000]{1,0} cosine(cos.5960)
  cos.5962 = f32[1000,1000]{1,0} cosine(cos.5961)
  cos.5963 = f32[1000,1000]{1,0} cosine(cos.5962)
  cos.5964 = f32[1000,1000]{1,0} cosine(cos.5963)
  cos.5965 = f32[1000,1000]{1,0} cosine(cos.5964)
  cos.5966 = f32[1000,1000]{1,0} cosine(cos.5965)
  cos.5967 = f32[1000,1000]{1,0} cosine(cos.5966)
  cos.5968 = f32[1000,1000]{1,0} cosine(cos.5967)
  cos.5969 = f32[1000,1000]{1,0} cosine(cos.5968)
  cos.5970 = f32[1000,1000]{1,0} cosine(cos.5969)
  cos.5971 = f32[1000,1000]{1,0} cosine(cos.5970)
  cos.5972 = f32[1000,1000]{1,0} cosine(cos.5971)
  cos.5973 = f32[1000,1000]{1,0} cosine(cos.5972)
  cos.5974 = f32[1000,1000]{1,0} cosine(cos.5973)
  cos.5975 = f32[1000,1000]{1,0} cosine(cos.5974)
  cos.5976 = f32[1000,1000]{1,0} cosine(cos.5975)
  cos.5977 = f32[1000,1000]{1,0} cosine(cos.5976)
  cos.5978 = f32[1000,1000]{1,0} cosine(cos.5977)
  cos.5979 = f32[1000,1000]{1,0} cosine(cos.5978)
  cos.5980 = f32[1000,1000]{1,0} cosine(cos.5979)
  cos.5981 = f32[1000,1000]{1,0} cosine(cos.5980)
  cos.5982 = f32[1000,1000]{1,0} cosine(cos.5981)
  cos.5983 = f32[1000,1000]{1,0} cosine(cos.5982)
  cos.5984 = f32[1000,1000]{1,0} cosine(cos.5983)
  cos.5985 = f32[1000,1000]{1,0} cosine(cos.5984)
  cos.5986 = f32[1000,1000]{1,0} cosine(cos.5985)
  cos.5987 = f32[1000,1000]{1,0} cosine(cos.5986)
  cos.5988 = f32[1000,1000]{1,0} cosine(cos.5987)
  cos.5989 = f32[1000,1000]{1,0} cosine(cos.5988)
  cos.5990 = f32[1000,1000]{1,0} cosine(cos.5989)
  cos.5991 = f32[1000,1000]{1,0} cosine(cos.5990)
  cos.5992 = f32[1000,1000]{1,0} cosine(cos.5991)
  cos.5993 = f32[1000,1000]{1,0} cosine(cos.5992)
  cos.5994 = f32[1000,1000]{1,0} cosine(cos.5993)
  cos.5995 = f32[1000,1000]{1,0} cosine(cos.5994)
  add.282 = f32[1000,1000]{1,0} add(sin.5995, cos.5995)
  add.283 = f32[1000,1000]{1,0} add(add.281, add.282)
  sin.5996 = f32[1000,1000]{1,0} sine(Arg_0.1)
  sin.5997 = f32[1000,1000]{1,0} sine(sin.5996)
  sin.5998 = f32[1000,1000]{1,0} sine(sin.5997)
  sin.5999 = f32[1000,1000]{1,0} sine(sin.5998)
  sin.6000 = f32[1000,1000]{1,0} sine(sin.5999)
  sin.6001 = f32[1000,1000]{1,0} sine(sin.6000)
  sin.6002 = f32[1000,1000]{1,0} sine(sin.6001)
  sin.6003 = f32[1000,1000]{1,0} sine(sin.6002)
  sin.6004 = f32[1000,1000]{1,0} sine(sin.6003)
  sin.6005 = f32[1000,1000]{1,0} sine(sin.6004)
  sin.6006 = f32[1000,1000]{1,0} sine(sin.6005)
  sin.6007 = f32[1000,1000]{1,0} sine(sin.6006)
  sin.6008 = f32[1000,1000]{1,0} sine(sin.6007)
  sin.6009 = f32[1000,1000]{1,0} sine(sin.6008)
  sin.6010 = f32[1000,1000]{1,0} sine(sin.6009)
  sin.6011 = f32[1000,1000]{1,0} sine(sin.6010)
  sin.6012 = f32[1000,1000]{1,0} sine(sin.6011)
  sin.6013 = f32[1000,1000]{1,0} sine(sin.6012)
  sin.6014 = f32[1000,1000]{1,0} sine(sin.6013)
  sin.6015 = f32[1000,1000]{1,0} sine(sin.6014)
  sin.6016 = f32[1000,1000]{1,0} sine(sin.6015)
  sin.6017 = f32[1000,1000]{1,0} sine(sin.6016)
  sin.6018 = f32[1000,1000]{1,0} sine(sin.6017)
  sin.6019 = f32[1000,1000]{1,0} sine(sin.6018)
  sin.6020 = f32[1000,1000]{1,0} sine(sin.6019)
  sin.6021 = f32[1000,1000]{1,0} sine(sin.6020)
  sin.6022 = f32[1000,1000]{1,0} sine(sin.6021)
  sin.6023 = f32[1000,1000]{1,0} sine(sin.6022)
  sin.6024 = f32[1000,1000]{1,0} sine(sin.6023)
  sin.6025 = f32[1000,1000]{1,0} sine(sin.6024)
  sin.6026 = f32[1000,1000]{1,0} sine(sin.6025)
  sin.6027 = f32[1000,1000]{1,0} sine(sin.6026)
  sin.6028 = f32[1000,1000]{1,0} sine(sin.6027)
  sin.6029 = f32[1000,1000]{1,0} sine(sin.6028)
  sin.6030 = f32[1000,1000]{1,0} sine(sin.6029)
  sin.6031 = f32[1000,1000]{1,0} sine(sin.6030)
  sin.6032 = f32[1000,1000]{1,0} sine(sin.6031)
  sin.6033 = f32[1000,1000]{1,0} sine(sin.6032)
  sin.6034 = f32[1000,1000]{1,0} sine(sin.6033)
  sin.6035 = f32[1000,1000]{1,0} sine(sin.6034)
  sin.6036 = f32[1000,1000]{1,0} sine(sin.6035)
  sin.6037 = f32[1000,1000]{1,0} sine(sin.6036)
  sin.6038 = f32[1000,1000]{1,0} sine(sin.6037)
  sin.6039 = f32[1000,1000]{1,0} sine(sin.6038)
  cos.5996 = f32[1000,1000]{1,0} cosine(Arg_0.1)
  cos.5997 = f32[1000,1000]{1,0} cosine(cos.5996)
  cos.5998 = f32[1000,1000]{1,0} cosine(cos.5997)
  cos.5999 = f32[1000,1000]{1,0} cosine(cos.5998)
  cos.6000 = f32[1000,1000]{1,0} cosine(cos.5999)
  cos.6001 = f32[1000,1000]{1,0} cosine(cos.6000)
  cos.6002 = f32[1000,1000]{1,0} cosine(cos.6001)
  cos.6003 = f32[1000,1000]{1,0} cosine(cos.6002)
  cos.6004 = f32[1000,1000]{1,0} cosine(cos.6003)
  cos.6005 = f32[1000,1000]{1,0} cosine(cos.6004)
  cos.6006 = f32[1000,1000]{1,0} cosine(cos.6005)
  cos.6007 = f32[1000,1000]{1,0} cosine(cos.6006)
  cos.6008 = f32[1000,1000]{1,0} cosine(cos.6007)
  cos.6009 = f32[1000,1000]{1,0} cosine(cos.6008)
  cos.6010 = f32[1000,1000]{1,0} cosine(cos.6009)
  cos.6011 = f32[1000,1000]{1,0} cosine(cos.6010)
  cos.6012 = f32[1000,1000]{1,0} cosine(cos.6011)
  cos.6013 = f32[1000,1000]{1,0} cosine(cos.6012)
  cos.6014 = f32[1000,1000]{1,0} cosine(cos.6013)
  cos.6015 = f32[1000,1000]{1,0} cosine(cos.6014)
  cos.6016 = f32[1000,1000]{1,0} cosine(cos.6015)
  cos.6017 = f32[1000,1000]{1,0} cosine(cos.6016)
  cos.6018 = f32[1000,1000]{1,0} cosine(cos.6017)
  cos.6019 = f32[1000,1000]{1,0} cosine(cos.6018)
  cos.6020 = f32[1000,1000]{1,0} cosine(cos.6019)
  cos.6021 = f32[1000,1000]{1,0} cosine(cos.6020)
  cos.6022 = f32[1000,1000]{1,0} cosine(cos.6021)
  cos.6023 = f32[1000,1000]{1,0} cosine(cos.6022)
  cos.6024 = f32[1000,1000]{1,0} cosine(cos.6023)
  cos.6025 = f32[1000,1000]{1,0} cosine(cos.6024)
  cos.6026 = f32[1000,1000]{1,0} cosine(cos.6025)
  cos.6027 = f32[1000,1000]{1,0} cosine(cos.6026)
  cos.6028 = f32[1000,1000]{1,0} cosine(cos.6027)
  cos.6029 = f32[1000,1000]{1,0} cosine(cos.6028)
  cos.6030 = f32[1000,1000]{1,0} cosine(cos.6029)
  cos.6031 = f32[1000,1000]{1,0} cosine(cos.6030)
  cos.6032 = f32[1000,1000]{1,0} cosine(cos.6031)
  cos.6033 = f32[1000,1000]{1,0} cosine(cos.6032)
  cos.6034 = f32[1000,1000]{1,0} cosine(cos.6033)
  cos.6035 = f32[1000,1000]{1,0} cosine(cos.6034)
  cos.6036 = f32[1000,1000]{1,0} cosine(cos.6035)
  cos.6037 = f32[1000,1000]{1,0} cosine(cos.6036)
  cos.6038 = f32[1000,1000]{1,0} cosine(cos.6037)
  cos.6039 = f32[1000,1000]{1,0} cosine(cos.6038)
  add.284 = f32[1000,1000]{1,0} add(sin.6039, cos.6039)
  add.285 = f32[1000,1000]{1,0} add(add.283, add.284)
  sin.6040 = f32[1000,1000]{1,0} sine(Arg_0.1)
  sin.6041 = f32[1000,1000]{1,0} sine(sin.6040)
  sin.6042 = f32[1000,1000]{1,0} sine(sin.6041)
  sin.6043 = f32[1000,1000]{1,0} sine(sin.6042)
  sin.6044 = f32[1000,1000]{1,0} sine(sin.6043)
  sin.6045 = f32[1000,1000]{1,0} sine(sin.6044)
  sin.6046 = f32[1000,1000]{1,0} sine(sin.6045)
  sin.6047 = f32[1000,1000]{1,0} sine(sin.6046)
  sin.6048 = f32[1000,1000]{1,0} sine(sin.6047)
  sin.6049 = f32[1000,1000]{1,0} sine(sin.6048)
  sin.6050 = f32[1000,1000]{1,0} sine(sin.6049)
  sin.6051 = f32[1000,1000]{1,0} sine(sin.6050)
  sin.6052 = f32[1000,1000]{1,0} sine(sin.6051)
  sin.6053 = f32[1000,1000]{1,0} sine(sin.6052)
  sin.6054 = f32[1000,1000]{1,0} sine(sin.6053)
  sin.6055 = f32[1000,1000]{1,0} sine(sin.6054)
  sin.6056 = f32[1000,1000]{1,0} sine(sin.6055)
  sin.6057 = f32[1000,1000]{1,0} sine(sin.6056)
  sin.6058 = f32[1000,1000]{1,0} sine(sin.6057)
  sin.6059 = f32[1000,1000]{1,0} sine(sin.6058)
  sin.6060 = f32[1000,1000]{1,0} sine(sin.6059)
  sin.6061 = f32[1000,1000]{1,0} sine(sin.6060)
  sin.6062 = f32[1000,1000]{1,0} sine(sin.6061)
  sin.6063 = f32[1000,1000]{1,0} sine(sin.6062)
  sin.6064 = f32[1000,1000]{1,0} sine(sin.6063)
  sin.6065 = f32[1000,1000]{1,0} sine(sin.6064)
  sin.6066 = f32[1000,1000]{1,0} sine(sin.6065)
  sin.6067 = f32[1000,1000]{1,0} sine(sin.6066)
  sin.6068 = f32[1000,1000]{1,0} sine(sin.6067)
  sin.6069 = f32[1000,1000]{1,0} sine(sin.6068)
  sin.6070 = f32[1000,1000]{1,0} sine(sin.6069)
  sin.6071 = f32[1000,1000]{1,0} sine(sin.6070)
  sin.6072 = f32[1000,1000]{1,0} sine(sin.6071)
  sin.6073 = f32[1000,1000]{1,0} sine(sin.6072)
  sin.6074 = f32[1000,1000]{1,0} sine(sin.6073)
  sin.6075 = f32[1000,1000]{1,0} sine(sin.6074)
  sin.6076 = f32[1000,1000]{1,0} sine(sin.6075)
  sin.6077 = f32[1000,1000]{1,0} sine(sin.6076)
  sin.6078 = f32[1000,1000]{1,0} sine(sin.6077)
  sin.6079 = f32[1000,1000]{1,0} sine(sin.6078)
  sin.6080 = f32[1000,1000]{1,0} sine(sin.6079)
  sin.6081 = f32[1000,1000]{1,0} sine(sin.6080)
  sin.6082 = f32[1000,1000]{1,0} sine(sin.6081)
  sin.6083 = f32[1000,1000]{1,0} sine(sin.6082)
  sin.6084 = f32[1000,1000]{1,0} sine(sin.6083)
  cos.6040 = f32[1000,1000]{1,0} cosine(Arg_0.1)
  cos.6041 = f32[1000,1000]{1,0} cosine(cos.6040)
  cos.6042 = f32[1000,1000]{1,0} cosine(cos.6041)
  cos.6043 = f32[1000,1000]{1,0} cosine(cos.6042)
  cos.6044 = f32[1000,1000]{1,0} cosine(cos.6043)
  cos.6045 = f32[1000,1000]{1,0} cosine(cos.6044)
  cos.6046 = f32[1000,1000]{1,0} cosine(cos.6045)
  cos.6047 = f32[1000,1000]{1,0} cosine(cos.6046)
  cos.6048 = f32[1000,1000]{1,0} cosine(cos.6047)
  cos.6049 = f32[1000,1000]{1,0} cosine(cos.6048)
  cos.6050 = f32[1000,1000]{1,0} cosine(cos.6049)
  cos.6051 = f32[1000,1000]{1,0} cosine(cos.6050)
  cos.6052 = f32[1000,1000]{1,0} cosine(cos.6051)
  cos.6053 = f32[1000,1000]{1,0} cosine(cos.6052)
  cos.6054 = f32[1000,1000]{1,0} cosine(cos.6053)
  cos.6055 = f32[1000,1000]{1,0} cosine(cos.6054)
  cos.6056 = f32[1000,1000]{1,0} cosine(cos.6055)
  cos.6057 = f32[1000,1000]{1,0} cosine(cos.6056)
  cos.6058 = f32[1000,1000]{1,0} cosine(cos.6057)
  cos.6059 = f32[1000,1000]{1,0} cosine(cos.6058)
  cos.6060 = f32[1000,1000]{1,0} cosine(cos.6059)
  cos.6061 = f32[1000,1000]{1,0} cosine(cos.6060)
  cos.6062 = f32[1000,1000]{1,0} cosine(cos.6061)
  cos.6063 = f32[1000,1000]{1,0} cosine(cos.6062)
  cos.6064 = f32[1000,1000]{1,0} cosine(cos.6063)
  cos.6065 = f32[1000,1000]{1,0} cosine(cos.6064)
  cos.6066 = f32[1000,1000]{1,0} cosine(cos.6065)
  cos.6067 = f32[1000,1000]{1,0} cosine(cos.6066)
  cos.6068 = f32[1000,1000]{1,0} cosine(cos.6067)
  cos.6069 = f32[1000,1000]{1,0} cosine(cos.6068)
  cos.6070 = f32[1000,1000]{1,0} cosine(cos.6069)
  cos.6071 = f32[1000,1000]{1,0} cosine(cos.6070)
  cos.6072 = f32[1000,1000]{1,0} cosine(cos.6071)
  cos.6073 = f32[1000,1000]{1,0} cosine(cos.6072)
  cos.6074 = f32[1000,1000]{1,0} cosine(cos.6073)
  cos.6075 = f32[1000,1000]{1,0} cosine(cos.6074)
  cos.6076 = f32[1000,1000]{1,0} cosine(cos.6075)
  cos.6077 = f32[1000,1000]{1,0} cosine(cos.6076)
  cos.6078 = f32[1000,1000]{1,0} cosine(cos.6077)
  cos.6079 = f32[1000,1000]{1,0} cosine(cos.6078)
  cos.6080 = f32[1000,1000]{1,0} cosine(cos.6079)
  cos.6081 = f32[1000,1000]{1,0} cosine(cos.6080)
  cos.6082 = f32[1000,1000]{1,0} cosine(cos.6081)
  cos.6083 = f32[1000,1000]{1,0} cosine(cos.6082)
  cos.6084 = f32[1000,1000]{1,0} cosine(cos.6083)
  add.286 = f32[1000,1000]{1,0} add(sin.6084, cos.6084)
  add.287 = f32[1000,1000]{1,0} add(add.285, add.286)
  sin.6085 = f32[1000,1000]{1,0} sine(Arg_0.1)
  sin.6086 = f32[1000,1000]{1,0} sine(sin.6085)
  sin.6087 = f32[1000,1000]{1,0} sine(sin.6086)
  sin.6088 = f32[1000,1000]{1,0} sine(sin.6087)
  sin.6089 = f32[1000,1000]{1,0} sine(sin.6088)
  sin.6090 = f32[1000,1000]{1,0} sine(sin.6089)
  sin.6091 = f32[1000,1000]{1,0} sine(sin.6090)
  sin.6092 = f32[1000,1000]{1,0} sine(sin.6091)
  sin.6093 = f32[1000,1000]{1,0} sine(sin.6092)
  sin.6094 = f32[1000,1000]{1,0} sine(sin.6093)
  sin.6095 = f32[1000,1000]{1,0} sine(sin.6094)
  sin.6096 = f32[1000,1000]{1,0} sine(sin.6095)
  sin.6097 = f32[1000,1000]{1,0} sine(sin.6096)
  sin.6098 = f32[1000,1000]{1,0} sine(sin.6097)
  sin.6099 = f32[1000,1000]{1,0} sine(sin.6098)
  sin.6100 = f32[1000,1000]{1,0} sine(sin.6099)
  sin.6101 = f32[1000,1000]{1,0} sine(sin.6100)
  sin.6102 = f32[1000,1000]{1,0} sine(sin.6101)
  sin.6103 = f32[1000,1000]{1,0} sine(sin.6102)
  sin.6104 = f32[1000,1000]{1,0} sine(sin.6103)
  sin.6105 = f32[1000,1000]{1,0} sine(sin.6104)
  sin.6106 = f32[1000,1000]{1,0} sine(sin.6105)
  sin.6107 = f32[1000,1000]{1,0} sine(sin.6106)
  sin.6108 = f32[1000,1000]{1,0} sine(sin.6107)
  sin.6109 = f32[1000,1000]{1,0} sine(sin.6108)
  sin.6110 = f32[1000,1000]{1,0} sine(sin.6109)
  sin.6111 = f32[1000,1000]{1,0} sine(sin.6110)
  sin.6112 = f32[1000,1000]{1,0} sine(sin.6111)
  sin.6113 = f32[1000,1000]{1,0} sine(sin.6112)
  sin.6114 = f32[1000,1000]{1,0} sine(sin.6113)
  sin.6115 = f32[1000,1000]{1,0} sine(sin.6114)
  sin.6116 = f32[1000,1000]{1,0} sine(sin.6115)
  sin.6117 = f32[1000,1000]{1,0} sine(sin.6116)
  sin.6118 = f32[1000,1000]{1,0} sine(sin.6117)
  sin.6119 = f32[1000,1000]{1,0} sine(sin.6118)
  sin.6120 = f32[1000,1000]{1,0} sine(sin.6119)
  sin.6121 = f32[1000,1000]{1,0} sine(sin.6120)
  sin.6122 = f32[1000,1000]{1,0} sine(sin.6121)
  sin.6123 = f32[1000,1000]{1,0} sine(sin.6122)
  sin.6124 = f32[1000,1000]{1,0} sine(sin.6123)
  sin.6125 = f32[1000,1000]{1,0} sine(sin.6124)
  sin.6126 = f32[1000,1000]{1,0} sine(sin.6125)
  sin.6127 = f32[1000,1000]{1,0} sine(sin.6126)
  sin.6128 = f32[1000,1000]{1,0} sine(sin.6127)
  sin.6129 = f32[1000,1000]{1,0} sine(sin.6128)
  sin.6130 = f32[1000,1000]{1,0} sine(sin.6129)
  cos.6085 = f32[1000,1000]{1,0} cosine(Arg_0.1)
  cos.6086 = f32[1000,1000]{1,0} cosine(cos.6085)
  cos.6087 = f32[1000,1000]{1,0} cosine(cos.6086)
  cos.6088 = f32[1000,1000]{1,0} cosine(cos.6087)
  cos.6089 = f32[1000,1000]{1,0} cosine(cos.6088)
  cos.6090 = f32[1000,1000]{1,0} cosine(cos.6089)
  cos.6091 = f32[1000,1000]{1,0} cosine(cos.6090)
  cos.6092 = f32[1000,1000]{1,0} cosine(cos.6091)
  cos.6093 = f32[1000,1000]{1,0} cosine(cos.6092)
  cos.6094 = f32[1000,1000]{1,0} cosine(cos.6093)
  cos.6095 = f32[1000,1000]{1,0} cosine(cos.6094)
  cos.6096 = f32[1000,1000]{1,0} cosine(cos.6095)
  cos.6097 = f32[1000,1000]{1,0} cosine(cos.6096)
  cos.6098 = f32[1000,1000]{1,0} cosine(cos.6097)
  cos.6099 = f32[1000,1000]{1,0} cosine(cos.6098)
  cos.6100 = f32[1000,1000]{1,0} cosine(cos.6099)
  cos.6101 = f32[1000,1000]{1,0} cosine(cos.6100)
  cos.6102 = f32[1000,1000]{1,0} cosine(cos.6101)
  cos.6103 = f32[1000,1000]{1,0} cosine(cos.6102)
  cos.6104 = f32[1000,1000]{1,0} cosine(cos.6103)
  cos.6105 = f32[1000,1000]{1,0} cosine(cos.6104)
  cos.6106 = f32[1000,1000]{1,0} cosine(cos.6105)
  cos.6107 = f32[1000,1000]{1,0} cosine(cos.6106)
  cos.6108 = f32[1000,1000]{1,0} cosine(cos.6107)
  cos.6109 = f32[1000,1000]{1,0} cosine(cos.6108)
  cos.6110 = f32[1000,1000]{1,0} cosine(cos.6109)
  cos.6111 = f32[1000,1000]{1,0} cosine(cos.6110)
  cos.6112 = f32[1000,1000]{1,0} cosine(cos.6111)
  cos.6113 = f32[1000,1000]{1,0} cosine(cos.6112)
  cos.6114 = f32[1000,1000]{1,0} cosine(cos.6113)
  cos.6115 = f32[1000,1000]{1,0} cosine(cos.6114)
  cos.6116 = f32[1000,1000]{1,0} cosine(cos.6115)
  cos.6117 = f32[1000,1000]{1,0} cosine(cos.6116)
  cos.6118 = f32[1000,1000]{1,0} cosine(cos.6117)
  cos.6119 = f32[1000,1000]{1,0} cosine(cos.6118)
  cos.6120 = f32[1000,1000]{1,0} cosine(cos.6119)
  cos.6121 = f32[1000,1000]{1,0} cosine(cos.6120)
  cos.6122 = f32[1000,1000]{1,0} cosine(cos.6121)
  cos.6123 = f32[1000,1000]{1,0} cosine(cos.6122)
  cos.6124 = f32[1000,1000]{1,0} cosine(cos.6123)
  cos.6125 = f32[1000,1000]{1,0} cosine(cos.6124)
  cos.6126 = f32[1000,1000]{1,0} cosine(cos.6125)
  cos.6127 = f32[1000,1000]{1,0} cosine(cos.6126)
  cos.6128 = f32[1000,1000]{1,0} cosine(cos.6127)
  cos.6129 = f32[1000,1000]{1,0} cosine(cos.6128)
  cos.6130 = f32[1000,1000]{1,0} cosine(cos.6129)
  add.288 = f32[1000,1000]{1,0} add(sin.6130, cos.6130)
  add.289 = f32[1000,1000]{1,0} add(add.287, add.288)
  sin.6131 = f32[1000,1000]{1,0} sine(Arg_0.1)
  sin.6132 = f32[1000,1000]{1,0} sine(sin.6131)
  sin.6133 = f32[1000,1000]{1,0} sine(sin.6132)
  sin.6134 = f32[1000,1000]{1,0} sine(sin.6133)
  sin.6135 = f32[1000,1000]{1,0} sine(sin.6134)
  sin.6136 = f32[1000,1000]{1,0} sine(sin.6135)
  sin.6137 = f32[1000,1000]{1,0} sine(sin.6136)
  sin.6138 = f32[1000,1000]{1,0} sine(sin.6137)
  sin.6139 = f32[1000,1000]{1,0} sine(sin.6138)
  sin.6140 = f32[1000,1000]{1,0} sine(sin.6139)
  sin.6141 = f32[1000,1000]{1,0} sine(sin.6140)
  sin.6142 = f32[1000,1000]{1,0} sine(sin.6141)
  sin.6143 = f32[1000,1000]{1,0} sine(sin.6142)
  sin.6144 = f32[1000,1000]{1,0} sine(sin.6143)
  sin.6145 = f32[1000,1000]{1,0} sine(sin.6144)
  sin.6146 = f32[1000,1000]{1,0} sine(sin.6145)
  sin.6147 = f32[1000,1000]{1,0} sine(sin.6146)
  sin.6148 = f32[1000,1000]{1,0} sine(sin.6147)
  sin.6149 = f32[1000,1000]{1,0} sine(sin.6148)
  sin.6150 = f32[1000,1000]{1,0} sine(sin.6149)
  sin.6151 = f32[1000,1000]{1,0} sine(sin.6150)
  sin.6152 = f32[1000,1000]{1,0} sine(sin.6151)
  sin.6153 = f32[1000,1000]{1,0} sine(sin.6152)
  sin.6154 = f32[1000,1000]{1,0} sine(sin.6153)
  sin.6155 = f32[1000,1000]{1,0} sine(sin.6154)
  sin.6156 = f32[1000,1000]{1,0} sine(sin.6155)
  sin.6157 = f32[1000,1000]{1,0} sine(sin.6156)
  sin.6158 = f32[1000,1000]{1,0} sine(sin.6157)
  sin.6159 = f32[1000,1000]{1,0} sine(sin.6158)
  sin.6160 = f32[1000,1000]{1,0} sine(sin.6159)
  sin.6161 = f32[1000,1000]{1,0} sine(sin.6160)
  sin.6162 = f32[1000,1000]{1,0} sine(sin.6161)
  sin.6163 = f32[1000,1000]{1,0} sine(sin.6162)
  sin.6164 = f32[1000,1000]{1,0} sine(sin.6163)
  sin.6165 = f32[1000,1000]{1,0} sine(sin.6164)
  sin.6166 = f32[1000,1000]{1,0} sine(sin.6165)
  sin.6167 = f32[1000,1000]{1,0} sine(sin.6166)
  sin.6168 = f32[1000,1000]{1,0} sine(sin.6167)
  sin.6169 = f32[1000,1000]{1,0} sine(sin.6168)
  sin.6170 = f32[1000,1000]{1,0} sine(sin.6169)
  sin.6171 = f32[1000,1000]{1,0} sine(sin.6170)
  sin.6172 = f32[1000,1000]{1,0} sine(sin.6171)
  sin.6173 = f32[1000,1000]{1,0} sine(sin.6172)
  sin.6174 = f32[1000,1000]{1,0} sine(sin.6173)
  sin.6175 = f32[1000,1000]{1,0} sine(sin.6174)
  sin.6176 = f32[1000,1000]{1,0} sine(sin.6175)
  sin.6177 = f32[1000,1000]{1,0} sine(sin.6176)
  cos.6131 = f32[1000,1000]{1,0} cosine(Arg_0.1)
  cos.6132 = f32[1000,1000]{1,0} cosine(cos.6131)
  cos.6133 = f32[1000,1000]{1,0} cosine(cos.6132)
  cos.6134 = f32[1000,1000]{1,0} cosine(cos.6133)
  cos.6135 = f32[1000,1000]{1,0} cosine(cos.6134)
  cos.6136 = f32[1000,1000]{1,0} cosine(cos.6135)
  cos.6137 = f32[1000,1000]{1,0} cosine(cos.6136)
  cos.6138 = f32[1000,1000]{1,0} cosine(cos.6137)
  cos.6139 = f32[1000,1000]{1,0} cosine(cos.6138)
  cos.6140 = f32[1000,1000]{1,0} cosine(cos.6139)
  cos.6141 = f32[1000,1000]{1,0} cosine(cos.6140)
  cos.6142 = f32[1000,1000]{1,0} cosine(cos.6141)
  cos.6143 = f32[1000,1000]{1,0} cosine(cos.6142)
  cos.6144 = f32[1000,1000]{1,0} cosine(cos.6143)
  cos.6145 = f32[1000,1000]{1,0} cosine(cos.6144)
  cos.6146 = f32[1000,1000]{1,0} cosine(cos.6145)
  cos.6147 = f32[1000,1000]{1,0} cosine(cos.6146)
  cos.6148 = f32[1000,1000]{1,0} cosine(cos.6147)
  cos.6149 = f32[1000,1000]{1,0} cosine(cos.6148)
  cos.6150 = f32[1000,1000]{1,0} cosine(cos.6149)
  cos.6151 = f32[1000,1000]{1,0} cosine(cos.6150)
  cos.6152 = f32[1000,1000]{1,0} cosine(cos.6151)
  cos.6153 = f32[1000,1000]{1,0} cosine(cos.6152)
  cos.6154 = f32[1000,1000]{1,0} cosine(cos.6153)
  cos.6155 = f32[1000,1000]{1,0} cosine(cos.6154)
  cos.6156 = f32[1000,1000]{1,0} cosine(cos.6155)
  cos.6157 = f32[1000,1000]{1,0} cosine(cos.6156)
  cos.6158 = f32[1000,1000]{1,0} cosine(cos.6157)
  cos.6159 = f32[1000,1000]{1,0} cosine(cos.6158)
  cos.6160 = f32[1000,1000]{1,0} cosine(cos.6159)
  cos.6161 = f32[1000,1000]{1,0} cosine(cos.6160)
  cos.6162 = f32[1000,1000]{1,0} cosine(cos.6161)
  cos.6163 = f32[1000,1000]{1,0} cosine(cos.6162)
  cos.6164 = f32[1000,1000]{1,0} cosine(cos.6163)
  cos.6165 = f32[1000,1000]{1,0} cosine(cos.6164)
  cos.6166 = f32[1000,1000]{1,0} cosine(cos.6165)
  cos.6167 = f32[1000,1000]{1,0} cosine(cos.6166)
  cos.6168 = f32[1000,1000]{1,0} cosine(cos.6167)
  cos.6169 = f32[1000,1000]{1,0} cosine(cos.6168)
  cos.6170 = f32[1000,1000]{1,0} cosine(cos.6169)
  cos.6171 = f32[1000,1000]{1,0} cosine(cos.6170)
  cos.6172 = f32[1000,1000]{1,0} cosine(cos.6171)
  cos.6173 = f32[1000,1000]{1,0} cosine(cos.6172)
  cos.6174 = f32[1000,1000]{1,0} cosine(cos.6173)
  cos.6175 = f32[1000,1000]{1,0} cosine(cos.6174)
  cos.6176 = f32[1000,1000]{1,0} cosine(cos.6175)
  cos.6177 = f32[1000,1000]{1,0} cosine(cos.6176)
  add.290 = f32[1000,1000]{1,0} add(sin.6177, cos.6177)
  add.291 = f32[1000,1000]{1,0} add(add.289, add.290)
  sin.6178 = f32[1000,1000]{1,0} sine(Arg_0.1)
  sin.6179 = f32[1000,1000]{1,0} sine(sin.6178)
  sin.6180 = f32[1000,1000]{1,0} sine(sin.6179)
  sin.6181 = f32[1000,1000]{1,0} sine(sin.6180)
  sin.6182 = f32[1000,1000]{1,0} sine(sin.6181)
  sin.6183 = f32[1000,1000]{1,0} sine(sin.6182)
  sin.6184 = f32[1000,1000]{1,0} sine(sin.6183)
  sin.6185 = f32[1000,1000]{1,0} sine(sin.6184)
  sin.6186 = f32[1000,1000]{1,0} sine(sin.6185)
  sin.6187 = f32[1000,1000]{1,0} sine(sin.6186)
  sin.6188 = f32[1000,1000]{1,0} sine(sin.6187)
  sin.6189 = f32[1000,1000]{1,0} sine(sin.6188)
  sin.6190 = f32[1000,1000]{1,0} sine(sin.6189)
  sin.6191 = f32[1000,1000]{1,0} sine(sin.6190)
  sin.6192 = f32[1000,1000]{1,0} sine(sin.6191)
  sin.6193 = f32[1000,1000]{1,0} sine(sin.6192)
  sin.6194 = f32[1000,1000]{1,0} sine(sin.6193)
  sin.6195 = f32[1000,1000]{1,0} sine(sin.6194)
  sin.6196 = f32[1000,1000]{1,0} sine(sin.6195)
  sin.6197 = f32[1000,1000]{1,0} sine(sin.6196)
  sin.6198 = f32[1000,1000]{1,0} sine(sin.6197)
  sin.6199 = f32[1000,1000]{1,0} sine(sin.6198)
  sin.6200 = f32[1000,1000]{1,0} sine(sin.6199)
  sin.6201 = f32[1000,1000]{1,0} sine(sin.6200)
  sin.6202 = f32[1000,1000]{1,0} sine(sin.6201)
  sin.6203 = f32[1000,1000]{1,0} sine(sin.6202)
  sin.6204 = f32[1000,1000]{1,0} sine(sin.6203)
  sin.6205 = f32[1000,1000]{1,0} sine(sin.6204)
  sin.6206 = f32[1000,1000]{1,0} sine(sin.6205)
  sin.6207 = f32[1000,1000]{1,0} sine(sin.6206)
  sin.6208 = f32[1000,1000]{1,0} sine(sin.6207)
  sin.6209 = f32[1000,1000]{1,0} sine(sin.6208)
  sin.6210 = f32[1000,1000]{1,0} sine(sin.6209)
  sin.6211 = f32[1000,1000]{1,0} sine(sin.6210)
  sin.6212 = f32[1000,1000]{1,0} sine(sin.6211)
  sin.6213 = f32[1000,1000]{1,0} sine(sin.6212)
  sin.6214 = f32[1000,1000]{1,0} sine(sin.6213)
  sin.6215 = f32[1000,1000]{1,0} sine(sin.6214)
  sin.6216 = f32[1000,1000]{1,0} sine(sin.6215)
  sin.6217 = f32[1000,1000]{1,0} sine(sin.6216)
  sin.6218 = f32[1000,1000]{1,0} sine(sin.6217)
  sin.6219 = f32[1000,1000]{1,0} sine(sin.6218)
  sin.6220 = f32[1000,1000]{1,0} sine(sin.6219)
  sin.6221 = f32[1000,1000]{1,0} sine(sin.6220)
  sin.6222 = f32[1000,1000]{1,0} sine(sin.6221)
  sin.6223 = f32[1000,1000]{1,0} sine(sin.6222)
  sin.6224 = f32[1000,1000]{1,0} sine(sin.6223)
  sin.6225 = f32[1000,1000]{1,0} sine(sin.6224)
  cos.6178 = f32[1000,1000]{1,0} cosine(Arg_0.1)
  cos.6179 = f32[1000,1000]{1,0} cosine(cos.6178)
  cos.6180 = f32[1000,1000]{1,0} cosine(cos.6179)
  cos.6181 = f32[1000,1000]{1,0} cosine(cos.6180)
  cos.6182 = f32[1000,1000]{1,0} cosine(cos.6181)
  cos.6183 = f32[1000,1000]{1,0} cosine(cos.6182)
  cos.6184 = f32[1000,1000]{1,0} cosine(cos.6183)
  cos.6185 = f32[1000,1000]{1,0} cosine(cos.6184)
  cos.6186 = f32[1000,1000]{1,0} cosine(cos.6185)
  cos.6187 = f32[1000,1000]{1,0} cosine(cos.6186)
  cos.6188 = f32[1000,1000]{1,0} cosine(cos.6187)
  cos.6189 = f32[1000,1000]{1,0} cosine(cos.6188)
  cos.6190 = f32[1000,1000]{1,0} cosine(cos.6189)
  cos.6191 = f32[1000,1000]{1,0} cosine(cos.6190)
  cos.6192 = f32[1000,1000]{1,0} cosine(cos.6191)
  cos.6193 = f32[1000,1000]{1,0} cosine(cos.6192)
  cos.6194 = f32[1000,1000]{1,0} cosine(cos.6193)
  cos.6195 = f32[1000,1000]{1,0} cosine(cos.6194)
  cos.6196 = f32[1000,1000]{1,0} cosine(cos.6195)
  cos.6197 = f32[1000,1000]{1,0} cosine(cos.6196)
  cos.6198 = f32[1000,1000]{1,0} cosine(cos.6197)
  cos.6199 = f32[1000,1000]{1,0} cosine(cos.6198)
  cos.6200 = f32[1000,1000]{1,0} cosine(cos.6199)
  cos.6201 = f32[1000,1000]{1,0} cosine(cos.6200)
  cos.6202 = f32[1000,1000]{1,0} cosine(cos.6201)
  cos.6203 = f32[1000,1000]{1,0} cosine(cos.6202)
  cos.6204 = f32[1000,1000]{1,0} cosine(cos.6203)
  cos.6205 = f32[1000,1000]{1,0} cosine(cos.6204)
  cos.6206 = f32[1000,1000]{1,0} cosine(cos.6205)
  cos.6207 = f32[1000,1000]{1,0} cosine(cos.6206)
  cos.6208 = f32[1000,1000]{1,0} cosine(cos.6207)
  cos.6209 = f32[1000,1000]{1,0} cosine(cos.6208)
  cos.6210 = f32[1000,1000]{1,0} cosine(cos.6209)
  cos.6211 = f32[1000,1000]{1,0} cosine(cos.6210)
  cos.6212 = f32[1000,1000]{1,0} cosine(cos.6211)
  cos.6213 = f32[1000,1000]{1,0} cosine(cos.6212)
  cos.6214 = f32[1000,1000]{1,0} cosine(cos.6213)
  cos.6215 = f32[1000,1000]{1,0} cosine(cos.6214)
  cos.6216 = f32[1000,1000]{1,0} cosine(cos.6215)
  cos.6217 = f32[1000,1000]{1,0} cosine(cos.6216)
  cos.6218 = f32[1000,1000]{1,0} cosine(cos.6217)
  cos.6219 = f32[1000,1000]{1,0} cosine(cos.6218)
  cos.6220 = f32[1000,1000]{1,0} cosine(cos.6219)
  cos.6221 = f32[1000,1000]{1,0} cosine(cos.6220)
  cos.6222 = f32[1000,1000]{1,0} cosine(cos.6221)
  cos.6223 = f32[1000,1000]{1,0} cosine(cos.6222)
  cos.6224 = f32[1000,1000]{1,0} cosine(cos.6223)
  cos.6225 = f32[1000,1000]{1,0} cosine(cos.6224)
  add.292 = f32[1000,1000]{1,0} add(sin.6225, cos.6225)
  add.293 = f32[1000,1000]{1,0} add(add.291, add.292)
  sin.6226 = f32[1000,1000]{1,0} sine(Arg_0.1)
  sin.6227 = f32[1000,1000]{1,0} sine(sin.6226)
  sin.6228 = f32[1000,1000]{1,0} sine(sin.6227)
  sin.6229 = f32[1000,1000]{1,0} sine(sin.6228)
  sin.6230 = f32[1000,1000]{1,0} sine(sin.6229)
  sin.6231 = f32[1000,1000]{1,0} sine(sin.6230)
  sin.6232 = f32[1000,1000]{1,0} sine(sin.6231)
  sin.6233 = f32[1000,1000]{1,0} sine(sin.6232)
  sin.6234 = f32[1000,1000]{1,0} sine(sin.6233)
  sin.6235 = f32[1000,1000]{1,0} sine(sin.6234)
  sin.6236 = f32[1000,1000]{1,0} sine(sin.6235)
  sin.6237 = f32[1000,1000]{1,0} sine(sin.6236)
  sin.6238 = f32[1000,1000]{1,0} sine(sin.6237)
  sin.6239 = f32[1000,1000]{1,0} sine(sin.6238)
  sin.6240 = f32[1000,1000]{1,0} sine(sin.6239)
  sin.6241 = f32[1000,1000]{1,0} sine(sin.6240)
  sin.6242 = f32[1000,1000]{1,0} sine(sin.6241)
  sin.6243 = f32[1000,1000]{1,0} sine(sin.6242)
  sin.6244 = f32[1000,1000]{1,0} sine(sin.6243)
  sin.6245 = f32[1000,1000]{1,0} sine(sin.6244)
  sin.6246 = f32[1000,1000]{1,0} sine(sin.6245)
  sin.6247 = f32[1000,1000]{1,0} sine(sin.6246)
  sin.6248 = f32[1000,1000]{1,0} sine(sin.6247)
  sin.6249 = f32[1000,1000]{1,0} sine(sin.6248)
  sin.6250 = f32[1000,1000]{1,0} sine(sin.6249)
  sin.6251 = f32[1000,1000]{1,0} sine(sin.6250)
  sin.6252 = f32[1000,1000]{1,0} sine(sin.6251)
  sin.6253 = f32[1000,1000]{1,0} sine(sin.6252)
  sin.6254 = f32[1000,1000]{1,0} sine(sin.6253)
  sin.6255 = f32[1000,1000]{1,0} sine(sin.6254)
  sin.6256 = f32[1000,1000]{1,0} sine(sin.6255)
  sin.6257 = f32[1000,1000]{1,0} sine(sin.6256)
  sin.6258 = f32[1000,1000]{1,0} sine(sin.6257)
  sin.6259 = f32[1000,1000]{1,0} sine(sin.6258)
  sin.6260 = f32[1000,1000]{1,0} sine(sin.6259)
  sin.6261 = f32[1000,1000]{1,0} sine(sin.6260)
  sin.6262 = f32[1000,1000]{1,0} sine(sin.6261)
  sin.6263 = f32[1000,1000]{1,0} sine(sin.6262)
  sin.6264 = f32[1000,1000]{1,0} sine(sin.6263)
  sin.6265 = f32[1000,1000]{1,0} sine(sin.6264)
  sin.6266 = f32[1000,1000]{1,0} sine(sin.6265)
  sin.6267 = f32[1000,1000]{1,0} sine(sin.6266)
  sin.6268 = f32[1000,1000]{1,0} sine(sin.6267)
  sin.6269 = f32[1000,1000]{1,0} sine(sin.6268)
  sin.6270 = f32[1000,1000]{1,0} sine(sin.6269)
  sin.6271 = f32[1000,1000]{1,0} sine(sin.6270)
  sin.6272 = f32[1000,1000]{1,0} sine(sin.6271)
  sin.6273 = f32[1000,1000]{1,0} sine(sin.6272)
  sin.6274 = f32[1000,1000]{1,0} sine(sin.6273)
  cos.6226 = f32[1000,1000]{1,0} cosine(Arg_0.1)
  cos.6227 = f32[1000,1000]{1,0} cosine(cos.6226)
  cos.6228 = f32[1000,1000]{1,0} cosine(cos.6227)
  cos.6229 = f32[1000,1000]{1,0} cosine(cos.6228)
  cos.6230 = f32[1000,1000]{1,0} cosine(cos.6229)
  cos.6231 = f32[1000,1000]{1,0} cosine(cos.6230)
  cos.6232 = f32[1000,1000]{1,0} cosine(cos.6231)
  cos.6233 = f32[1000,1000]{1,0} cosine(cos.6232)
  cos.6234 = f32[1000,1000]{1,0} cosine(cos.6233)
  cos.6235 = f32[1000,1000]{1,0} cosine(cos.6234)
  cos.6236 = f32[1000,1000]{1,0} cosine(cos.6235)
  cos.6237 = f32[1000,1000]{1,0} cosine(cos.6236)
  cos.6238 = f32[1000,1000]{1,0} cosine(cos.6237)
  cos.6239 = f32[1000,1000]{1,0} cosine(cos.6238)
  cos.6240 = f32[1000,1000]{1,0} cosine(cos.6239)
  cos.6241 = f32[1000,1000]{1,0} cosine(cos.6240)
  cos.6242 = f32[1000,1000]{1,0} cosine(cos.6241)
  cos.6243 = f32[1000,1000]{1,0} cosine(cos.6242)
  cos.6244 = f32[1000,1000]{1,0} cosine(cos.6243)
  cos.6245 = f32[1000,1000]{1,0} cosine(cos.6244)
  cos.6246 = f32[1000,1000]{1,0} cosine(cos.6245)
  cos.6247 = f32[1000,1000]{1,0} cosine(cos.6246)
  cos.6248 = f32[1000,1000]{1,0} cosine(cos.6247)
  cos.6249 = f32[1000,1000]{1,0} cosine(cos.6248)
  cos.6250 = f32[1000,1000]{1,0} cosine(cos.6249)
  cos.6251 = f32[1000,1000]{1,0} cosine(cos.6250)
  cos.6252 = f32[1000,1000]{1,0} cosine(cos.6251)
  cos.6253 = f32[1000,1000]{1,0} cosine(cos.6252)
  cos.6254 = f32[1000,1000]{1,0} cosine(cos.6253)
  cos.6255 = f32[1000,1000]{1,0} cosine(cos.6254)
  cos.6256 = f32[1000,1000]{1,0} cosine(cos.6255)
  cos.6257 = f32[1000,1000]{1,0} cosine(cos.6256)
  cos.6258 = f32[1000,1000]{1,0} cosine(cos.6257)
  cos.6259 = f32[1000,1000]{1,0} cosine(cos.6258)
  cos.6260 = f32[1000,1000]{1,0} cosine(cos.6259)
  cos.6261 = f32[1000,1000]{1,0} cosine(cos.6260)
  cos.6262 = f32[1000,1000]{1,0} cosine(cos.6261)
  cos.6263 = f32[1000,1000]{1,0} cosine(cos.6262)
  cos.6264 = f32[1000,1000]{1,0} cosine(cos.6263)
  cos.6265 = f32[1000,1000]{1,0} cosine(cos.6264)
  cos.6266 = f32[1000,1000]{1,0} cosine(cos.6265)
  cos.6267 = f32[1000,1000]{1,0} cosine(cos.6266)
  cos.6268 = f32[1000,1000]{1,0} cosine(cos.6267)
  cos.6269 = f32[1000,1000]{1,0} cosine(cos.6268)
  cos.6270 = f32[1000,1000]{1,0} cosine(cos.6269)
  cos.6271 = f32[1000,1000]{1,0} cosine(cos.6270)
  cos.6272 = f32[1000,1000]{1,0} cosine(cos.6271)
  cos.6273 = f32[1000,1000]{1,0} cosine(cos.6272)
  cos.6274 = f32[1000,1000]{1,0} cosine(cos.6273)
  add.294 = f32[1000,1000]{1,0} add(sin.6274, cos.6274)
  add.295 = f32[1000,1000]{1,0} add(add.293, add.294)
  sin.6275 = f32[1000,1000]{1,0} sine(Arg_0.1)
  sin.6276 = f32[1000,1000]{1,0} sine(sin.6275)
  sin.6277 = f32[1000,1000]{1,0} sine(sin.6276)
  sin.6278 = f32[1000,1000]{1,0} sine(sin.6277)
  sin.6279 = f32[1000,1000]{1,0} sine(sin.6278)
  sin.6280 = f32[1000,1000]{1,0} sine(sin.6279)
  sin.6281 = f32[1000,1000]{1,0} sine(sin.6280)
  sin.6282 = f32[1000,1000]{1,0} sine(sin.6281)
  sin.6283 = f32[1000,1000]{1,0} sine(sin.6282)
  sin.6284 = f32[1000,1000]{1,0} sine(sin.6283)
  sin.6285 = f32[1000,1000]{1,0} sine(sin.6284)
  sin.6286 = f32[1000,1000]{1,0} sine(sin.6285)
  sin.6287 = f32[1000,1000]{1,0} sine(sin.6286)
  sin.6288 = f32[1000,1000]{1,0} sine(sin.6287)
  sin.6289 = f32[1000,1000]{1,0} sine(sin.6288)
  sin.6290 = f32[1000,1000]{1,0} sine(sin.6289)
  sin.6291 = f32[1000,1000]{1,0} sine(sin.6290)
  sin.6292 = f32[1000,1000]{1,0} sine(sin.6291)
  sin.6293 = f32[1000,1000]{1,0} sine(sin.6292)
  sin.6294 = f32[1000,1000]{1,0} sine(sin.6293)
  sin.6295 = f32[1000,1000]{1,0} sine(sin.6294)
  sin.6296 = f32[1000,1000]{1,0} sine(sin.6295)
  sin.6297 = f32[1000,1000]{1,0} sine(sin.6296)
  sin.6298 = f32[1000,1000]{1,0} sine(sin.6297)
  sin.6299 = f32[1000,1000]{1,0} sine(sin.6298)
  sin.6300 = f32[1000,1000]{1,0} sine(sin.6299)
  sin.6301 = f32[1000,1000]{1,0} sine(sin.6300)
  sin.6302 = f32[1000,1000]{1,0} sine(sin.6301)
  sin.6303 = f32[1000,1000]{1,0} sine(sin.6302)
  sin.6304 = f32[1000,1000]{1,0} sine(sin.6303)
  sin.6305 = f32[1000,1000]{1,0} sine(sin.6304)
  sin.6306 = f32[1000,1000]{1,0} sine(sin.6305)
  sin.6307 = f32[1000,1000]{1,0} sine(sin.6306)
  sin.6308 = f32[1000,1000]{1,0} sine(sin.6307)
  sin.6309 = f32[1000,1000]{1,0} sine(sin.6308)
  sin.6310 = f32[1000,1000]{1,0} sine(sin.6309)
  sin.6311 = f32[1000,1000]{1,0} sine(sin.6310)
  sin.6312 = f32[1000,1000]{1,0} sine(sin.6311)
  sin.6313 = f32[1000,1000]{1,0} sine(sin.6312)
  sin.6314 = f32[1000,1000]{1,0} sine(sin.6313)
  sin.6315 = f32[1000,1000]{1,0} sine(sin.6314)
  sin.6316 = f32[1000,1000]{1,0} sine(sin.6315)
  sin.6317 = f32[1000,1000]{1,0} sine(sin.6316)
  sin.6318 = f32[1000,1000]{1,0} sine(sin.6317)
  sin.6319 = f32[1000,1000]{1,0} sine(sin.6318)
  sin.6320 = f32[1000,1000]{1,0} sine(sin.6319)
  sin.6321 = f32[1000,1000]{1,0} sine(sin.6320)
  sin.6322 = f32[1000,1000]{1,0} sine(sin.6321)
  sin.6323 = f32[1000,1000]{1,0} sine(sin.6322)
  sin.6324 = f32[1000,1000]{1,0} sine(sin.6323)
  cos.6275 = f32[1000,1000]{1,0} cosine(Arg_0.1)
  cos.6276 = f32[1000,1000]{1,0} cosine(cos.6275)
  cos.6277 = f32[1000,1000]{1,0} cosine(cos.6276)
  cos.6278 = f32[1000,1000]{1,0} cosine(cos.6277)
  cos.6279 = f32[1000,1000]{1,0} cosine(cos.6278)
  cos.6280 = f32[1000,1000]{1,0} cosine(cos.6279)
  cos.6281 = f32[1000,1000]{1,0} cosine(cos.6280)
  cos.6282 = f32[1000,1000]{1,0} cosine(cos.6281)
  cos.6283 = f32[1000,1000]{1,0} cosine(cos.6282)
  cos.6284 = f32[1000,1000]{1,0} cosine(cos.6283)
  cos.6285 = f32[1000,1000]{1,0} cosine(cos.6284)
  cos.6286 = f32[1000,1000]{1,0} cosine(cos.6285)
  cos.6287 = f32[1000,1000]{1,0} cosine(cos.6286)
  cos.6288 = f32[1000,1000]{1,0} cosine(cos.6287)
  cos.6289 = f32[1000,1000]{1,0} cosine(cos.6288)
  cos.6290 = f32[1000,1000]{1,0} cosine(cos.6289)
  cos.6291 = f32[1000,1000]{1,0} cosine(cos.6290)
  cos.6292 = f32[1000,1000]{1,0} cosine(cos.6291)
  cos.6293 = f32[1000,1000]{1,0} cosine(cos.6292)
  cos.6294 = f32[1000,1000]{1,0} cosine(cos.6293)
  cos.6295 = f32[1000,1000]{1,0} cosine(cos.6294)
  cos.6296 = f32[1000,1000]{1,0} cosine(cos.6295)
  cos.6297 = f32[1000,1000]{1,0} cosine(cos.6296)
  cos.6298 = f32[1000,1000]{1,0} cosine(cos.6297)
  cos.6299 = f32[1000,1000]{1,0} cosine(cos.6298)
  cos.6300 = f32[1000,1000]{1,0} cosine(cos.6299)
  cos.6301 = f32[1000,1000]{1,0} cosine(cos.6300)
  cos.6302 = f32[1000,1000]{1,0} cosine(cos.6301)
  cos.6303 = f32[1000,1000]{1,0} cosine(cos.6302)
  cos.6304 = f32[1000,1000]{1,0} cosine(cos.6303)
  cos.6305 = f32[1000,1000]{1,0} cosine(cos.6304)
  cos.6306 = f32[1000,1000]{1,0} cosine(cos.6305)
  cos.6307 = f32[1000,1000]{1,0} cosine(cos.6306)
  cos.6308 = f32[1000,1000]{1,0} cosine(cos.6307)
  cos.6309 = f32[1000,1000]{1,0} cosine(cos.6308)
  cos.6310 = f32[1000,1000]{1,0} cosine(cos.6309)
  cos.6311 = f32[1000,1000]{1,0} cosine(cos.6310)
  cos.6312 = f32[1000,1000]{1,0} cosine(cos.6311)
  cos.6313 = f32[1000,1000]{1,0} cosine(cos.6312)
  cos.6314 = f32[1000,1000]{1,0} cosine(cos.6313)
  cos.6315 = f32[1000,1000]{1,0} cosine(cos.6314)
  cos.6316 = f32[1000,1000]{1,0} cosine(cos.6315)
  cos.6317 = f32[1000,1000]{1,0} cosine(cos.6316)
  cos.6318 = f32[1000,1000]{1,0} cosine(cos.6317)
  cos.6319 = f32[1000,1000]{1,0} cosine(cos.6318)
  cos.6320 = f32[1000,1000]{1,0} cosine(cos.6319)
  cos.6321 = f32[1000,1000]{1,0} cosine(cos.6320)
  cos.6322 = f32[1000,1000]{1,0} cosine(cos.6321)
  cos.6323 = f32[1000,1000]{1,0} cosine(cos.6322)
  cos.6324 = f32[1000,1000]{1,0} cosine(cos.6323)
  add.296 = f32[1000,1000]{1,0} add(sin.6324, cos.6324)
  add.297 = f32[1000,1000]{1,0} add(add.295, add.296)
  sin.6325 = f32[1000,1000]{1,0} sine(Arg_0.1)
  sin.6326 = f32[1000,1000]{1,0} sine(sin.6325)
  sin.6327 = f32[1000,1000]{1,0} sine(sin.6326)
  sin.6328 = f32[1000,1000]{1,0} sine(sin.6327)
  sin.6329 = f32[1000,1000]{1,0} sine(sin.6328)
  sin.6330 = f32[1000,1000]{1,0} sine(sin.6329)
  sin.6331 = f32[1000,1000]{1,0} sine(sin.6330)
  sin.6332 = f32[1000,1000]{1,0} sine(sin.6331)
  sin.6333 = f32[1000,1000]{1,0} sine(sin.6332)
  sin.6334 = f32[1000,1000]{1,0} sine(sin.6333)
  sin.6335 = f32[1000,1000]{1,0} sine(sin.6334)
  sin.6336 = f32[1000,1000]{1,0} sine(sin.6335)
  sin.6337 = f32[1000,1000]{1,0} sine(sin.6336)
  sin.6338 = f32[1000,1000]{1,0} sine(sin.6337)
  sin.6339 = f32[1000,1000]{1,0} sine(sin.6338)
  sin.6340 = f32[1000,1000]{1,0} sine(sin.6339)
  sin.6341 = f32[1000,1000]{1,0} sine(sin.6340)
  sin.6342 = f32[1000,1000]{1,0} sine(sin.6341)
  sin.6343 = f32[1000,1000]{1,0} sine(sin.6342)
  sin.6344 = f32[1000,1000]{1,0} sine(sin.6343)
  sin.6345 = f32[1000,1000]{1,0} sine(sin.6344)
  sin.6346 = f32[1000,1000]{1,0} sine(sin.6345)
  sin.6347 = f32[1000,1000]{1,0} sine(sin.6346)
  sin.6348 = f32[1000,1000]{1,0} sine(sin.6347)
  sin.6349 = f32[1000,1000]{1,0} sine(sin.6348)
  sin.6350 = f32[1000,1000]{1,0} sine(sin.6349)
  sin.6351 = f32[1000,1000]{1,0} sine(sin.6350)
  sin.6352 = f32[1000,1000]{1,0} sine(sin.6351)
  sin.6353 = f32[1000,1000]{1,0} sine(sin.6352)
  sin.6354 = f32[1000,1000]{1,0} sine(sin.6353)
  sin.6355 = f32[1000,1000]{1,0} sine(sin.6354)
  sin.6356 = f32[1000,1000]{1,0} sine(sin.6355)
  sin.6357 = f32[1000,1000]{1,0} sine(sin.6356)
  sin.6358 = f32[1000,1000]{1,0} sine(sin.6357)
  sin.6359 = f32[1000,1000]{1,0} sine(sin.6358)
  sin.6360 = f32[1000,1000]{1,0} sine(sin.6359)
  sin.6361 = f32[1000,1000]{1,0} sine(sin.6360)
  sin.6362 = f32[1000,1000]{1,0} sine(sin.6361)
  sin.6363 = f32[1000,1000]{1,0} sine(sin.6362)
  sin.6364 = f32[1000,1000]{1,0} sine(sin.6363)
  sin.6365 = f32[1000,1000]{1,0} sine(sin.6364)
  sin.6366 = f32[1000,1000]{1,0} sine(sin.6365)
  sin.6367 = f32[1000,1000]{1,0} sine(sin.6366)
  sin.6368 = f32[1000,1000]{1,0} sine(sin.6367)
  sin.6369 = f32[1000,1000]{1,0} sine(sin.6368)
  sin.6370 = f32[1000,1000]{1,0} sine(sin.6369)
  sin.6371 = f32[1000,1000]{1,0} sine(sin.6370)
  sin.6372 = f32[1000,1000]{1,0} sine(sin.6371)
  sin.6373 = f32[1000,1000]{1,0} sine(sin.6372)
  sin.6374 = f32[1000,1000]{1,0} sine(sin.6373)
  sin.6375 = f32[1000,1000]{1,0} sine(sin.6374)
  cos.6325 = f32[1000,1000]{1,0} cosine(Arg_0.1)
  cos.6326 = f32[1000,1000]{1,0} cosine(cos.6325)
  cos.6327 = f32[1000,1000]{1,0} cosine(cos.6326)
  cos.6328 = f32[1000,1000]{1,0} cosine(cos.6327)
  cos.6329 = f32[1000,1000]{1,0} cosine(cos.6328)
  cos.6330 = f32[1000,1000]{1,0} cosine(cos.6329)
  cos.6331 = f32[1000,1000]{1,0} cosine(cos.6330)
  cos.6332 = f32[1000,1000]{1,0} cosine(cos.6331)
  cos.6333 = f32[1000,1000]{1,0} cosine(cos.6332)
  cos.6334 = f32[1000,1000]{1,0} cosine(cos.6333)
  cos.6335 = f32[1000,1000]{1,0} cosine(cos.6334)
  cos.6336 = f32[1000,1000]{1,0} cosine(cos.6335)
  cos.6337 = f32[1000,1000]{1,0} cosine(cos.6336)
  cos.6338 = f32[1000,1000]{1,0} cosine(cos.6337)
  cos.6339 = f32[1000,1000]{1,0} cosine(cos.6338)
  cos.6340 = f32[1000,1000]{1,0} cosine(cos.6339)
  cos.6341 = f32[1000,1000]{1,0} cosine(cos.6340)
  cos.6342 = f32[1000,1000]{1,0} cosine(cos.6341)
  cos.6343 = f32[1000,1000]{1,0} cosine(cos.6342)
  cos.6344 = f32[1000,1000]{1,0} cosine(cos.6343)
  cos.6345 = f32[1000,1000]{1,0} cosine(cos.6344)
  cos.6346 = f32[1000,1000]{1,0} cosine(cos.6345)
  cos.6347 = f32[1000,1000]{1,0} cosine(cos.6346)
  cos.6348 = f32[1000,1000]{1,0} cosine(cos.6347)
  cos.6349 = f32[1000,1000]{1,0} cosine(cos.6348)
  cos.6350 = f32[1000,1000]{1,0} cosine(cos.6349)
  cos.6351 = f32[1000,1000]{1,0} cosine(cos.6350)
  cos.6352 = f32[1000,1000]{1,0} cosine(cos.6351)
  cos.6353 = f32[1000,1000]{1,0} cosine(cos.6352)
  cos.6354 = f32[1000,1000]{1,0} cosine(cos.6353)
  cos.6355 = f32[1000,1000]{1,0} cosine(cos.6354)
  cos.6356 = f32[1000,1000]{1,0} cosine(cos.6355)
  cos.6357 = f32[1000,1000]{1,0} cosine(cos.6356)
  cos.6358 = f32[1000,1000]{1,0} cosine(cos.6357)
  cos.6359 = f32[1000,1000]{1,0} cosine(cos.6358)
  cos.6360 = f32[1000,1000]{1,0} cosine(cos.6359)
  cos.6361 = f32[1000,1000]{1,0} cosine(cos.6360)
  cos.6362 = f32[1000,1000]{1,0} cosine(cos.6361)
  cos.6363 = f32[1000,1000]{1,0} cosine(cos.6362)
  cos.6364 = f32[1000,1000]{1,0} cosine(cos.6363)
  cos.6365 = f32[1000,1000]{1,0} cosine(cos.6364)
  cos.6366 = f32[1000,1000]{1,0} cosine(cos.6365)
  cos.6367 = f32[1000,1000]{1,0} cosine(cos.6366)
  cos.6368 = f32[1000,1000]{1,0} cosine(cos.6367)
  cos.6369 = f32[1000,1000]{1,0} cosine(cos.6368)
  cos.6370 = f32[1000,1000]{1,0} cosine(cos.6369)
  cos.6371 = f32[1000,1000]{1,0} cosine(cos.6370)
  cos.6372 = f32[1000,1000]{1,0} cosine(cos.6371)
  cos.6373 = f32[1000,1000]{1,0} cosine(cos.6372)
  cos.6374 = f32[1000,1000]{1,0} cosine(cos.6373)
  cos.6375 = f32[1000,1000]{1,0} cosine(cos.6374)
  add.298 = f32[1000,1000]{1,0} add(sin.6375, cos.6375)
  add.299 = f32[1000,1000]{1,0} add(add.297, add.298)
  sin.6376 = f32[1000,1000]{1,0} sine(Arg_0.1)
  sin.6377 = f32[1000,1000]{1,0} sine(sin.6376)
  sin.6378 = f32[1000,1000]{1,0} sine(sin.6377)
  sin.6379 = f32[1000,1000]{1,0} sine(sin.6378)
  sin.6380 = f32[1000,1000]{1,0} sine(sin.6379)
  sin.6381 = f32[1000,1000]{1,0} sine(sin.6380)
  sin.6382 = f32[1000,1000]{1,0} sine(sin.6381)
  sin.6383 = f32[1000,1000]{1,0} sine(sin.6382)
  sin.6384 = f32[1000,1000]{1,0} sine(sin.6383)
  sin.6385 = f32[1000,1000]{1,0} sine(sin.6384)
  sin.6386 = f32[1000,1000]{1,0} sine(sin.6385)
  sin.6387 = f32[1000,1000]{1,0} sine(sin.6386)
  sin.6388 = f32[1000,1000]{1,0} sine(sin.6387)
  sin.6389 = f32[1000,1000]{1,0} sine(sin.6388)
  sin.6390 = f32[1000,1000]{1,0} sine(sin.6389)
  sin.6391 = f32[1000,1000]{1,0} sine(sin.6390)
  sin.6392 = f32[1000,1000]{1,0} sine(sin.6391)
  sin.6393 = f32[1000,1000]{1,0} sine(sin.6392)
  sin.6394 = f32[1000,1000]{1,0} sine(sin.6393)
  sin.6395 = f32[1000,1000]{1,0} sine(sin.6394)
  sin.6396 = f32[1000,1000]{1,0} sine(sin.6395)
  sin.6397 = f32[1000,1000]{1,0} sine(sin.6396)
  sin.6398 = f32[1000,1000]{1,0} sine(sin.6397)
  sin.6399 = f32[1000,1000]{1,0} sine(sin.6398)
  sin.6400 = f32[1000,1000]{1,0} sine(sin.6399)
  sin.6401 = f32[1000,1000]{1,0} sine(sin.6400)
  sin.6402 = f32[1000,1000]{1,0} sine(sin.6401)
  sin.6403 = f32[1000,1000]{1,0} sine(sin.6402)
  sin.6404 = f32[1000,1000]{1,0} sine(sin.6403)
  sin.6405 = f32[1000,1000]{1,0} sine(sin.6404)
  sin.6406 = f32[1000,1000]{1,0} sine(sin.6405)
  sin.6407 = f32[1000,1000]{1,0} sine(sin.6406)
  sin.6408 = f32[1000,1000]{1,0} sine(sin.6407)
  sin.6409 = f32[1000,1000]{1,0} sine(sin.6408)
  sin.6410 = f32[1000,1000]{1,0} sine(sin.6409)
  sin.6411 = f32[1000,1000]{1,0} sine(sin.6410)
  sin.6412 = f32[1000,1000]{1,0} sine(sin.6411)
  sin.6413 = f32[1000,1000]{1,0} sine(sin.6412)
  sin.6414 = f32[1000,1000]{1,0} sine(sin.6413)
  sin.6415 = f32[1000,1000]{1,0} sine(sin.6414)
  sin.6416 = f32[1000,1000]{1,0} sine(sin.6415)
  sin.6417 = f32[1000,1000]{1,0} sine(sin.6416)
  sin.6418 = f32[1000,1000]{1,0} sine(sin.6417)
  sin.6419 = f32[1000,1000]{1,0} sine(sin.6418)
  sin.6420 = f32[1000,1000]{1,0} sine(sin.6419)
  sin.6421 = f32[1000,1000]{1,0} sine(sin.6420)
  sin.6422 = f32[1000,1000]{1,0} sine(sin.6421)
  sin.6423 = f32[1000,1000]{1,0} sine(sin.6422)
  sin.6424 = f32[1000,1000]{1,0} sine(sin.6423)
  sin.6425 = f32[1000,1000]{1,0} sine(sin.6424)
  sin.6426 = f32[1000,1000]{1,0} sine(sin.6425)
  sin.6427 = f32[1000,1000]{1,0} sine(sin.6426)
  cos.6376 = f32[1000,1000]{1,0} cosine(Arg_0.1)
  cos.6377 = f32[1000,1000]{1,0} cosine(cos.6376)
  cos.6378 = f32[1000,1000]{1,0} cosine(cos.6377)
  cos.6379 = f32[1000,1000]{1,0} cosine(cos.6378)
  cos.6380 = f32[1000,1000]{1,0} cosine(cos.6379)
  cos.6381 = f32[1000,1000]{1,0} cosine(cos.6380)
  cos.6382 = f32[1000,1000]{1,0} cosine(cos.6381)
  cos.6383 = f32[1000,1000]{1,0} cosine(cos.6382)
  cos.6384 = f32[1000,1000]{1,0} cosine(cos.6383)
  cos.6385 = f32[1000,1000]{1,0} cosine(cos.6384)
  cos.6386 = f32[1000,1000]{1,0} cosine(cos.6385)
  cos.6387 = f32[1000,1000]{1,0} cosine(cos.6386)
  cos.6388 = f32[1000,1000]{1,0} cosine(cos.6387)
  cos.6389 = f32[1000,1000]{1,0} cosine(cos.6388)
  cos.6390 = f32[1000,1000]{1,0} cosine(cos.6389)
  cos.6391 = f32[1000,1000]{1,0} cosine(cos.6390)
  cos.6392 = f32[1000,1000]{1,0} cosine(cos.6391)
  cos.6393 = f32[1000,1000]{1,0} cosine(cos.6392)
  cos.6394 = f32[1000,1000]{1,0} cosine(cos.6393)
  cos.6395 = f32[1000,1000]{1,0} cosine(cos.6394)
  cos.6396 = f32[1000,1000]{1,0} cosine(cos.6395)
  cos.6397 = f32[1000,1000]{1,0} cosine(cos.6396)
  cos.6398 = f32[1000,1000]{1,0} cosine(cos.6397)
  cos.6399 = f32[1000,1000]{1,0} cosine(cos.6398)
  cos.6400 = f32[1000,1000]{1,0} cosine(cos.6399)
  cos.6401 = f32[1000,1000]{1,0} cosine(cos.6400)
  cos.6402 = f32[1000,1000]{1,0} cosine(cos.6401)
  cos.6403 = f32[1000,1000]{1,0} cosine(cos.6402)
  cos.6404 = f32[1000,1000]{1,0} cosine(cos.6403)
  cos.6405 = f32[1000,1000]{1,0} cosine(cos.6404)
  cos.6406 = f32[1000,1000]{1,0} cosine(cos.6405)
  cos.6407 = f32[1000,1000]{1,0} cosine(cos.6406)
  cos.6408 = f32[1000,1000]{1,0} cosine(cos.6407)
  cos.6409 = f32[1000,1000]{1,0} cosine(cos.6408)
  cos.6410 = f32[1000,1000]{1,0} cosine(cos.6409)
  cos.6411 = f32[1000,1000]{1,0} cosine(cos.6410)
  cos.6412 = f32[1000,1000]{1,0} cosine(cos.6411)
  cos.6413 = f32[1000,1000]{1,0} cosine(cos.6412)
  cos.6414 = f32[1000,1000]{1,0} cosine(cos.6413)
  cos.6415 = f32[1000,1000]{1,0} cosine(cos.6414)
  cos.6416 = f32[1000,1000]{1,0} cosine(cos.6415)
  cos.6417 = f32[1000,1000]{1,0} cosine(cos.6416)
  cos.6418 = f32[1000,1000]{1,0} cosine(cos.6417)
  cos.6419 = f32[1000,1000]{1,0} cosine(cos.6418)
  cos.6420 = f32[1000,1000]{1,0} cosine(cos.6419)
  cos.6421 = f32[1000,1000]{1,0} cosine(cos.6420)
  cos.6422 = f32[1000,1000]{1,0} cosine(cos.6421)
  cos.6423 = f32[1000,1000]{1,0} cosine(cos.6422)
  cos.6424 = f32[1000,1000]{1,0} cosine(cos.6423)
  cos.6425 = f32[1000,1000]{1,0} cosine(cos.6424)
  cos.6426 = f32[1000,1000]{1,0} cosine(cos.6425)
  cos.6427 = f32[1000,1000]{1,0} cosine(cos.6426)
  add.300 = f32[1000,1000]{1,0} add(sin.6427, cos.6427)
  add.301 = f32[1000,1000]{1,0} add(add.299, add.300)
  sin.6428 = f32[1000,1000]{1,0} sine(Arg_0.1)
  sin.6429 = f32[1000,1000]{1,0} sine(sin.6428)
  sin.6430 = f32[1000,1000]{1,0} sine(sin.6429)
  sin.6431 = f32[1000,1000]{1,0} sine(sin.6430)
  sin.6432 = f32[1000,1000]{1,0} sine(sin.6431)
  sin.6433 = f32[1000,1000]{1,0} sine(sin.6432)
  sin.6434 = f32[1000,1000]{1,0} sine(sin.6433)
  sin.6435 = f32[1000,1000]{1,0} sine(sin.6434)
  sin.6436 = f32[1000,1000]{1,0} sine(sin.6435)
  sin.6437 = f32[1000,1000]{1,0} sine(sin.6436)
  sin.6438 = f32[1000,1000]{1,0} sine(sin.6437)
  sin.6439 = f32[1000,1000]{1,0} sine(sin.6438)
  sin.6440 = f32[1000,1000]{1,0} sine(sin.6439)
  sin.6441 = f32[1000,1000]{1,0} sine(sin.6440)
  sin.6442 = f32[1000,1000]{1,0} sine(sin.6441)
  sin.6443 = f32[1000,1000]{1,0} sine(sin.6442)
  sin.6444 = f32[1000,1000]{1,0} sine(sin.6443)
  sin.6445 = f32[1000,1000]{1,0} sine(sin.6444)
  sin.6446 = f32[1000,1000]{1,0} sine(sin.6445)
  sin.6447 = f32[1000,1000]{1,0} sine(sin.6446)
  sin.6448 = f32[1000,1000]{1,0} sine(sin.6447)
  sin.6449 = f32[1000,1000]{1,0} sine(sin.6448)
  sin.6450 = f32[1000,1000]{1,0} sine(sin.6449)
  sin.6451 = f32[1000,1000]{1,0} sine(sin.6450)
  sin.6452 = f32[1000,1000]{1,0} sine(sin.6451)
  sin.6453 = f32[1000,1000]{1,0} sine(sin.6452)
  sin.6454 = f32[1000,1000]{1,0} sine(sin.6453)
  sin.6455 = f32[1000,1000]{1,0} sine(sin.6454)
  sin.6456 = f32[1000,1000]{1,0} sine(sin.6455)
  sin.6457 = f32[1000,1000]{1,0} sine(sin.6456)
  sin.6458 = f32[1000,1000]{1,0} sine(sin.6457)
  sin.6459 = f32[1000,1000]{1,0} sine(sin.6458)
  sin.6460 = f32[1000,1000]{1,0} sine(sin.6459)
  sin.6461 = f32[1000,1000]{1,0} sine(sin.6460)
  sin.6462 = f32[1000,1000]{1,0} sine(sin.6461)
  sin.6463 = f32[1000,1000]{1,0} sine(sin.6462)
  sin.6464 = f32[1000,1000]{1,0} sine(sin.6463)
  sin.6465 = f32[1000,1000]{1,0} sine(sin.6464)
  sin.6466 = f32[1000,1000]{1,0} sine(sin.6465)
  sin.6467 = f32[1000,1000]{1,0} sine(sin.6466)
  sin.6468 = f32[1000,1000]{1,0} sine(sin.6467)
  sin.6469 = f32[1000,1000]{1,0} sine(sin.6468)
  sin.6470 = f32[1000,1000]{1,0} sine(sin.6469)
  sin.6471 = f32[1000,1000]{1,0} sine(sin.6470)
  sin.6472 = f32[1000,1000]{1,0} sine(sin.6471)
  sin.6473 = f32[1000,1000]{1,0} sine(sin.6472)
  sin.6474 = f32[1000,1000]{1,0} sine(sin.6473)
  sin.6475 = f32[1000,1000]{1,0} sine(sin.6474)
  sin.6476 = f32[1000,1000]{1,0} sine(sin.6475)
  sin.6477 = f32[1000,1000]{1,0} sine(sin.6476)
  sin.6478 = f32[1000,1000]{1,0} sine(sin.6477)
  sin.6479 = f32[1000,1000]{1,0} sine(sin.6478)
  sin.6480 = f32[1000,1000]{1,0} sine(sin.6479)
  cos.6428 = f32[1000,1000]{1,0} cosine(Arg_0.1)
  cos.6429 = f32[1000,1000]{1,0} cosine(cos.6428)
  cos.6430 = f32[1000,1000]{1,0} cosine(cos.6429)
  cos.6431 = f32[1000,1000]{1,0} cosine(cos.6430)
  cos.6432 = f32[1000,1000]{1,0} cosine(cos.6431)
  cos.6433 = f32[1000,1000]{1,0} cosine(cos.6432)
  cos.6434 = f32[1000,1000]{1,0} cosine(cos.6433)
  cos.6435 = f32[1000,1000]{1,0} cosine(cos.6434)
  cos.6436 = f32[1000,1000]{1,0} cosine(cos.6435)
  cos.6437 = f32[1000,1000]{1,0} cosine(cos.6436)
  cos.6438 = f32[1000,1000]{1,0} cosine(cos.6437)
  cos.6439 = f32[1000,1000]{1,0} cosine(cos.6438)
  cos.6440 = f32[1000,1000]{1,0} cosine(cos.6439)
  cos.6441 = f32[1000,1000]{1,0} cosine(cos.6440)
  cos.6442 = f32[1000,1000]{1,0} cosine(cos.6441)
  cos.6443 = f32[1000,1000]{1,0} cosine(cos.6442)
  cos.6444 = f32[1000,1000]{1,0} cosine(cos.6443)
  cos.6445 = f32[1000,1000]{1,0} cosine(cos.6444)
  cos.6446 = f32[1000,1000]{1,0} cosine(cos.6445)
  cos.6447 = f32[1000,1000]{1,0} cosine(cos.6446)
  cos.6448 = f32[1000,1000]{1,0} cosine(cos.6447)
  cos.6449 = f32[1000,1000]{1,0} cosine(cos.6448)
  cos.6450 = f32[1000,1000]{1,0} cosine(cos.6449)
  cos.6451 = f32[1000,1000]{1,0} cosine(cos.6450)
  cos.6452 = f32[1000,1000]{1,0} cosine(cos.6451)
  cos.6453 = f32[1000,1000]{1,0} cosine(cos.6452)
  cos.6454 = f32[1000,1000]{1,0} cosine(cos.6453)
  cos.6455 = f32[1000,1000]{1,0} cosine(cos.6454)
  cos.6456 = f32[1000,1000]{1,0} cosine(cos.6455)
  cos.6457 = f32[1000,1000]{1,0} cosine(cos.6456)
  cos.6458 = f32[1000,1000]{1,0} cosine(cos.6457)
  cos.6459 = f32[1000,1000]{1,0} cosine(cos.6458)
  cos.6460 = f32[1000,1000]{1,0} cosine(cos.6459)
  cos.6461 = f32[1000,1000]{1,0} cosine(cos.6460)
  cos.6462 = f32[1000,1000]{1,0} cosine(cos.6461)
  cos.6463 = f32[1000,1000]{1,0} cosine(cos.6462)
  cos.6464 = f32[1000,1000]{1,0} cosine(cos.6463)
  cos.6465 = f32[1000,1000]{1,0} cosine(cos.6464)
  cos.6466 = f32[1000,1000]{1,0} cosine(cos.6465)
  cos.6467 = f32[1000,1000]{1,0} cosine(cos.6466)
  cos.6468 = f32[1000,1000]{1,0} cosine(cos.6467)
  cos.6469 = f32[1000,1000]{1,0} cosine(cos.6468)
  cos.6470 = f32[1000,1000]{1,0} cosine(cos.6469)
  cos.6471 = f32[1000,1000]{1,0} cosine(cos.6470)
  cos.6472 = f32[1000,1000]{1,0} cosine(cos.6471)
  cos.6473 = f32[1000,1000]{1,0} cosine(cos.6472)
  cos.6474 = f32[1000,1000]{1,0} cosine(cos.6473)
  cos.6475 = f32[1000,1000]{1,0} cosine(cos.6474)
  cos.6476 = f32[1000,1000]{1,0} cosine(cos.6475)
  cos.6477 = f32[1000,1000]{1,0} cosine(cos.6476)
  cos.6478 = f32[1000,1000]{1,0} cosine(cos.6477)
  cos.6479 = f32[1000,1000]{1,0} cosine(cos.6478)
  cos.6480 = f32[1000,1000]{1,0} cosine(cos.6479)
  add.302 = f32[1000,1000]{1,0} add(sin.6480, cos.6480)
  add.303 = f32[1000,1000]{1,0} add(add.301, add.302)
  sin.6481 = f32[1000,1000]{1,0} sine(Arg_0.1)
  sin.6482 = f32[1000,1000]{1,0} sine(sin.6481)
  sin.6483 = f32[1000,1000]{1,0} sine(sin.6482)
  sin.6484 = f32[1000,1000]{1,0} sine(sin.6483)
  sin.6485 = f32[1000,1000]{1,0} sine(sin.6484)
  sin.6486 = f32[1000,1000]{1,0} sine(sin.6485)
  sin.6487 = f32[1000,1000]{1,0} sine(sin.6486)
  sin.6488 = f32[1000,1000]{1,0} sine(sin.6487)
  sin.6489 = f32[1000,1000]{1,0} sine(sin.6488)
  sin.6490 = f32[1000,1000]{1,0} sine(sin.6489)
  sin.6491 = f32[1000,1000]{1,0} sine(sin.6490)
  sin.6492 = f32[1000,1000]{1,0} sine(sin.6491)
  sin.6493 = f32[1000,1000]{1,0} sine(sin.6492)
  sin.6494 = f32[1000,1000]{1,0} sine(sin.6493)
  sin.6495 = f32[1000,1000]{1,0} sine(sin.6494)
  sin.6496 = f32[1000,1000]{1,0} sine(sin.6495)
  sin.6497 = f32[1000,1000]{1,0} sine(sin.6496)
  sin.6498 = f32[1000,1000]{1,0} sine(sin.6497)
  sin.6499 = f32[1000,1000]{1,0} sine(sin.6498)
  sin.6500 = f32[1000,1000]{1,0} sine(sin.6499)
  sin.6501 = f32[1000,1000]{1,0} sine(sin.6500)
  sin.6502 = f32[1000,1000]{1,0} sine(sin.6501)
  sin.6503 = f32[1000,1000]{1,0} sine(sin.6502)
  sin.6504 = f32[1000,1000]{1,0} sine(sin.6503)
  sin.6505 = f32[1000,1000]{1,0} sine(sin.6504)
  sin.6506 = f32[1000,1000]{1,0} sine(sin.6505)
  sin.6507 = f32[1000,1000]{1,0} sine(sin.6506)
  sin.6508 = f32[1000,1000]{1,0} sine(sin.6507)
  sin.6509 = f32[1000,1000]{1,0} sine(sin.6508)
  sin.6510 = f32[1000,1000]{1,0} sine(sin.6509)
  sin.6511 = f32[1000,1000]{1,0} sine(sin.6510)
  sin.6512 = f32[1000,1000]{1,0} sine(sin.6511)
  sin.6513 = f32[1000,1000]{1,0} sine(sin.6512)
  sin.6514 = f32[1000,1000]{1,0} sine(sin.6513)
  sin.6515 = f32[1000,1000]{1,0} sine(sin.6514)
  sin.6516 = f32[1000,1000]{1,0} sine(sin.6515)
  sin.6517 = f32[1000,1000]{1,0} sine(sin.6516)
  sin.6518 = f32[1000,1000]{1,0} sine(sin.6517)
  sin.6519 = f32[1000,1000]{1,0} sine(sin.6518)
  sin.6520 = f32[1000,1000]{1,0} sine(sin.6519)
  sin.6521 = f32[1000,1000]{1,0} sine(sin.6520)
  sin.6522 = f32[1000,1000]{1,0} sine(sin.6521)
  sin.6523 = f32[1000,1000]{1,0} sine(sin.6522)
  sin.6524 = f32[1000,1000]{1,0} sine(sin.6523)
  sin.6525 = f32[1000,1000]{1,0} sine(sin.6524)
  sin.6526 = f32[1000,1000]{1,0} sine(sin.6525)
  sin.6527 = f32[1000,1000]{1,0} sine(sin.6526)
  sin.6528 = f32[1000,1000]{1,0} sine(sin.6527)
  sin.6529 = f32[1000,1000]{1,0} sine(sin.6528)
  sin.6530 = f32[1000,1000]{1,0} sine(sin.6529)
  sin.6531 = f32[1000,1000]{1,0} sine(sin.6530)
  sin.6532 = f32[1000,1000]{1,0} sine(sin.6531)
  sin.6533 = f32[1000,1000]{1,0} sine(sin.6532)
  sin.6534 = f32[1000,1000]{1,0} sine(sin.6533)
  cos.6481 = f32[1000,1000]{1,0} cosine(Arg_0.1)
  cos.6482 = f32[1000,1000]{1,0} cosine(cos.6481)
  cos.6483 = f32[1000,1000]{1,0} cosine(cos.6482)
  cos.6484 = f32[1000,1000]{1,0} cosine(cos.6483)
  cos.6485 = f32[1000,1000]{1,0} cosine(cos.6484)
  cos.6486 = f32[1000,1000]{1,0} cosine(cos.6485)
  cos.6487 = f32[1000,1000]{1,0} cosine(cos.6486)
  cos.6488 = f32[1000,1000]{1,0} cosine(cos.6487)
  cos.6489 = f32[1000,1000]{1,0} cosine(cos.6488)
  cos.6490 = f32[1000,1000]{1,0} cosine(cos.6489)
  cos.6491 = f32[1000,1000]{1,0} cosine(cos.6490)
  cos.6492 = f32[1000,1000]{1,0} cosine(cos.6491)
  cos.6493 = f32[1000,1000]{1,0} cosine(cos.6492)
  cos.6494 = f32[1000,1000]{1,0} cosine(cos.6493)
  cos.6495 = f32[1000,1000]{1,0} cosine(cos.6494)
  cos.6496 = f32[1000,1000]{1,0} cosine(cos.6495)
  cos.6497 = f32[1000,1000]{1,0} cosine(cos.6496)
  cos.6498 = f32[1000,1000]{1,0} cosine(cos.6497)
  cos.6499 = f32[1000,1000]{1,0} cosine(cos.6498)
  cos.6500 = f32[1000,1000]{1,0} cosine(cos.6499)
  cos.6501 = f32[1000,1000]{1,0} cosine(cos.6500)
  cos.6502 = f32[1000,1000]{1,0} cosine(cos.6501)
  cos.6503 = f32[1000,1000]{1,0} cosine(cos.6502)
  cos.6504 = f32[1000,1000]{1,0} cosine(cos.6503)
  cos.6505 = f32[1000,1000]{1,0} cosine(cos.6504)
  cos.6506 = f32[1000,1000]{1,0} cosine(cos.6505)
  cos.6507 = f32[1000,1000]{1,0} cosine(cos.6506)
…
  cos.9594 = f32[1000,1000]{1,0} cosine(cos.9593)
  cos.9595 = f32[1000,1000]{1,0} cosine(cos.9594)
  cos.9596 = f32[1000,1000]{1,0} cosine(cos.9595)
  cos.9597 = f32[1000,1000]{1,0} cosine(cos.9596)
  cos.9598 = f32[1000,1000]{1,0} cosine(cos.9597)
  cos.9599 = f32[1000,1000]{1,0} cosine(cos.9598)
  cos.9600 = f32[1000,1000]{1,0} cosine(cos.9599)
  cos.9601 = f32[1000,1000]{1,0} cosine(cos.9600)
  cos.9602 = f32[1000,1000]{1,0} cosine(cos.9601)
  cos.9603 = f32[1000,1000]{1,0} cosine(cos.9602)
  cos.9604 = f32[1000,1000]{1,0} cosine(cos.9603)
  cos.9605 = f32[1000,1000]{1,0} cosine(cos.9604)
  cos.9606 = f32[1000,1000]{1,0} cosine(cos.9605)
  cos.9607 = f32[1000,1000]{1,0} cosine(cos.9606)
  cos.9608 = f32[1000,1000]{1,0} cosine(cos.9607)
  cos.9609 = f32[1000,1000]{1,0} cosine(cos.9608)
  add.386 = f32[1000,1000]{1,0} add(sin.9609, cos.9609)
  add.387 = f32[1000,1000]{1,0} add(add.385, add.386)
  sin.9610 = f32[1000,1000]{1,0} sine(Arg_0.1)
  sin.9611 = f32[1000,1000]{1,0} sine(sin.9610)
  sin.9612 = f32[1000,1000]{1,0} sine(sin.9611)
  sin.9613 = f32[1000,1000]{1,0} sine(sin.9612)
  sin.9614 = f32[1000,1000]{1,0} sine(sin.9613)
  sin.9615 = f32[1000,1000]{1,0} sine(sin.9614)
  sin.9616 = f32[1000,1000]{1,0} sine(sin.9615)
  sin.9617 = f32[1000,1000]{1,0} sine(sin.9616)
  sin.9618 = f32[1000,1000]{1,0} sine(sin.9617)
  sin.9619 = f32[1000,1000]{1,0} sine(sin.9618)
  sin.9620 = f32[1000,1000]{1,0} sine(sin.9619)
  sin.9621 = f32[1000,1000]{1,0} sine(sin.9620)
  sin.9622 = f32[1000,1000]{1,0} sine(sin.9621)
  sin.9623 = f32[1000,1000]{1,0} sine(sin.9622)
  sin.9624 = f32[1000,1000]{1,0} sine(sin.9623)
  sin.9625 = f32[1000,1000]{1,0} sine(sin.9624)
  sin.9626 = f32[1000,1000]{1,0} sine(sin.9625)
  sin.9627 = f32[1000,1000]{1,0} sine(sin.9626)
  sin.9628 = f32[1000,1000]{1,0} sine(sin.9627)
  sin.9629 = f32[1000,1000]{1,0} sine(sin.9628)
  sin.9630 = f32[1000,1000]{1,0} sine(sin.9629)
  sin.9631 = f32[1000,1000]{1,0} sine(sin.9630)
  sin.9632 = f32[1000,1000]{1,0} sine(sin.9631)
  sin.9633 = f32[1000,1000]{1,0} sine(sin.9632)
  sin.9634 = f32[1000,1000]{1,0} sine(sin.9633)
  sin.9635 = f32[1000,1000]{1,0} sine(sin.9634)
  sin.9636 = f32[1000,1000]{1,0} sine(sin.9635)
  sin.9637 = f32[1000,1000]{1,0} sine(sin.9636)
  sin.9638 = f32[1000,1000]{1,0} sine(sin.9637)
  sin.9639 = f32[1000,1000]{1,0} sine(sin.9638)
  sin.9640 = f32[1000,1000]{1,0} sine(sin.9639)
  sin.9641 = f32[1000,1000]{1,0} sine(sin.9640)
  sin.9642 = f32[1000,1000]{1,0} sine(sin.9641)
  sin.9643 = f32[1000,1000]{1,0} sine(sin.9642)
  sin.9644 = f32[1000,1000]{1,0} sine(sin.9643)
  sin.9645 = f32[1000,1000]{1,0} sine(sin.9644)
  sin.9646 = f32[1000,1000]{1,0} sine(sin.9645)
  sin.9647 = f32[1000,1000]{1,0} sine(sin.9646)
  sin.9648 = f32[1000,1000]{1,0} sine(sin.9647)
  sin.9649 = f32[1000,1000]{1,0} sine(sin.9648)
  sin.9650 = f32[1000,1000]{1,0} sine(sin.9649)
  sin.9651 = f32[1000,1000]{1,0} sine(sin.9650)
  sin.9652 = f32[1000,1000]{1,0} sine(sin.9651)
  sin.9653 = f32[1000,1000]{1,0} sine(sin.9652)
  sin.9654 = f32[1000,1000]{1,0} sine(sin.9653)
  sin.9655 = f32[1000,1000]{1,0} sine(sin.9654)
  sin.9656 = f32[1000,1000]{1,0} sine(sin.9655)
  sin.9657 = f32[1000,1000]{1,0} sine(sin.9656)
  sin.9658 = f32[1000,1000]{1,0} sine(sin.9657)
  sin.9659 = f32[1000,1000]{1,0} sine(sin.9658)
  sin.9660 = f32[1000,1000]{1,0} sine(sin.9659)
  sin.9661 = f32[1000,1000]{1,0} sine(sin.9660)
  sin.9662 = f32[1000,1000]{1,0} sine(sin.9661)
  sin.9663 = f32[1000,1000]{1,0} sine(sin.9662)
  sin.9664 = f32[1000,1000]{1,0} sine(sin.9663)
  sin.9665 = f32[1000,1000]{1,0} sine(sin.9664)
  sin.9666 = f32[1000,1000]{1,0} sine(sin.9665)
  sin.9667 = f32[1000,1000]{1,0} sine(sin.9666)
  sin.9668 = f32[1000,1000]{1,0} sine(sin.9667)
  sin.9669 = f32[1000,1000]{1,0} sine(sin.9668)
  sin.9670 = f32[1000,1000]{1,0} sine(sin.9669)
  sin.9671 = f32[1000,1000]{1,0} sine(sin.9670)
  sin.9672 = f32[1000,1000]{1,0} sine(sin.9671)
  sin.9673 = f32[1000,1000]{1,0} sine(sin.9672)
  sin.9674 = f32[1000,1000]{1,0} sine(sin.9673)
  sin.9675 = f32[1000,1000]{1,0} sine(sin.9674)
  sin.9676 = f32[1000,1000]{1,0} sine(sin.9675)
  sin.9677 = f32[1000,1000]{1,0} sine(sin.9676)
  sin.9678 = f32[1000,1000]{1,0} sine(sin.9677)
  sin.9679 = f32[1000,1000]{1,0} sine(sin.9678)
  sin.9680 = f32[1000,1000]{1,0} sine(sin.9679)
  sin.9681 = f32[1000,1000]{1,0} sine(sin.9680)
  sin.9682 = f32[1000,1000]{1,0} sine(sin.9681)
  sin.9683 = f32[1000,1000]{1,0} sine(sin.9682)
  sin.9684 = f32[1000,1000]{1,0} sine(sin.9683)
  sin.9685 = f32[1000,1000]{1,0} sine(sin.9684)
  sin.9686 = f32[1000,1000]{1,0} sine(sin.9685)
  sin.9687 = f32[1000,1000]{1,0} sine(sin.9686)
  sin.9688 = f32[1000,1000]{1,0} sine(sin.9687)
  sin.9689 = f32[1000,1000]{1,0} sine(sin.9688)
  sin.9690 = f32[1000,1000]{1,0} sine(sin.9689)
  sin.9691 = f32[1000,1000]{1,0} sine(sin.9690)
  sin.9692 = f32[1000,1000]{1,0} sine(sin.9691)
  sin.9693 = f32[1000,1000]{1,0} sine(sin.9692)
  sin.9694 = f32[1000,1000]{1,0} sine(sin.9693)
  sin.9695 = f32[1000,1000]{1,0} sine(sin.9694)
  sin.9696 = f32[1000,1000]{1,0} sine(sin.9695)
  sin.9697 = f32[1000,1000]{1,0} sine(sin.9696)
  sin.9698 = f32[1000,1000]{1,0} sine(sin.9697)
  sin.9699 = f32[1000,1000]{1,0} sine(sin.9698)
  sin.9700 = f32[1000,1000]{1,0} sine(sin.9699)
  sin.9701 = f32[1000,1000]{1,0} sine(sin.9700)
  sin.9702 = f32[1000,1000]{1,0} sine(sin.9701)
  sin.9703 = f32[1000,1000]{1,0} sine(sin.9702)
  sin.9704 = f32[1000,1000]{1,0} sine(sin.9703)
  sin.9705 = f32[1000,1000]{1,0} sine(sin.9704)
  cos.9610 = f32[1000,1000]{1,0} cosine(Arg_0.1)
  cos.9611 = f32[1000,1000]{1,0} cosine(cos.9610)
  cos.9612 = f32[1000,1000]{1,0} cosine(cos.9611)
  cos.9613 = f32[1000,1000]{1,0} cosine(cos.9612)
  cos.9614 = f32[1000,1000]{1,0} cosine(cos.9613)
  cos.9615 = f32[1000,1000]{1,0} cosine(cos.9614)
  cos.9616 = f32[1000,1000]{1,0} cosine(cos.9615)
  cos.9617 = f32[1000,1000]{1,0} cosine(cos.9616)
  cos.9618 = f32[1000,1000]{1,0} cosine(cos.9617)
  cos.9619 = f32[1000,1000]{1,0} cosine(cos.9618)
  cos.9620 = f32[1000,1000]{1,0} cosine(cos.9619)
  cos.9621 = f32[1000,1000]{1,0} cosine(cos.9620)
  cos.9622 = f32[1000,1000]{1,0} cosine(cos.9621)
  cos.9623 = f32[1000,1000]{1,0} cosine(cos.9622)
  cos.9624 = f32[1000,1000]{1,0} cosine(cos.9623)
  cos.9625 = f32[1000,1000]{1,0} cosine(cos.9624)
  cos.9626 = f32[1000,1000]{1,0} cosine(cos.9625)
  cos.9627 = f32[1000,1000]{1,0} cosine(cos.9626)
  cos.9628 = f32[1000,1000]{1,0} cosine(cos.9627)
  cos.9629 = f32[1000,1000]{1,0} cosine(cos.9628)
  cos.9630 = f32[1000,1000]{1,0} cosine(cos.9629)
  cos.9631 = f32[1000,1000]{1,0} cosine(cos.9630)
  cos.9632 = f32[1000,1000]{1,0} cosine(cos.9631)
  cos.9633 = f32[1000,1000]{1,0} cosine(cos.9632)
  cos.9634 = f32[1000,1000]{1,0} cosine(cos.9633)
  cos.9635 = f32[1000,1000]{1,0} cosine(cos.9634)
  cos.9636 = f32[1000,1000]{1,0} cosine(cos.9635)
  cos.9637 = f32[1000,1000]{1,0} cosine(cos.9636)
  cos.9638 = f32[1000,1000]{1,0} cosine(cos.9637)
  cos.9639 = f32[1000,1000]{1,0} cosine(cos.9638)
  cos.9640 = f32[1000,1000]{1,0} cosine(cos.9639)
  cos.9641 = f32[1000,1000]{1,0} cosine(cos.9640)
  cos.9642 = f32[1000,1000]{1,0} cosine(cos.9641)
  cos.9643 = f32[1000,1000]{1,0} cosine(cos.9642)
  cos.9644 = f32[1000,1000]{1,0} cosine(cos.9643)
  cos.9645 = f32[1000,1000]{1,0} cosine(cos.9644)
  cos.9646 = f32[1000,1000]{1,0} cosine(cos.9645)
  cos.9647 = f32[1000,1000]{1,0} cosine(cos.9646)
  cos.9648 = f32[1000,1000]{1,0} cosine(cos.9647)
  cos.9649 = f32[1000,1000]{1,0} cosine(cos.9648)
  cos.9650 = f32[1000,1000]{1,0} cosine(cos.9649)
  cos.9651 = f32[1000,1000]{1,0} cosine(cos.9650)
  cos.9652 = f32[1000,1000]{1,0} cosine(cos.9651)
  cos.9653 = f32[1000,1000]{1,0} cosine(cos.9652)
  cos.9654 = f32[1000,1000]{1,0} cosine(cos.9653)
  cos.9655 = f32[1000,1000]{1,0} cosine(cos.9654)
  cos.9656 = f32[1000,1000]{1,0} cosine(cos.9655)
  cos.9657 = f32[1000,1000]{1,0} cosine(cos.9656)
  cos.9658 = f32[1000,1000]{1,0} cosine(cos.9657)
  cos.9659 = f32[1000,1000]{1,0} cosine(cos.9658)
  cos.9660 = f32[1000,1000]{1,0} cosine(cos.9659)
  cos.9661 = f32[1000,1000]{1,0} cosine(cos.9660)
  cos.9662 = f32[1000,1000]{1,0} cosine(cos.9661)
  cos.9663 = f32[1000,1000]{1,0} cosine(cos.9662)
  cos.9664 = f32[1000,1000]{1,0} cosine(cos.9663)
  cos.9665 = f32[1000,1000]{1,0} cosine(cos.9664)
  cos.9666 = f32[1000,1000]{1,0} cosine(cos.9665)
  cos.9667 = f32[1000,1000]{1,0} cosine(cos.9666)
  cos.9668 = f32[1000,1000]{1,0} cosine(cos.9667)
  cos.9669 = f32[1000,1000]{1,0} cosine(cos.9668)
  cos.9670 = f32[1000,1000]{1,0} cosine(cos.9669)
  cos.9671 = f32[1000,1000]{1,0} cosine(cos.9670)
  cos.9672 = f32[1000,1000]{1,0} cosine(cos.9671)
  cos.9673 = f32[1000,1000]{1,0} cosine(cos.9672)
  cos.9674 = f32[1000,1000]{1,0} cosine(cos.9673)
  cos.9675 = f32[1000,1000]{1,0} cosine(cos.9674)
  cos.9676 = f32[1000,1000]{1,0} cosine(cos.9675)
  cos.9677 = f32[1000,1000]{1,0} cosine(cos.9676)
  cos.9678 = f32[1000,1000]{1,0} cosine(cos.9677)
  cos.9679 = f32[1000,1000]{1,0} cosine(cos.9678)
  cos.9680 = f32[1000,1000]{1,0} cosine(cos.9679)
  cos.9681 = f32[1000,1000]{1,0} cosine(cos.9680)
  cos.9682 = f32[1000,1000]{1,0} cosine(cos.9681)
  cos.9683 = f32[1000,1000]{1,0} cosine(cos.9682)
  cos.9684 = f32[1000,1000]{1,0} cosine(cos.9683)
  cos.9685 = f32[1000,1000]{1,0} cosine(cos.9684)
  cos.9686 = f32[1000,1000]{1,0} cosine(cos.9685)
  cos.9687 = f32[1000,1000]{1,0} cosine(cos.9686)
  cos.9688 = f32[1000,1000]{1,0} cosine(cos.9687)
  cos.9689 = f32[1000,1000]{1,0} cosine(cos.9688)
  cos.9690 = f32[1000,1000]{1,0} cosine(cos.9689)
  cos.9691 = f32[1000,1000]{1,0} cosine(cos.9690)
  cos.9692 = f32[1000,1000]{1,0} cosine(cos.9691)
  cos.9693 = f32[1000,1000]{1,0} cosine(cos.9692)
  cos.9694 = f32[1000,1000]{1,0} cosine(cos.9693)
  cos.9695 = f32[1000,1000]{1,0} cosine(cos.9694)
  cos.9696 = f32[1000,1000]{1,0} cosine(cos.9695)
  cos.9697 = f32[1000,1000]{1,0} cosine(cos.9696)
  cos.9698 = f32[1000,1000]{1,0} cosine(cos.9697)
  cos.9699 = f32[1000,1000]{1,0} cosine(cos.9698)
  cos.9700 = f32[1000,1000]{1,0} cosine(cos.9699)
  cos.9701 = f32[1000,1000]{1,0} cosine(cos.9700)
  cos.9702 = f32[1000,1000]{1,0} cosine(cos.9701)
  cos.9703 = f32[1000,1000]{1,0} cosine(cos.9702)
  cos.9704 = f32[1000,1000]{1,0} cosine(cos.9703)
  cos.9705 = f32[1000,1000]{1,0} cosine(cos.9704)
  add.388 = f32[1000,1000]{1,0} add(sin.9705, cos.9705)
  add.389 = f32[1000,1000]{1,0} add(add.387, add.388)
  sin.9706 = f32[1000,1000]{1,0} sine(Arg_0.1)
  sin.9707 = f32[1000,1000]{1,0} sine(sin.9706)
  sin.9708 = f32[1000,1000]{1,0} sine(sin.9707)
  sin.9709 = f32[1000,1000]{1,0} sine(sin.9708)
  sin.9710 = f32[1000,1000]{1,0} sine(sin.9709)
  sin.9711 = f32[1000,1000]{1,0} sine(sin.9710)
  sin.9712 = f32[1000,1000]{1,0} sine(sin.9711)
  sin.9713 = f32[1000,1000]{1,0} sine(sin.9712)
  sin.9714 = f32[1000,1000]{1,0} sine(sin.9713)
  sin.9715 = f32[1000,1000]{1,0} sine(sin.9714)
  sin.9716 = f32[1000,1000]{1,0} sine(sin.9715)
  sin.9717 = f32[1000,1000]{1,0} sine(sin.9716)
  sin.9718 = f32[1000,1000]{1,0} sine(sin.9717)
  sin.9719 = f32[1000,1000]{1,0} sine(sin.9718)
  sin.9720 = f32[1000,1000]{1,0} sine(sin.9719)
  sin.9721 = f32[1000,1000]{1,0} sine(sin.9720)
  sin.9722 = f32[1000,1000]{1,0} sine(sin.9721)
  sin.9723 = f32[1000,1000]{1,0} sine(sin.9722)
  sin.9724 = f32[1000,1000]{1,0} sine(sin.9723)
  sin.9725 = f32[1000,1000]{1,0} sine(sin.9724)
  sin.9726 = f32[1000,1000]{1,0} sine(sin.9725)
  sin.9727 = f32[1000,1000]{1,0} sine(sin.9726)
  sin.9728 = f32[1000,1000]{1,0} sine(sin.9727)
  sin.9729 = f32[1000,1000]{1,0} sine(sin.9728)
  sin.9730 = f32[1000,1000]{1,0} sine(sin.9729)
  sin.9731 = f32[1000,1000]{1,0} sine(sin.9730)
  sin.9732 = f32[1000,1000]{1,0} sine(sin.9731)
  sin.9733 = f32[1000,1000]{1,0} sine(sin.9732)
  sin.9734 = f32[1000,1000]{1,0} sine(sin.9733)
  sin.9735 = f32[1000,1000]{1,0} sine(sin.9734)
  sin.9736 = f32[1000,1000]{1,0} sine(sin.9735)
  sin.9737 = f32[1000,1000]{1,0} sine(sin.9736)
  sin.9738 = f32[1000,1000]{1,0} sine(sin.9737)
  sin.9739 = f32[1000,1000]{1,0} sine(sin.9738)
  sin.9740 = f32[1000,1000]{1,0} sine(sin.9739)
  sin.9741 = f32[1000,1000]{1,0} sine(sin.9740)
  sin.9742 = f32[1000,1000]{1,0} sine(sin.9741)
  sin.9743 = f32[1000,1000]{1,0} sine(sin.9742)
  sin.9744 = f32[1000,1000]{1,0} sine(sin.9743)
  sin.9745 = f32[1000,1000]{1,0} sine(sin.9744)
  sin.9746 = f32[1000,1000]{1,0} sine(sin.9745)
  sin.9747 = f32[1000,1000]{1,0} sine(sin.9746)
  sin.9748 = f32[1000,1000]{1,0} sine(sin.9747)
  sin.9749 = f32[1000,1000]{1,0} sine(sin.9748)
  sin.9750 = f32[1000,1000]{1,0} sine(sin.9749)
  sin.9751 = f32[1000,1000]{1,0} sine(sin.9750)
  sin.9752 = f32[1000,1000]{1,0} sine(sin.9751)
  sin.9753 = f32[1000,1000]{1,0} sine(sin.9752)
  sin.9754 = f32[1000,1000]{1,0} sine(sin.9753)
  sin.9755 = f32[1000,1000]{1,0} sine(sin.9754)
  sin.9756 = f32[1000,1000]{1,0} sine(sin.9755)
  sin.9757 = f32[1000,1000]{1,0} sine(sin.9756)
  sin.9758 = f32[1000,1000]{1,0} sine(sin.9757)
  sin.9759 = f32[1000,1000]{1,0} sine(sin.9758)
  sin.9760 = f32[1000,1000]{1,0} sine(sin.9759)
  sin.9761 = f32[1000,1000]{1,0} sine(sin.9760)
  sin.9762 = f32[1000,1000]{1,0} sine(sin.9761)
  sin.9763 = f32[1000,1000]{1,0} sine(sin.9762)
  sin.9764 = f32[1000,1000]{1,0} sine(sin.9763)
  sin.9765 = f32[1000,1000]{1,0} sine(sin.9764)
  sin.9766 = f32[1000,1000]{1,0} sine(sin.9765)
  sin.9767 = f32[1000,1000]{1,0} sine(sin.9766)
  sin.9768 = f32[1000,1000]{1,0} sine(sin.9767)
  sin.9769 = f32[1000,1000]{1,0} sine(sin.9768)
  sin.9770 = f32[1000,1000]{1,0} sine(sin.9769)
  sin.9771 = f32[1000,1000]{1,0} sine(sin.9770)
  sin.9772 = f32[1000,1000]{1,0} sine(sin.9771)
  sin.9773 = f32[1000,1000]{1,0} sine(sin.9772)
  sin.9774 = f32[1000,1000]{1,0} sine(sin.9773)
  sin.9775 = f32[1000,1000]{1,0} sine(sin.9774)
  sin.9776 = f32[1000,1000]{1,0} sine(sin.9775)
  sin.9777 = f32[1000,1000]{1,0} sine(sin.9776)
  sin.9778 = f32[1000,1000]{1,0} sine(sin.9777)
  sin.9779 = f32[1000,1000]{1,0} sine(sin.9778)
  sin.9780 = f32[1000,1000]{1,0} sine(sin.9779)
  sin.9781 = f32[1000,1000]{1,0} sine(sin.9780)
  sin.9782 = f32[1000,1000]{1,0} sine(sin.9781)
  sin.9783 = f32[1000,1000]{1,0} sine(sin.9782)
  sin.9784 = f32[1000,1000]{1,0} sine(sin.9783)
  sin.9785 = f32[1000,1000]{1,0} sine(sin.9784)
  sin.9786 = f32[1000,1000]{1,0} sine(sin.9785)
  sin.9787 = f32[1000,1000]{1,0} sine(sin.9786)
  sin.9788 = f32[1000,1000]{1,0} sine(sin.9787)
  sin.9789 = f32[1000,1000]{1,0} sine(sin.9788)
  sin.9790 = f32[1000,1000]{1,0} sine(sin.9789)
  sin.9791 = f32[1000,1000]{1,0} sine(sin.9790)
  sin.9792 = f32[1000,1000]{1,0} sine(sin.9791)
  sin.9793 = f32[1000,1000]{1,0} sine(sin.9792)
  sin.9794 = f32[1000,1000]{1,0} sine(sin.9793)
  sin.9795 = f32[1000,1000]{1,0} sine(sin.9794)
  sin.9796 = f32[1000,1000]{1,0} sine(sin.9795)
  sin.9797 = f32[1000,1000]{1,0} sine(sin.9796)
  sin.9798 = f32[1000,1000]{1,0} sine(sin.9797)
  sin.9799 = f32[1000,1000]{1,0} sine(sin.9798)
  sin.9800 = f32[1000,1000]{1,0} sine(sin.9799)
  sin.9801 = f32[1000,1000]{1,0} sine(sin.9800)
  sin.9802 = f32[1000,1000]{1,0} sine(sin.9801)
  cos.9706 = f32[1000,1000]{1,0} cosine(Arg_0.1)
  cos.9707 = f32[1000,1000]{1,0} cosine(cos.9706)
  cos.9708 = f32[1000,1000]{1,0} cosine(cos.9707)
  cos.9709 = f32[1000,1000]{1,0} cosine(cos.9708)
  cos.9710 = f32[1000,1000]{1,0} cosine(cos.9709)
  cos.9711 = f32[1000,1000]{1,0} cosine(cos.9710)
  cos.9712 = f32[1000,1000]{1,0} cosine(cos.9711)
  cos.9713 = f32[1000,1000]{1,0} cosine(cos.9712)
  cos.9714 = f32[1000,1000]{1,0} cosine(cos.9713)
  cos.9715 = f32[1000,1000]{1,0} cosine(cos.9714)
  cos.9716 = f32[1000,1000]{1,0} cosine(cos.9715)
  cos.9717 = f32[1000,1000]{1,0} cosine(cos.9716)
  cos.9718 = f32[1000,1000]{1,0} cosine(cos.9717)
  cos.9719 = f32[1000,1000]{1,0} cosine(cos.9718)
  cos.9720 = f32[1000,1000]{1,0} cosine(cos.9719)
  cos.9721 = f32[1000,1000]{1,0} cosine(cos.9720)
  cos.9722 = f32[1000,1000]{1,0} cosine(cos.9721)
  cos.9723 = f32[1000,1000]{1,0} cosine(cos.9722)
  cos.9724 = f32[1000,1000]{1,0} cosine(cos.9723)
  cos.9725 = f32[1000,1000]{1,0} cosine(cos.9724)
  cos.9726 = f32[1000,1000]{1,0} cosine(cos.9725)
  cos.9727 = f32[1000,1000]{1,0} cosine(cos.9726)
  cos.9728 = f32[1000,1000]{1,0} cosine(cos.9727)
  cos.9729 = f32[1000,1000]{1,0} cosine(cos.9728)
  cos.9730 = f32[1000,1000]{1,0} cosine(cos.9729)
  cos.9731 = f32[1000,1000]{1,0} cosine(cos.9730)
  cos.9732 = f32[1000,1000]{1,0} cosine(cos.9731)
  cos.9733 = f32[1000,1000]{1,0} cosine(cos.9732)
  cos.9734 = f32[1000,1000]{1,0} cosine(cos.9733)
  cos.9735 = f32[1000,1000]{1,0} cosine(cos.9734)
  cos.9736 = f32[1000,1000]{1,0} cosine(cos.9735)
  cos.9737 = f32[1000,1000]{1,0} cosine(cos.9736)
  cos.9738 = f32[1000,1000]{1,0} cosine(cos.9737)
  cos.9739 = f32[1000,1000]{1,0} cosine(cos.9738)
  cos.9740 = f32[1000,1000]{1,0} cosine(cos.9739)
  cos.9741 = f32[1000,1000]{1,0} cosine(cos.9740)
  cos.9742 = f32[1000,1000]{1,0} cosine(cos.9741)
  cos.9743 = f32[1000,1000]{1,0} cosine(cos.9742)
  cos.9744 = f32[1000,1000]{1,0} cosine(cos.9743)
  cos.9745 = f32[1000,1000]{1,0} cosine(cos.9744)
  cos.9746 = f32[1000,1000]{1,0} cosine(cos.9745)
  cos.9747 = f32[1000,1000]{1,0} cosine(cos.9746)
  cos.9748 = f32[1000,1000]{1,0} cosine(cos.9747)
  cos.9749 = f32[1000,1000]{1,0} cosine(cos.9748)
  cos.9750 = f32[1000,1000]{1,0} cosine(cos.9749)
  cos.9751 = f32[1000,1000]{1,0} cosine(cos.9750)
  cos.9752 = f32[1000,1000]{1,0} cosine(cos.9751)
  cos.9753 = f32[1000,1000]{1,0} cosine(cos.9752)
  cos.9754 = f32[1000,1000]{1,0} cosine(cos.9753)
  cos.9755 = f32[1000,1000]{1,0} cosine(cos.9754)
  cos.9756 = f32[1000,1000]{1,0} cosine(cos.9755)
  cos.9757 = f32[1000,1000]{1,0} cosine(cos.9756)
  cos.9758 = f32[1000,1000]{1,0} cosine(cos.9757)
  cos.9759 = f32[1000,1000]{1,0} cosine(cos.9758)
  cos.9760 = f32[1000,1000]{1,0} cosine(cos.9759)
  cos.9761 = f32[1000,1000]{1,0} cosine(cos.9760)
  cos.9762 = f32[1000,1000]{1,0} cosine(cos.9761)
  cos.9763 = f32[1000,1000]{1,0} cosine(cos.9762)
  cos.9764 = f32[1000,1000]{1,0} cosine(cos.9763)
  cos.9765 = f32[1000,1000]{1,0} cosine(cos.9764)
  cos.9766 = f32[1000,1000]{1,0} cosine(cos.9765)
  cos.9767 = f32[1000,1000]{1,0} cosine(cos.9766)
  cos.9768 = f32[1000,1000]{1,0} cosine(cos.9767)
  cos.9769 = f32[1000,1000]{1,0} cosine(cos.9768)
  cos.9770 = f32[1000,1000]{1,0} cosine(cos.9769)
  cos.9771 = f32[1000,1000]{1,0} cosine(cos.9770)
  cos.9772 = f32[1000,1000]{1,0} cosine(cos.9771)
  cos.9773 = f32[1000,1000]{1,0} cosine(cos.9772)
  cos.9774 = f32[1000,1000]{1,0} cosine(cos.9773)
  cos.9775 = f32[1000,1000]{1,0} cosine(cos.9774)
  cos.9776 = f32[1000,1000]{1,0} cosine(cos.9775)
  cos.9777 = f32[1000,1000]{1,0} cosine(cos.9776)
  cos.9778 = f32[1000,1000]{1,0} cosine(cos.9777)
  cos.9779 = f32[1000,1000]{1,0} cosine(cos.9778)
  cos.9780 = f32[1000,1000]{1,0} cosine(cos.9779)
  cos.9781 = f32[1000,1000]{1,0} cosine(cos.9780)
  cos.9782 = f32[1000,1000]{1,0} cosine(cos.9781)
  cos.9783 = f32[1000,1000]{1,0} cosine(cos.9782)
  cos.9784 = f32[1000,1000]{1,0} cosine(cos.9783)
  cos.9785 = f32[1000,1000]{1,0} cosine(cos.9784)
  cos.9786 = f32[1000,1000]{1,0} cosine(cos.9785)
  cos.9787 = f32[1000,1000]{1,0} cosine(cos.9786)
  cos.9788 = f32[1000,1000]{1,0} cosine(cos.9787)
  cos.9789 = f32[1000,1000]{1,0} cosine(cos.9788)
  cos.9790 = f32[1000,1000]{1,0} cosine(cos.9789)
  cos.9791 = f32[1000,1000]{1,0} cosine(cos.9790)
  cos.9792 = f32[1000,1000]{1,0} cosine(cos.9791)
  cos.9793 = f32[1000,1000]{1,0} cosine(cos.9792)
  cos.9794 = f32[1000,1000]{1,0} cosine(cos.9793)
  cos.9795 = f32[1000,1000]{1,0} cosine(cos.9794)
  cos.9796 = f32[1000,1000]{1,0} cosine(cos.9795)
  cos.9797 = f32[1000,1000]{1,0} cosine(cos.9796)
  cos.9798 = f32[1000,1000]{1,0} cosine(cos.9797)
  cos.9799 = f32[1000,1000]{1,0} cosine(cos.9798)
  cos.9800 = f32[1000,1000]{1,0} cosine(cos.9799)
  cos.9801 = f32[1000,1000]{1,0} cosine(cos.9800)
  cos.9802 = f32[1000,1000]{1,0} cosine(cos.9801)
  add.390 = f32[1000,1000]{1,0} add(sin.9802, cos.9802)
  add.391 = f32[1000,1000]{1,0} add(add.389, add.390)
  sin.9803 = f32[1000,1000]{1,0} sine(Arg_0.1)
  sin.9804 = f32[1000,1000]{1,0} sine(sin.9803)
  sin.9805 = f32[1000,1000]{1,0} sine(sin.9804)
  sin.9806 = f32[1000,1000]{1,0} sine(sin.9805)
  sin.9807 = f32[1000,1000]{1,0} sine(sin.9806)
  sin.9808 = f32[1000,1000]{1,0} sine(sin.9807)
  sin.9809 = f32[1000,1000]{1,0} sine(sin.9808)
  sin.9810 = f32[1000,1000]{1,0} sine(sin.9809)
  sin.9811 = f32[1000,1000]{1,0} sine(sin.9810)
  sin.9812 = f32[1000,1000]{1,0} sine(sin.9811)
  sin.9813 = f32[1000,1000]{1,0} sine(sin.9812)
  sin.9814 = f32[1000,1000]{1,0} sine(sin.9813)
  sin.9815 = f32[1000,1000]{1,0} sine(sin.9814)
  sin.9816 = f32[1000,1000]{1,0} sine(sin.9815)
  sin.9817 = f32[1000,1000]{1,0} sine(sin.9816)
  sin.9818 = f32[1000,1000]{1,0} sine(sin.9817)
  sin.9819 = f32[1000,1000]{1,0} sine(sin.9818)
  sin.9820 = f32[1000,1000]{1,0} sine(sin.9819)
  sin.9821 = f32[1000,1000]{1,0} sine(sin.9820)
  sin.9822 = f32[1000,1000]{1,0} sine(sin.9821)
  sin.9823 = f32[1000,1000]{1,0} sine(sin.9822)
  sin.9824 = f32[1000,1000]{1,0} sine(sin.9823)
  sin.9825 = f32[1000,1000]{1,0} sine(sin.9824)
  sin.9826 = f32[1000,1000]{1,0} sine(sin.9825)
  sin.9827 = f32[1000,1000]{1,0} sine(sin.9826)
  sin.9828 = f32[1000,1000]{1,0} sine(sin.9827)
  sin.9829 = f32[1000,1000]{1,0} sine(sin.9828)
  sin.9830 = f32[1000,1000]{1,0} sine(sin.9829)
  sin.9831 = f32[1000,1000]{1,0} sine(sin.9830)
  sin.9832 = f32[1000,1000]{1,0} sine(sin.9831)
  sin.9833 = f32[1000,1000]{1,0} sine(sin.9832)
  sin.9834 = f32[1000,1000]{1,0} sine(sin.9833)
  sin.9835 = f32[1000,1000]{1,0} sine(sin.9834)
  sin.9836 = f32[1000,1000]{1,0} sine(sin.9835)
  sin.9837 = f32[1000,1000]{1,0} sine(sin.9836)
  sin.9838 = f32[1000,1000]{1,0} sine(sin.9837)
  sin.9839 = f32[1000,1000]{1,0} sine(sin.9838)
  sin.9840 = f32[1000,1000]{1,0} sine(sin.9839)
  sin.9841 = f32[1000,1000]{1,0} sine(sin.9840)
  sin.9842 = f32[1000,1000]{1,0} sine(sin.9841)
  sin.9843 = f32[1000,1000]{1,0} sine(sin.9842)
  sin.9844 = f32[1000,1000]{1,0} sine(sin.9843)
  sin.9845 = f32[1000,1000]{1,0} sine(sin.9844)
  sin.9846 = f32[1000,1000]{1,0} sine(sin.9845)
  sin.9847 = f32[1000,1000]{1,0} sine(sin.9846)
  sin.9848 = f32[1000,1000]{1,0} sine(sin.9847)
  sin.9849 = f32[1000,1000]{1,0} sine(sin.9848)
  sin.9850 = f32[1000,1000]{1,0} sine(sin.9849)
  sin.9851 = f32[1000,1000]{1,0} sine(sin.9850)
  sin.9852 = f32[1000,1000]{1,0} sine(sin.9851)
  sin.9853 = f32[1000,1000]{1,0} sine(sin.9852)
  sin.9854 = f32[1000,1000]{1,0} sine(sin.9853)
  sin.9855 = f32[1000,1000]{1,0} sine(sin.9854)
  sin.9856 = f32[1000,1000]{1,0} sine(sin.9855)
  sin.9857 = f32[1000,1000]{1,0} sine(sin.9856)
  sin.9858 = f32[1000,1000]{1,0} sine(sin.9857)
  sin.9859 = f32[1000,1000]{1,0} sine(sin.9858)
  sin.9860 = f32[1000,1000]{1,0} sine(sin.9859)
  sin.9861 = f32[1000,1000]{1,0} sine(sin.9860)
  sin.9862 = f32[1000,1000]{1,0} sine(sin.9861)
  sin.9863 = f32[1000,1000]{1,0} sine(sin.9862)
  sin.9864 = f32[1000,1000]{1,0} sine(sin.9863)
  sin.9865 = f32[1000,1000]{1,0} sine(sin.9864)
  sin.9866 = f32[1000,1000]{1,0} sine(sin.9865)
  sin.9867 = f32[1000,1000]{1,0} sine(sin.9866)
  sin.9868 = f32[1000,1000]{1,0} sine(sin.9867)
  sin.9869 = f32[1000,1000]{1,0} sine(sin.9868)
  sin.9870 = f32[1000,1000]{1,0} sine(sin.9869)
  sin.9871 = f32[1000,1000]{1,0} sine(sin.9870)
  sin.9872 = f32[1000,1000]{1,0} sine(sin.9871)
  sin.9873 = f32[1000,1000]{1,0} sine(sin.9872)
  sin.9874 = f32[1000,1000]{1,0} sine(sin.9873)
  sin.9875 = f32[1000,1000]{1,0} sine(sin.9874)
  sin.9876 = f32[1000,1000]{1,0} sine(sin.9875)
  sin.9877 = f32[1000,1000]{1,0} sine(sin.9876)
  sin.9878 = f32[1000,1000]{1,0} sine(sin.9877)
  sin.9879 = f32[1000,1000]{1,0} sine(sin.9878)
  sin.9880 = f32[1000,1000]{1,0} sine(sin.9879)
  sin.9881 = f32[1000,1000]{1,0} sine(sin.9880)
  sin.9882 = f32[1000,1000]{1,0} sine(sin.9881)
  sin.9883 = f32[1000,1000]{1,0} sine(sin.9882)
  sin.9884 = f32[1000,1000]{1,0} sine(sin.9883)
  sin.9885 = f32[1000,1000]{1,0} sine(sin.9884)
  sin.9886 = f32[1000,1000]{1,0} sine(sin.9885)
  sin.9887 = f32[1000,1000]{1,0} sine(sin.9886)
  sin.9888 = f32[1000,1000]{1,0} sine(sin.9887)
  sin.9889 = f32[1000,1000]{1,0} sine(sin.9888)
  sin.9890 = f32[1000,1000]{1,0} sine(sin.9889)
  sin.9891 = f32[1000,1000]{1,0} sine(sin.9890)
  sin.9892 = f32[1000,1000]{1,0} sine(sin.9891)
  sin.9893 = f32[1000,1000]{1,0} sine(sin.9892)
  sin.9894 = f32[1000,1000]{1,0} sine(sin.9893)
  sin.9895 = f32[1000,1000]{1,0} sine(sin.9894)
  sin.9896 = f32[1000,1000]{1,0} sine(sin.9895)
  sin.9897 = f32[1000,1000]{1,0} sine(sin.9896)
  sin.9898 = f32[1000,1000]{1,0} sine(sin.9897)
  sin.9899 = f32[1000,1000]{1,0} sine(sin.9898)
  sin.9900 = f32[1000,1000]{1,0} sine(sin.9899)
  cos.9803 = f32[1000,1000]{1,0} cosine(Arg_0.1)
  cos.9804 = f32[1000,1000]{1,0} cosine(cos.9803)
  cos.9805 = f32[1000,1000]{1,0} cosine(cos.9804)
  cos.9806 = f32[1000,1000]{1,0} cosine(cos.9805)
  cos.9807 = f32[1000,1000]{1,0} cosine(cos.9806)
  cos.9808 = f32[1000,1000]{1,0} cosine(cos.9807)
  cos.9809 = f32[1000,1000]{1,0} cosine(cos.9808)
  cos.9810 = f32[1000,1000]{1,0} cosine(cos.9809)
  cos.9811 = f32[1000,1000]{1,0} cosine(cos.9810)
  cos.9812 = f32[1000,1000]{1,0} cosine(cos.9811)
  cos.9813 = f32[1000,1000]{1,0} cosine(cos.9812)
  cos.9814 = f32[1000,1000]{1,0} cosine(cos.9813)
  cos.9815 = f32[1000,1000]{1,0} cosine(cos.9814)
  cos.9816 = f32[1000,1000]{1,0} cosine(cos.9815)
  cos.9817 = f32[1000,1000]{1,0} cosine(cos.9816)
  cos.9818 = f32[1000,1000]{1,0} cosine(cos.9817)
  cos.9819 = f32[1000,1000]{1,0} cosine(cos.9818)
  cos.9820 = f32[1000,1000]{1,0} cosine(cos.9819)
  cos.9821 = f32[1000,1000]{1,0} cosine(cos.9820)
  cos.9822 = f32[1000,1000]{1,0} cosine(cos.9821)
  cos.9823 = f32[1000,1000]{1,0} cosine(cos.9822)
  cos.9824 = f32[1000,1000]{1,0} cosine(cos.9823)
  cos.9825 = f32[1000,1000]{1,0} cosine(cos.9824)
  cos.9826 = f32[1000,1000]{1,0} cosine(cos.9825)
  cos.9827 = f32[1000,1000]{1,0} cosine(cos.9826)
  cos.9828 = f32[1000,1000]{1,0} cosine(cos.9827)
  cos.9829 = f32[1000,1000]{1,0} cosine(cos.9828)
  cos.9830 = f32[1000,1000]{1,0} cosine(cos.9829)
  cos.9831 = f32[1000,1000]{1,0} cosine(cos.9830)
  cos.9832 = f32[1000,1000]{1,0} cosine(cos.9831)
  cos.9833 = f32[1000,1000]{1,0} cosine(cos.9832)
  cos.9834 = f32[1000,1000]{1,0} cosine(cos.9833)
  cos.9835 = f32[1000,1000]{1,0} cosine(cos.9834)
  cos.9836 = f32[1000,1000]{1,0} cosine(cos.9835)
  cos.9837 = f32[1000,1000]{1,0} cosine(cos.9836)
  cos.9838 = f32[1000,1000]{1,0} cosine(cos.9837)
  cos.9839 = f32[1000,1000]{1,0} cosine(cos.9838)
  cos.9840 = f32[1000,1000]{1,0} cosine(cos.9839)
  cos.9841 = f32[1000,1000]{1,0} cosine(cos.9840)
  cos.9842 = f32[1000,1000]{1,0} cosine(cos.9841)
  cos.9843 = f32[1000,1000]{1,0} cosine(cos.9842)
  cos.9844 = f32[1000,1000]{1,0} cosine(cos.9843)
  cos.9845 = f32[1000,1000]{1,0} cosine(cos.9844)
  cos.9846 = f32[1000,1000]{1,0} cosine(cos.9845)
  cos.9847 = f32[1000,1000]{1,0} cosine(cos.9846)
  cos.9848 = f32[1000,1000]{1,0} cosine(cos.9847)
  cos.9849 = f32[1000,1000]{1,0} cosine(cos.9848)
  cos.9850 = f32[1000,1000]{1,0} cosine(cos.9849)
  cos.9851 = f32[1000,1000]{1,0} cosine(cos.9850)
  cos.9852 = f32[1000,1000]{1,0} cosine(cos.9851)
  cos.9853 = f32[1000,1000]{1,0} cosine(cos.9852)
  cos.9854 = f32[1000,1000]{1,0} cosine(cos.9853)
  cos.9855 = f32[1000,1000]{1,0} cosine(cos.9854)
  cos.9856 = f32[1000,1000]{1,0} cosine(cos.9855)
  cos.9857 = f32[1000,1000]{1,0} cosine(cos.9856)
  cos.9858 = f32[1000,1000]{1,0} cosine(cos.9857)
  cos.9859 = f32[1000,1000]{1,0} cosine(cos.9858)
  cos.9860 = f32[1000,1000]{1,0} cosine(cos.9859)
  cos.9861 = f32[1000,1000]{1,0} cosine(cos.9860)
  cos.9862 = f32[1000,1000]{1,0} cosine(cos.9861)
  cos.9863 = f32[1000,1000]{1,0} cosine(cos.9862)
  cos.9864 = f32[1000,1000]{1,0} cosine(cos.9863)
  cos.9865 = f32[1000,1000]{1,0} cosine(cos.9864)
  cos.9866 = f32[1000,1000]{1,0} cosine(cos.9865)
  cos.9867 = f32[1000,1000]{1,0} cosine(cos.9866)
  cos.9868 = f32[1000,1000]{1,0} cosine(cos.9867)
  cos.9869 = f32[1000,1000]{1,0} cosine(cos.9868)
  cos.9870 = f32[1000,1000]{1,0} cosine(cos.9869)
  cos.9871 = f32[1000,1000]{1,0} cosine(cos.9870)
  cos.9872 = f32[1000,1000]{1,0} cosine(cos.9871)
  cos.9873 = f32[1000,1000]{1,0} cosine(cos.9872)
  cos.9874 = f32[1000,1000]{1,0} cosine(cos.9873)
  cos.9875 = f32[1000,1000]{1,0} cosine(cos.9874)
  cos.9876 = f32[1000,1000]{1,0} cosine(cos.9875)
  cos.9877 = f32[1000,1000]{1,0} cosine(cos.9876)
  cos.9878 = f32[1000,1000]{1,0} cosine(cos.9877)
  cos.9879 = f32[1000,1000]{1,0} cosine(cos.9878)
  cos.9880 = f32[1000,1000]{1,0} cosine(cos.9879)
  cos.9881 = f32[1000,1000]{1,0} cosine(cos.9880)
  cos.9882 = f32[1000,1000]{1,0} cosine(cos.9881)
  cos.9883 = f32[1000,1000]{1,0} cosine(cos.9882)
  cos.9884 = f32[1000,1000]{1,0} cosine(cos.9883)
  cos.9885 = f32[1000,1000]{1,0} cosine(cos.9884)
  cos.9886 = f32[1000,1000]{1,0} cosine(cos.9885)
  cos.9887 = f32[1000,1000]{1,0} cosine(cos.9886)
  cos.9888 = f32[1000,1000]{1,0} cosine(cos.9887)
  cos.9889 = f32[1000,1000]{1,0} cosine(cos.9888)
  cos.9890 = f32[1000,1000]{1,0} cosine(cos.9889)
  cos.9891 = f32[1000,1000]{1,0} cosine(cos.9890)
  cos.9892 = f32[1000,1000]{1,0} cosine(cos.9891)
  cos.9893 = f32[1000,1000]{1,0} cosine(cos.9892)
  cos.9894 = f32[1000,1000]{1,0} cosine(cos.9893)
  cos.9895 = f32[1000,1000]{1,0} cosine(cos.9894)
  cos.9896 = f32[1000,1000]{1,0} cosine(cos.9895)
  cos.9897 = f32[1000,1000]{1,0} cosine(cos.9896)
  cos.9898 = f32[1000,1000]{1,0} cosine(cos.9897)
  cos.9899 = f32[1000,1000]{1,0} cosine(cos.9898)
  cos.9900 = f32[1000,1000]{1,0} cosine(cos.9899)
  add.392 = f32[1000,1000]{1,0} add(sin.9900, cos.9900)
  add.393 = f32[1000,1000]{1,0} add(add.391, add.392)
  sin.9901 = f32[1000,1000]{1,0} sine(Arg_0.1)
  sin.9902 = f32[1000,1000]{1,0} sine(sin.9901)
  sin.9903 = f32[1000,1000]{1,0} sine(sin.9902)
  sin.9904 = f32[1000,1000]{1,0} sine(sin.9903)
  sin.9905 = f32[1000,1000]{1,0} sine(sin.9904)
  sin.9906 = f32[1000,1000]{1,0} sine(sin.9905)
  sin.9907 = f32[1000,1000]{1,0} sine(sin.9906)
  sin.9908 = f32[1000,1000]{1,0} sine(sin.9907)
  sin.9909 = f32[1000,1000]{1,0} sine(sin.9908)
  sin.9910 = f32[1000,1000]{1,0} sine(sin.9909)
  sin.9911 = f32[1000,1000]{1,0} sine(sin.9910)
  sin.9912 = f32[1000,1000]{1,0} sine(sin.9911)
  sin.9913 = f32[1000,1000]{1,0} sine(sin.9912)
  sin.9914 = f32[1000,1000]{1,0} sine(sin.9913)
  sin.9915 = f32[1000,1000]{1,0} sine(sin.9914)
  sin.9916 = f32[1000,1000]{1,0} sine(sin.9915)
  sin.9917 = f32[1000,1000]{1,0} sine(sin.9916)
  sin.9918 = f32[1000,1000]{1,0} sine(sin.9917)
  sin.9919 = f32[1000,1000]{1,0} sine(sin.9918)
  sin.9920 = f32[1000,1000]{1,0} sine(sin.9919)
  sin.9921 = f32[1000,1000]{1,0} sine(sin.9920)
  sin.9922 = f32[1000,1000]{1,0} sine(sin.9921)
  sin.9923 = f32[1000,1000]{1,0} sine(sin.9922)
  sin.9924 = f32[1000,1000]{1,0} sine(sin.9923)
  sin.9925 = f32[1000,1000]{1,0} sine(sin.9924)
  sin.9926 = f32[1000,1000]{1,0} sine(sin.9925)
  sin.9927 = f32[1000,1000]{1,0} sine(sin.9926)
  sin.9928 = f32[1000,1000]{1,0} sine(sin.9927)
  sin.9929 = f32[1000,1000]{1,0} sine(sin.9928)
  sin.9930 = f32[1000,1000]{1,0} sine(sin.9929)
  sin.9931 = f32[1000,1000]{1,0} sine(sin.9930)
  sin.9932 = f32[1000,1000]{1,0} sine(sin.9931)
  sin.9933 = f32[1000,1000]{1,0} sine(sin.9932)
  sin.9934 = f32[1000,1000]{1,0} sine(sin.9933)
  sin.9935 = f32[1000,1000]{1,0} sine(sin.9934)
  sin.9936 = f32[1000,1000]{1,0} sine(sin.9935)
  sin.9937 = f32[1000,1000]{1,0} sine(sin.9936)
  sin.9938 = f32[1000,1000]{1,0} sine(sin.9937)
  sin.9939 = f32[1000,1000]{1,0} sine(sin.9938)
  sin.9940 = f32[1000,1000]{1,0} sine(sin.9939)
  sin.9941 = f32[1000,1000]{1,0} sine(sin.9940)
  sin.9942 = f32[1000,1000]{1,0} sine(sin.9941)
  sin.9943 = f32[1000,1000]{1,0} sine(sin.9942)
  sin.9944 = f32[1000,1000]{1,0} sine(sin.9943)
  sin.9945 = f32[1000,1000]{1,0} sine(sin.9944)
  sin.9946 = f32[1000,1000]{1,0} sine(sin.9945)
  sin.9947 = f32[1000,1000]{1,0} sine(sin.9946)
  sin.9948 = f32[1000,1000]{1,0} sine(sin.9947)
  sin.9949 = f32[1000,1000]{1,0} sine(sin.9948)
  sin.9950 = f32[1000,1000]{1,0} sine(sin.9949)
  sin.9951 = f32[1000,1000]{1,0} sine(sin.9950)
  sin.9952 = f32[1000,1000]{1,0} sine(sin.9951)
  sin.9953 = f32[1000,1000]{1,0} sine(sin.9952)
  sin.9954 = f32[1000,1000]{1,0} sine(sin.9953)
  sin.9955 = f32[1000,1000]{1,0} sine(sin.9954)
  sin.9956 = f32[1000,1000]{1,0} sine(sin.9955)
  sin.9957 = f32[1000,1000]{1,0} sine(sin.9956)
  sin.9958 = f32[1000,1000]{1,0} sine(sin.9957)
  sin.9959 = f32[1000,1000]{1,0} sine(sin.9958)
  sin.9960 = f32[1000,1000]{1,0} sine(sin.9959)
  sin.9961 = f32[1000,1000]{1,0} sine(sin.9960)
  sin.9962 = f32[1000,1000]{1,0} sine(sin.9961)
  sin.9963 = f32[1000,1000]{1,0} sine(sin.9962)
  sin.9964 = f32[1000,1000]{1,0} sine(sin.9963)
  sin.9965 = f32[1000,1000]{1,0} sine(sin.9964)
  sin.9966 = f32[1000,1000]{1,0} sine(sin.9965)
  sin.9967 = f32[1000,1000]{1,0} sine(sin.9966)
  sin.9968 = f32[1000,1000]{1,0} sine(sin.9967)
  sin.9969 = f32[1000,1000]{1,0} sine(sin.9968)
  sin.9970 = f32[1000,1000]{1,0} sine(sin.9969)
  sin.9971 = f32[1000,1000]{1,0} sine(sin.9970)
  sin.9972 = f32[1000,1000]{1,0} sine(sin.9971)
  sin.9973 = f32[1000,1000]{1,0} sine(sin.9972)
  sin.9974 = f32[1000,1000]{1,0} sine(sin.9973)
  sin.9975 = f32[1000,1000]{1,0} sine(sin.9974)
  sin.9976 = f32[1000,1000]{1,0} sine(sin.9975)
  sin.9977 = f32[1000,1000]{1,0} sine(sin.9976)
  sin.9978 = f32[1000,1000]{1,0} sine(sin.9977)
  sin.9979 = f32[1000,1000]{1,0} sine(sin.9978)
  sin.9980 = f32[1000,1000]{1,0} sine(sin.9979)
  sin.9981 = f32[1000,1000]{1,0} sine(sin.9980)
  sin.9982 = f32[1000,1000]{1,0} sine(sin.9981)
  sin.9983 = f32[1000,1000]{1,0} sine(sin.9982)
  sin.9984 = f32[1000,1000]{1,0} sine(sin.9983)
  sin.9985 = f32[1000,1000]{1,0} sine(sin.9984)
  sin.9986 = f32[1000,1000]{1,0} sine(sin.9985)
  sin.9987 = f32[1000,1000]{1,0} sine(sin.9986)
  sin.9988 = f32[1000,1000]{1,0} sine(sin.9987)
  sin.9989 = f32[1000,1000]{1,0} sine(sin.9988)
  sin.9990 = f32[1000,1000]{1,0} sine(sin.9989)
  sin.9991 = f32[1000,1000]{1,0} sine(sin.9990)
  sin.9992 = f32[1000,1000]{1,0} sine(sin.9991)
  sin.9993 = f32[1000,1000]{1,0} sine(sin.9992)
  sin.9994 = f32[1000,1000]{1,0} sine(sin.9993)
  sin.9995 = f32[1000,1000]{1,0} sine(sin.9994)
  sin.9996 = f32[1000,1000]{1,0} sine(sin.9995)
  sin.9997 = f32[1000,1000]{1,0} sine(sin.9996)
  sin.9998 = f32[1000,1000]{1,0} sine(sin.9997)
  sin.9999 = f32[1000,1000]{1,0} sine(sin.9998)
  cos.9901 = f32[1000,1000]{1,0} cosine(Arg_0.1)
  cos.9902 = f32[1000,1000]{1,0} cosine(cos.9901)
  cos.9903 = f32[1000,1000]{1,0} cosine(cos.9902)
  cos.9904 = f32[1000,1000]{1,0} cosine(cos.9903)
  cos.9905 = f32[1000,1000]{1,0} cosine(cos.9904)
  cos.9906 = f32[1000,1000]{1,0} cosine(cos.9905)
  cos.9907 = f32[1000,1000]{1,0} cosine(cos.9906)
  cos.9908 = f32[1000,1000]{1,0} cosine(cos.9907)
  cos.9909 = f32[1000,1000]{1,0} cosine(cos.9908)
  cos.9910 = f32[1000,1000]{1,0} cosine(cos.9909)
  cos.9911 = f32[1000,1000]{1,0} cosine(cos.9910)
  cos.9912 = f32[1000,1000]{1,0} cosine(cos.9911)
  cos.9913 = f32[1000,1000]{1,0} cosine(cos.9912)
  cos.9914 = f32[1000,1000]{1,0} cosine(cos.9913)
  cos.9915 = f32[1000,1000]{1,0} cosine(cos.9914)
  cos.9916 = f32[1000,1000]{1,0} cosine(cos.9915)
  cos.9917 = f32[1000,1000]{1,0} cosine(cos.9916)
  cos.9918 = f32[1000,1000]{1,0} cosine(cos.9917)
  cos.9919 = f32[1000,1000]{1,0} cosine(cos.9918)
  cos.9920 = f32[1000,1000]{1,0} cosine(cos.9919)
  cos.9921 = f32[1000,1000]{1,0} cosine(cos.9920)
  cos.9922 = f32[1000,1000]{1,0} cosine(cos.9921)
  cos.9923 = f32[1000,1000]{1,0} cosine(cos.9922)
  cos.9924 = f32[1000,1000]{1,0} cosine(cos.9923)
  cos.9925 = f32[1000,1000]{1,0} cosine(cos.9924)
  cos.9926 = f32[1000,1000]{1,0} cosine(cos.9925)
  cos.9927 = f32[1000,1000]{1,0} cosine(cos.9926)
  cos.9928 = f32[1000,1000]{1,0} cosine(cos.9927)
  cos.9929 = f32[1000,1000]{1,0} cosine(cos.9928)
  cos.9930 = f32[1000,1000]{1,0} cosine(cos.9929)
  cos.9931 = f32[1000,1000]{1,0} cosine(cos.9930)
  cos.9932 = f32[1000,1000]{1,0} cosine(cos.9931)
  cos.9933 = f32[1000,1000]{1,0} cosine(cos.9932)
  cos.9934 = f32[1000,1000]{1,0} cosine(cos.9933)
  cos.9935 = f32[1000,1000]{1,0} cosine(cos.9934)
  cos.9936 = f32[1000,1000]{1,0} cosine(cos.9935)
  cos.9937 = f32[1000,1000]{1,0} cosine(cos.9936)
  cos.9938 = f32[1000,1000]{1,0} cosine(cos.9937)
  cos.9939 = f32[1000,1000]{1,0} cosine(cos.9938)
  cos.9940 = f32[1000,1000]{1,0} cosine(cos.9939)
  cos.9941 = f32[1000,1000]{1,0} cosine(cos.9940)
  cos.9942 = f32[1000,1000]{1,0} cosine(cos.9941)
  cos.9943 = f32[1000,1000]{1,0} cosine(cos.9942)
  cos.9944 = f32[1000,1000]{1,0} cosine(cos.9943)
  cos.9945 = f32[1000,1000]{1,0} cosine(cos.9944)
  cos.9946 = f32[1000,1000]{1,0} cosine(cos.9945)
  cos.9947 = f32[1000,1000]{1,0} cosine(cos.9946)
  cos.9948 = f32[1000,1000]{1,0} cosine(cos.9947)
  cos.9949 = f32[1000,1000]{1,0} cosine(cos.9948)
  cos.9950 = f32[1000,1000]{1,0} cosine(cos.9949)
  cos.9951 = f32[1000,1000]{1,0} cosine(cos.9950)
  cos.9952 = f32[1000,1000]{1,0} cosine(cos.9951)
  cos.9953 = f32[1000,1000]{1,0} cosine(cos.9952)
  cos.9954 = f32[1000,1000]{1,0} cosine(cos.9953)
  cos.9955 = f32[1000,1000]{1,0} cosine(cos.9954)
  cos.9956 = f32[1000,1000]{1,0} cosine(cos.9955)
  cos.9957 = f32[1000,1000]{1,0} cosine(cos.9956)
  cos.9958 = f32[1000,1000]{1,0} cosine(cos.9957)
  cos.9959 = f32[1000,1000]{1,0} cosine(cos.9958)
  cos.9960 = f32[1000,1000]{1,0} cosine(cos.9959)
  cos.9961 = f32[1000,1000]{1,0} cosine(cos.9960)
  cos.9962 = f32[1000,1000]{1,0} cosine(cos.9961)
  cos.9963 = f32[1000,1000]{1,0} cosine(cos.9962)
  cos.9964 = f32[1000,1000]{1,0} cosine(cos.9963)
  cos.9965 = f32[1000,1000]{1,0} cosine(cos.9964)
  cos.9966 = f32[1000,1000]{1,0} cosine(cos.9965)
  cos.9967 = f32[1000,1000]{1,0} cosine(cos.9966)
  cos.9968 = f32[1000,1000]{1,0} cosine(cos.9967)
  cos.9969 = f32[1000,1000]{1,0} cosine(cos.9968)
  cos.9970 = f32[1000,1000]{1,0} cosine(cos.9969)
  cos.9971 = f32[1000,1000]{1,0} cosine(cos.9970)
  cos.9972 = f32[1000,1000]{1,0} cosine(cos.9971)
  cos.9973 = f32[1000,1000]{1,0} cosine(cos.9972)
  cos.9974 = f32[1000,1000]{1,0} cosine(cos.9973)
  cos.9975 = f32[1000,1000]{1,0} cosine(cos.9974)
  cos.9976 = f32[1000,1000]{1,0} cosine(cos.9975)
  cos.9977 = f32[1000,1000]{1,0} cosine(cos.9976)
  cos.9978 = f32[1000,1000]{1,0} cosine(cos.9977)
  cos.9979 = f32[1000,1000]{1,0} cosine(cos.9978)
  cos.9980 = f32[1000,1000]{1,0} cosine(cos.9979)
  cos.9981 = f32[1000,1000]{1,0} cosine(cos.9980)
  cos.9982 = f32[1000,1000]{1,0} cosine(cos.9981)
  cos.9983 = f32[1000,1000]{1,0} cosine(cos.9982)
  cos.9984 = f32[1000,1000]{1,0} cosine(cos.9983)
  cos.9985 = f32[1000,1000]{1,0} cosine(cos.9984)
  cos.9986 = f32[1000,1000]{1,0} cosine(cos.9985)
  cos.9987 = f32[1000,1000]{1,0} cosine(cos.9986)
  cos.9988 = f32[1000,1000]{1,0} cosine(cos.9987)
  cos.9989 = f32[1000,1000]{1,0} cosine(cos.9988)
  cos.9990 = f32[1000,1000]{1,0} cosine(cos.9989)
  cos.9991 = f32[1000,1000]{1,0} cosine(cos.9990)
  cos.9992 = f32[1000,1000]{1,0} cosine(cos.9991)
  cos.9993 = f32[1000,1000]{1,0} cosine(cos.9992)
  cos.9994 = f32[1000,1000]{1,0} cosine(cos.9993)
  cos.9995 = f32[1000,1000]{1,0} cosine(cos.9994)
  cos.9996 = f32[1000,1000]{1,0} cosine(cos.9995)
  cos.9997 = f32[1000,1000]{1,0} cosine(cos.9996)
  cos.9998 = f32[1000,1000]{1,0} cosine(cos.9997)
  cos.9999 = f32[1000,1000]{1,0} cosine(cos.9998)
  add.394 = f32[1000,1000]{1,0} add(sin.9999, cos.9999)
  add.395 = f32[1000,1000]{1,0} add(add.393, add.394)
  sin.10000 = f32[1000,1000]{1,0} sine(Arg_0.1)
  sin.10001 = f32[1000,1000]{1,0} sine(sin.10000)
  sin.10002 = f32[1000,1000]{1,0} sine(sin.10001)
  sin.10003 = f32[1000,1000]{1,0} sine(sin.10002)
  sin.10004 = f32[1000,1000]{1,0} sine(sin.10003)
  sin.10005 = f32[1000,1000]{1,0} sine(sin.10004)
  sin.10006 = f32[1000,1000]{1,0} sine(sin.10005)
  sin.10007 = f32[1000,1000]{1,0} sine(sin.10006)
  sin.10008 = f32[1000,1000]{1,0} sine(sin.10007)
  sin.10009 = f32[1000,1000]{1,0} sine(sin.10008)
  sin.10010 = f32[1000,1000]{1,0} sine(sin.10009)
  sin.10011 = f32[1000,1000]{1,0} sine(sin.10010)
  sin.10012 = f32[1000,1000]{1,0} sine(sin.10011)
  sin.10013 = f32[1000,1000]{1,0} sine(sin.10012)
  sin.10014 = f32[1000,1000]{1,0} sine(sin.10013)
  sin.10015 = f32[1000,1000]{1,0} sine(sin.10014)
  sin.10016 = f32[1000,1000]{1,0} sine(sin.10015)
  sin.10017 = f32[1000,1000]{1,0} sine(sin.10016)
  sin.10018 = f32[1000,1000]{1,0} sine(sin.10017)
  sin.10019 = f32[1000,1000]{1,0} sine(sin.10018)
  sin.10020 = f32[1000,1000]{1,0} sine(sin.10019)
  sin.10021 = f32[1000,1000]{1,0} sine(sin.10020)
  sin.10022 = f32[1000,1000]{1,0} sine(sin.10021)
  sin.10023 = f32[1000,1000]{1,0} sine(sin.10022)
  sin.10024 = f32[1000,1000]{1,0} sine(sin.10023)
  sin.10025 = f32[1000,1000]{1,0} sine(sin.10024)
  sin.10026 = f32[1000,1000]{1,0} sine(sin.10025)
  sin.10027 = f32[1000,1000]{1,0} sine(sin.10026)
  sin.10028 = f32[1000,1000]{1,0} sine(sin.10027)
  sin.10029 = f32[1000,1000]{1,0} sine(sin.10028)
  sin.10030 = f32[1000,1000]{1,0} sine(sin.10029)
  sin.10031 = f32[1000,1000]{1,0} sine(sin.10030)
  sin.10032 = f32[1000,1000]{1,0} sine(sin.10031)
  sin.10033 = f32[1000,1000]{1,0} sine(sin.10032)
  sin.10034 = f32[1000,1000]{1,0} sine(sin.10033)
  sin.10035 = f32[1000,1000]{1,0} sine(sin.10034)
  sin.10036 = f32[1000,1000]{1,0} sine(sin.10035)
  sin.10037 = f32[1000,1000]{1,0} sine(sin.10036)
  sin.10038 = f32[1000,1000]{1,0} sine(sin.10037)
  sin.10039 = f32[1000,1000]{1,0} sine(sin.10038)
  sin.10040 = f32[1000,1000]{1,0} sine(sin.10039)
  sin.10041 = f32[1000,1000]{1,0} sine(sin.10040)
  sin.10042 = f32[1000,1000]{1,0} sine(sin.10041)
  sin.10043 = f32[1000,1000]{1,0} sine(sin.10042)
  sin.10044 = f32[1000,1000]{1,0} sine(sin.10043)
  sin.10045 = f32[1000,1000]{1,0} sine(sin.10044)
  sin.10046 = f32[1000,1000]{1,0} sine(sin.10045)
  sin.10047 = f32[1000,1000]{1,0} sine(sin.10046)
  sin.10048 = f32[1000,1000]{1,0} sine(sin.10047)
  sin.10049 = f32[1000,1000]{1,0} sine(sin.10048)
  sin.10050 = f32[1000,1000]{1,0} sine(sin.10049)
  sin.10051 = f32[1000,1000]{1,0} sine(sin.10050)
  sin.10052 = f32[1000,1000]{1,0} sine(sin.10051)
  sin.10053 = f32[1000,1000]{1,0} sine(sin.10052)
  sin.10054 = f32[1000,1000]{1,0} sine(sin.10053)
  sin.10055 = f32[1000,1000]{1,0} sine(sin.10054)
  sin.10056 = f32[1000,1000]{1,0} sine(sin.10055)
  sin.10057 = f32[1000,1000]{1,0} sine(sin.10056)
  sin.10058 = f32[1000,1000]{1,0} sine(sin.10057)
  sin.10059 = f32[1000,1000]{1,0} sine(sin.10058)
  sin.10060 = f32[1000,1000]{1,0} sine(sin.10059)
  sin.10061 = f32[1000,1000]{1,0} sine(sin.10060)
  sin.10062 = f32[1000,1000]{1,0} sine(sin.10061)
  sin.10063 = f32[1000,1000]{1,0} sine(sin.10062)
  sin.10064 = f32[1000,1000]{1,0} sine(sin.10063)
  sin.10065 = f32[1000,1000]{1,0} sine(sin.10064)
  sin.10066 = f32[1000,1000]{1,0} sine(sin.10065)
  sin.10067 = f32[1000,1000]{1,0} sine(sin.10066)
  sin.10068 = f32[1000,1000]{1,0} sine(sin.10067)
  sin.10069 = f32[1000,1000]{1,0} sine(sin.10068)
  sin.10070 = f32[1000,1000]{1,0} sine(sin.10069)
  sin.10071 = f32[1000,1000]{1,0} sine(sin.10070)
  sin.10072 = f32[1000,1000]{1,0} sine(sin.10071)
  sin.10073 = f32[1000,1000]{1,0} sine(sin.10072)
  sin.10074 = f32[1000,1000]{1,0} sine(sin.10073)
  sin.10075 = f32[1000,1000]{1,0} sine(sin.10074)
  sin.10076 = f32[1000,1000]{1,0} sine(sin.10075)
  sin.10077 = f32[1000,1000]{1,0} sine(sin.10076)
  sin.10078 = f32[1000,1000]{1,0} sine(sin.10077)
  sin.10079 = f32[1000,1000]{1,0} sine(sin.10078)
  sin.10080 = f32[1000,1000]{1,0} sine(sin.10079)
  sin.10081 = f32[1000,1000]{1,0} sine(sin.10080)
  sin.10082 = f32[1000,1000]{1,0} sine(sin.10081)
  sin.10083 = f32[1000,1000]{1,0} sine(sin.10082)
  sin.10084 = f32[1000,1000]{1,0} sine(sin.10083)
  sin.10085 = f32[1000,1000]{1,0} sine(sin.10084)
  sin.10086 = f32[1000,1000]{1,0} sine(sin.10085)
  sin.10087 = f32[1000,1000]{1,0} sine(sin.10086)
  sin.10088 = f32[1000,1000]{1,0} sine(sin.10087)
  sin.10089 = f32[1000,1000]{1,0} sine(sin.10088)
  sin.10090 = f32[1000,1000]{1,0} sine(sin.10089)
  sin.10091 = f32[1000,1000]{1,0} sine(sin.10090)
  sin.10092 = f32[1000,1000]{1,0} sine(sin.10091)
  sin.10093 = f32[1000,1000]{1,0} sine(sin.10092)
  sin.10094 = f32[1000,1000]{1,0} sine(sin.10093)
  sin.10095 = f32[1000,1000]{1,0} sine(sin.10094)
  sin.10096 = f32[1000,1000]{1,0} sine(sin.10095)
  sin.10097 = f32[1000,1000]{1,0} sine(sin.10096)
  sin.10098 = f32[1000,1000]{1,0} sine(sin.10097)
  sin.10099 = f32[1000,1000]{1,0} sine(sin.10098)
  cos.10000 = f32[1000,1000]{1,0} cosine(Arg_0.1)
  cos.10001 = f32[1000,1000]{1,0} cosine(cos.10000)
  cos.10002 = f32[1000,1000]{1,0} cosine(cos.10001)
  cos.10003 = f32[1000,1000]{1,0} cosine(cos.10002)
  cos.10004 = f32[1000,1000]{1,0} cosine(cos.10003)
  cos.10005 = f32[1000,1000]{1,0} cosine(cos.10004)
  cos.10006 = f32[1000,1000]{1,0} cosine(cos.10005)
  cos.10007 = f32[1000,1000]{1,0} cosine(cos.10006)
  cos.10008 = f32[1000,1000]{1,0} cosine(cos.10007)
  cos.10009 = f32[1000,1000]{1,0} cosine(cos.10008)
  cos.10010 = f32[1000,1000]{1,0} cosine(cos.10009)
  cos.10011 = f32[1000,1000]{1,0} cosine(cos.10010)
  cos.10012 = f32[1000,1000]{1,0} cosine(cos.10011)
  cos.10013 = f32[1000,1000]{1,0} cosine(cos.10012)
  cos.10014 = f32[1000,1000]{1,0} cosine(cos.10013)
  cos.10015 = f32[1000,1000]{1,0} cosine(cos.10014)
  cos.10016 = f32[1000,1000]{1,0} cosine(cos.10015)
  cos.10017 = f32[1000,1000]{1,0} cosine(cos.10016)
  cos.10018 = f32[1000,1000]{1,0} cosine(cos.10017)
  cos.10019 = f32[1000,1000]{1,0} cosine(cos.10018)
  cos.10020 = f32[1000,1000]{1,0} cosine(cos.10019)
  cos.10021 = f32[1000,1000]{1,0} cosine(cos.10020)
  cos.10022 = f32[1000,1000]{1,0} cosine(cos.10021)
  cos.10023 = f32[1000,1000]{1,0} cosine(cos.10022)
  cos.10024 = f32[1000,1000]{1,0} cosine(cos.10023)
  cos.10025 = f32[1000,1000]{1,0} cosine(cos.10024)
  cos.10026 = f32[1000,1000]{1,0} cosine(cos.10025)
  cos.10027 = f32[1000,1000]{1,0} cosine(cos.10026)
  cos.10028 = f32[1000,1000]{1,0} cosine(cos.10027)
  cos.10029 = f32[1000,1000]{1,0} cosine(cos.10028)
  cos.10030 = f32[1000,1000]{1,0} cosine(cos.10029)
  cos.10031 = f32[1000,1000]{1,0} cosine(cos.10030)
  cos.10032 = f32[1000,1000]{1,0} cosine(cos.10031)
  cos.10033 = f32[1000,1000]{1,0} cosine(cos.10032)
  cos.10034 = f32[1000,1000]{1,0} cosine(cos.10033)
  cos.10035 = f32[1000,1000]{1,0} cosine(cos.10034)
  cos.10036 = f32[1000,1000]{1,0} cosine(cos.10035)
  cos.10037 = f32[1000,1000]{1,0} cosine(cos.10036)
  cos.10038 = f32[1000,1000]{1,0} cosine(cos.10037)
  cos.10039 = f32[1000,1000]{1,0} cosine(cos.10038)
  cos.10040 = f32[1000,1000]{1,0} cosine(cos.10039)
  cos.10041 = f32[1000,1000]{1,0} cosine(cos.10040)
  cos.10042 = f32[1000,1000]{1,0} cosine(cos.10041)
  cos.10043 = f32[1000,1000]{1,0} cosine(cos.10042)
  cos.10044 = f32[1000,1000]{1,0} cosine(cos.10043)
  cos.10045 = f32[1000,1000]{1,0} cosine(cos.10044)
  cos.10046 = f32[1000,1000]{1,0} cosine(cos.10045)
  cos.10047 = f32[1000,1000]{1,0} cosine(cos.10046)
  cos.10048 = f32[1000,1000]{1,0} cosine(cos.10047)
  cos.10049 = f32[1000,1000]{1,0} cosine(cos.10048)
  cos.10050 = f32[1000,1000]{1,0} cosine(cos.10049)
  cos.10051 = f32[1000,1000]{1,0} cosine(cos.10050)
  cos.10052 = f32[1000,1000]{1,0} cosine(cos.10051)
  cos.10053 = f32[1000,1000]{1,0} cosine(cos.10052)
  cos.10054 = f32[1000,1000]{1,0} cosine(cos.10053)
  cos.10055 = f32[1000,1000]{1,0} cosine(cos.10054)
  cos.10056 = f32[1000,1000]{1,0} cosine(cos.10055)
  cos.10057 = f32[1000,1000]{1,0} cosine(cos.10056)
  cos.10058 = f32[1000,1000]{1,0} cosine(cos.10057)
  cos.10059 = f32[1000,1000]{1,0} cosine(cos.10058)
  cos.10060 = f32[1000,1000]{1,0} cosine(cos.10059)
  cos.10061 = f32[1000,1000]{1,0} cosine(cos.10060)
  cos.10062 = f32[1000,1000]{1,0} cosine(cos.10061)
  cos.10063 = f32[1000,1000]{1,0} cosine(cos.10062)
  cos.10064 = f32[1000,1000]{1,0} cosine(cos.10063)
  cos.10065 = f32[1000,1000]{1,0} cosine(cos.10064)
  cos.10066 = f32[1000,1000]{1,0} cosine(cos.10065)
  cos.10067 = f32[1000,1000]{1,0} cosine(cos.10066)
  cos.10068 = f32[1000,1000]{1,0} cosine(cos.10067)
  cos.10069 = f32[1000,1000]{1,0} cosine(cos.10068)
  cos.10070 = f32[1000,1000]{1,0} cosine(cos.10069)
  cos.10071 = f32[1000,1000]{1,0} cosine(cos.10070)
  cos.10072 = f32[1000,1000]{1,0} cosine(cos.10071)
  cos.10073 = f32[1000,1000]{1,0} cosine(cos.10072)
  cos.10074 = f32[1000,1000]{1,0} cosine(cos.10073)
  cos.10075 = f32[1000,1000]{1,0} cosine(cos.10074)
  cos.10076 = f32[1000,1000]{1,0} cosine(cos.10075)
  cos.10077 = f32[1000,1000]{1,0} cosine(cos.10076)
  cos.10078 = f32[1000,1000]{1,0} cosine(cos.10077)
  cos.10079 = f32[1000,1000]{1,0} cosine(cos.10078)
  cos.10080 = f32[1000,1000]{1,0} cosine(cos.10079)
  cos.10081 = f32[1000,1000]{1,0} cosine(cos.10080)
  cos.10082 = f32[1000,1000]{1,0} cosine(cos.10081)
  cos.10083 = f32[1000,1000]{1,0} cosine(cos.10082)
  cos.10084 = f32[1000,1000]{1,0} cosine(cos.10083)
  cos.10085 = f32[1000,1000]{1,0} cosine(cos.10084)
  cos.10086 = f32[1000,1000]{1,0} cosine(cos.10085)
  cos.10087 = f32[1000,1000]{1,0} cosine(cos.10086)
  cos.10088 = f32[1000,1000]{1,0} cosine(cos.10087)
  cos.10089 = f32[1000,1000]{1,0} cosine(cos.10088)
  cos.10090 = f32[1000,1000]{1,0} cosine(cos.10089)
  cos.10091 = f32[1000,1000]{1,0} cosine(cos.10090)
  cos.10092 = f32[1000,1000]{1,0} cosine(cos.10091)
  cos.10093 = f32[1000,1000]{1,0} cosine(cos.10092)
  cos.10094 = f32[1000,1000]{1,0} cosine(cos.10093)
  cos.10095 = f32[1000,1000]{1,0} cosine(cos.10094)
  cos.10096 = f32[1000,1000]{1,0} cosine(cos.10095)
  cos.10097 = f32[1000,1000]{1,0} cosine(cos.10096)
  cos.10098 = f32[1000,1000]{1,0} cosine(cos.10097)
  cos.10099 = f32[1000,1000]{1,0} cosine(cos.10098)
  add.396 = f32[1000,1000]{1,0} add(sin.10099, cos.10099)
  ROOT add.397 = f32[1000,1000]{1,0} add(add.395, add.396)
}

ENTRY main.2 {
  x.1 = f32[1000,1000]{1,0} parameter(0)
  ROOT jit_fn_jit_.1 = f32[1000,1000]{1,0} call(x.1), to_apply=fn_jit.1
}

